…
        min_aspect_ratio: 0.5
        max_aspect_ratio: 2
      }
      sample_constraint {
        min_jaccard_overlap: 0.9
        min_object_coverage: 0.8
      }
      max_sample: 1
      max_trials: 50
    }
    batch_sampler {
      sampler {
        min_scale: 0.3
        max_scale: 1
        min_aspect_ratio: 0.5
        max_aspect_ratio: 2
      }
      sample_constraint {
        max_jaccard_overlap: 1
        min_object_coverage: 0.8
      }
      max_sample: 1
      max_trials: 50
    }
    label_map_file: "E:/tyang/Pedestrian/labelmap_VehicleFull.prototxt"
  }
}
layer {
  name: "conv1"
  type: "Convolution"
  bottom: "data"
  top: "conv1"
  convolution_param {
    num_output: 64
    pad: 1
    kernel_size: 3
    stride: 2
    weight_filler {
      type: "xavier"
    }
  }
}
layer {
  name: "relu_conv1"
  type: "ReLU"
  bottom: "conv1"
  top: "conv1"
}
layer {
  name: "pool1"
  type: "Pooling"
  bottom: "conv1"
  top: "pool1"
  pooling_param {
    pool: MAX
    kernel_size: 3
    stride: 2
  }
}
layer {
  name: "conv1_bn"
  type: "BatchNorm"
  bottom: "pool1"
  top: "pool1"
  include {
    phase: TRAIN
  }
  batch_norm_param {
    use_global_stats: false
    moving_average_fraction: 0.95
  }
}
layer {
  name: "fire2/squeeze1x1"
  type: "Convolution"
  bottom: "pool1"
  top: "fire2/squeeze1x1"
  convolution_param {
    num_output: 16
    kernel_size: 1
    weight_filler {
      type: "xavier"
    }
  }
}
layer {
  name: "fire2/relu_squeeze1x1"
  type: "ReLU"
  bottom: "fire2/squeeze1x1"
  top: "fire2/squeeze1x1"
}
layer {
  name: "fire2/expand1x1"
  type: "Convolution"
  bottom: "fire2/squeeze1x1"
  top: "fire2/expand1x1"
  convolution_param {
    num_output: 64
    kernel_size: 1
    weight_filler {
      type: "xavier"
    }
  }
}
layer {
  name: "fire2/relu_expand1x1"
  type: "ReLU"
  bottom: "fire2/expand1x1"
  top: "fire2/expand1x1"
}
layer {
  name: "fire2/expand3x3"
  type: "Convolution"
  bottom: "fire2/squeeze1x1"
  top: "fire2/expand3x3"
  convolution_param {
    num_output: 64
    pad: 1
    kernel_size: 3
    weight_filler {
      type: "xavier"
    }
  }
}
layer {
  name: "fire2/relu_expand3x3"
  type: "ReLU"
  bottom: "fire2/expand3x3"
  top: "fire2/expand3x3"
}
layer {
  name: "fire2/concat"
  type: "Concat"
  bottom: "fire2/expand1x1"
  bottom: "fire2/expand3x3"
  top: "fire2/concat"
}
layer {
  name: "fire2/concat_bn"
  type: "BatchNorm"
  bottom: "fire2/concat"
  top: "fire2/concat"
  include {
    phase: TRAIN
  }
  batch_norm_param {
    use_global_stats: false
    moving_average_fraction: 0.95
  }
}
layer {
  name: "fire3/squeeze1x1"
  type: "Convolution"
  bottom: "fire2/concat"
  top: "fire3/squeeze1x1"
  convolution_param {
    num_output: 16
    kernel_size: 1
    weight_filler {
      type: "xavier"
    }
  }
}
layer {
  name: "fire3/relu_squeeze1x1"
  type: "ReLU"
  bottom: "fire3/squeeze1x1"
  top: "fire3/squeeze1x1"
}
layer {
  name: "fire3/expand1x1"
  type: "Convolution"
  bottom: "fire3/squeeze1x1"
  top: "fire3/expand1x1"
  convolution_param {
    num_output: 64
    kernel_size: 1
    weight_filler {
      type: "xavier"
    }
  }
}
layer {
  name: "fire3/relu_expand1x1"
  type: "ReLU"
  bottom: "fire3/expand1x1"
  top: "fire3/expand1x1"
}
layer {
  name: "fire3/expand3x3"
  type: "Convolution"
  bottom: "fire3/squeeze1x1"
  top: "fire3/expand3x3"
  convolution_param {
    num_output: 64
    pad: 1
    kernel_size: 3
    weight_filler {
      type: "xavier"
    }
  }
}
layer {
  name: "fire3/relu_expand3x3"
  type: "ReLU"
  bottom: "fire3/expand3x3"
  top: "fire3/expand3x3"
}
layer {
  name: "fire3/concat"
  type: "Concat"
  bottom: "fire3/expand1x1"
  bottom: "fire3/expand3x3"
  top: "fire3/concat"
}
layer {
  name: "pool3"
  type: "Pooling"
  bottom: "fire3/concat"
  top: "pool3"
  pooling_param {
    pool: MAX
    kernel_size: 2
    stride: 2
  }
}
layer {
  name: "fire3/concat_bn"
  type: "BatchNorm"
  bottom: "pool3"
  top: "pool3"
  include {
    phase: TRAIN
  }
  batch_norm_param {
    use_global_stats: false
    moving_average_fraction: 0.95
  }
}
layer {
  name: "fire4/squeeze1x1"
  type: "Convolution"
  bottom: "pool3"
  top: "fire4/squeeze1x1"
  convolution_param {
    num_output: 32
    kernel_size: 1
    weight_filler {
      type: "xavier"
    }
  }
}
layer {
  name: "fire4/relu_squeeze1x1"
  type: "ReLU"
  bottom: "fire4/squeeze1x1"
  top: "fire4/squeeze1x1"
}
layer {
  name: "fire4/expand1x1"
  type: "Convolution"
  bottom: "fire4/squeeze1x1"
  top: "fire4/expand1x1"
  convolution_param {
    num_output: 128
    kernel_size: 1
    weight_filler {
      type: "xavier"
    }
  }
}
layer {
  name: "fire4/relu_expand1x1"
  type: "ReLU"
  bottom: "fire4/expand1x1"
  top: "fire4/expand1x1"
}
layer {
  name: "fire4/expand3x3"
  type: "Convolution"
  bottom: "fire4/squeeze1x1"
  top: "fire4/expand3x3"
  convolution_param {
    num_output: 128
    pad: 1
    kernel_size: 3
    weight_filler {
      type: "xavier"
    }
  }
}
layer {
  name: "fire4/relu_expand3x3"
  type: "ReLU"
  bottom: "fire4/expand3x3"
  top: "fire4/expand3x3"
}
layer {
  name: "fire4/concat"
  type: "Concat"
  bottom: "fire4/expand1x1"
  bottom: "fire4/expand3x3"
  top: "fire4/concat"
}
layer {
  name: "fire4/concat_bn"
  type: "BatchNorm"
  bottom: "fire4/concat"
  top: "fire4/concat"
  include {
    phase: TRAIN
  }
  batch_norm_param {
    use_global_stats: false
    moving_average_fraction: 0.95
  }
}
layer {
  name: "fire5/squeeze1x1"
  type: "Convolution"
  bottom: "fire4/concat"
  top: "fire5/squeeze1x1"
  convolution_param {
    num_output: 32
    kernel_size: 1
    weight_filler {
      type: "xavier"
    }
  }
}
layer {
  name: "fire5/relu_squeeze1x1"
  type: "ReLU"
  bottom: "fire5/squeeze1x1"
  top: "fire5/squeeze1x1"
}
layer {
  name: "fire5/expand1x1"
  type: "Convolution"
  bottom: "fire5/squeeze1x1"
  top: "fire5/expand1x1"
  convolution_param {
    num_output: 128
    kernel_size: 1
    weight_filler {
      type: "xavier"
    }
  }
}
layer {
  name: "fire5/relu_expand1x1"
  type: "ReLU"
  bottom: "fire5/expand1x1"
  top: "fire5/expand1x1"
}
layer {
  name: "fire5/expand3x3"
  type: "Convolution"
  bottom: "fire5/squeeze1x1"
  top: "fire5/expand3x3"
  convolution_param {
    num_output: 128
    pad: 1
    kernel_size: 3
    weight_filler {
      type: "xavier"
    }
  }
}
layer {
  name: "fire5/relu_expand3x3"
  type: "ReLU"
  bottom: "fire5/expand3x3"
  top: "fire5/expand3x3"
}
layer {
  name: "fire5/concat"
  type: "Concat"
  bottom: "fire5/expand1x1"
  bottom: "fire5/expand3x3"
  top: "fire5/concat"
}
layer {
  name: "pool5"
  type: "Pooling"
  bottom: "fire5/concat"
  top: "pool5"
  pooling_param {
    pool: MAX
    kernel_size: 2
    stride: 2
  }
}
layer {
  name: "fire5/concat_bn"
  type: "BatchNorm"
  bottom: "pool5"
  top: "pool5"
  include {
    phase: TRAIN
  }
  batch_norm_param {
    use_global_stats: false
    moving_average_fraction: 0.95
  }
}
layer {
  name: "fire6/squeeze1x1"
  type: "Convolution"
  bottom: "pool5"
  top: "fire6/squeeze1x1"
  convolution_param {
    num_output: 48
    kernel_size: 1
    weight_filler {
      type: "xavier"
    }
  }
}
layer {
  name: "fire6/relu_squeeze1x1"
  type: "ReLU"
  bottom: "fire6/squeeze1x1"
  top: "fire6/squeeze1x1"
}
layer {
  name: "fire6/expand1x1"
  type: "Convolution"
  bottom: "fire6/squeeze1x1"
  top: "fire6/expand1x1"
  convolution_param {
    num_output: 192
    kernel_size: 1
    weight_filler {
      type: "xavier"
    }
  }
}
layer {
  name: "fire6/relu_expand1x1"
  type: "ReLU"
  bottom: "fire6/expand1x1"
  top: "fire6/expand1x1"
}
layer {
  name: "fire6/expand3x3"
  type: "Convolution"
  bottom: "fire6/squeeze1x1"
  top: "fire6/expand3x3"
  convolution_param {
    num_output: 192
    pad: 1
    kernel_size: 3
    weight_filler {
      type: "xavier"
    }
  }
}
layer {
  name: "fire6/relu_expand3x3"
  type: "ReLU"
  bottom: "fire6/expand3x3"
  top: "fire6/expand3x3"
}
layer {
  name: "fire6/concat"
  type: "Concat"
  bottom: "fire6/expand1x1"
  bottom: "fire6/expand3x3"
  top: "fire6/concat"
}
layer {
  name: "fire6/concat_bn"
  type: "BatchNorm"
  bottom: "fire6/concat"
  top: "fire6/concat"
  include {
    phase: TRAIN
  }
  batch_norm_param {
    use_global_stats: false
    moving_average_fraction: 0.95
  }
}
layer {
  name: "fire7/squeeze1x1"
  type: "Convolution"
  bottom: "fire6/concat"
  top: "fire7/squeeze1x1"
  convolution_param {
    num_output: 48
    kernel_size: 1
    weight_filler {
      type: "xavier"
    }
  }
}
layer {
  name: "fire7/relu_squeeze1x1"
  type: "ReLU"
  bottom: "fire7/squeeze1x1"
  top: "fire7/squeeze1x1"
}
layer {
  name: "fire7/expand1x1"
  type: "Convolution"
  bottom: "fire7/squeeze1x1"
  top: "fire7/expand1x1"
  convolution_param {
    num_output: 192
    kernel_size: 1
    weight_filler {
      type: "xavier"
    }
  }
}
layer {
  name: "fire7/relu_expand1x1"
  type: "ReLU"
  bottom: "fire7/expand1x1"
  top: "fire7/expand1x1"
}
layer {
  name: "fire7/expand3x3"
  type: "Convolution"
  bottom: "fire7/squeeze1x1"
  top: "fire7/expand3x3"
  convolution_param {
    num_output: 192
    pad: 1
    kernel_size: 3
    weight_filler {
      type: "xavier"
    }
  }
}
layer {
  name: "fire7/relu_expand3x3"
  type: "ReLU"
  bottom: "fire7/expand3x3"
  top: "fire7/expand3x3"
}
layer {
  name: "fire7/concat"
  type: "Concat"
  bottom: "fire7/expand1x1"
  bottom: "fire7/expand3x3"
  top: "fire7/concat"
}
layer {
  name: "fire7/concat_bn"
  type: "BatchNorm"
  bottom: "fire7/concat"
  top: "fire7/concat"
  include {
    phase: TRAIN
  }
  batch_norm_param {
    use_global_stats: false
    moving_average_fraction: 0.95
  }
}
layer {
  name: "fire8/squeeze1x1"
  type: "Convolution"
  bottom: "fire7/concat"
  top: "fire8/squeeze1x1"
  convolution_param {
    num_output: 64
    kernel_size: 1
    weight_filler {
      type: "xavier"
    }
  }
}
layer {
  name: "fire8/relu_squeeze1x1"
  type: "ReLU"
  bottom: "fire8/squeeze1x1"
  top: "fire8/squeeze1x1"
}
layer {
  name: "fire8/expand1x1"
  type: "Convolution"
  bottom: "fire8/squeeze1x1"
  top: "fire8/expand1x1"
  convolution_param {
    num_output: 256
    kernel_size: 1
    weight_filler {
      type: "xavier"
    }
  }
}
layer {
  name: "fire8/relu_expand1x1"
  type: "ReLU"
  bottom: "fire8/expand1x1"
  top: "fire8/expand1x1"
}
layer {
  name: "fire8/expand3x3"
  type: "Convolution"
  bottom: "fire8/squeeze1x1"
  top: "fire8/expand3x3"
  convolution_param {
    num_output: 256
    pad: 1
    kernel_size: 3
    weight_filler {
      type: "xavier"
    }
  }
}
layer {
  name: "fire8/relu_expand3x3"
  type: "ReLU"
  bottom: "fire8/expand3x3"
  top: "fire8/expand3x3"
}
layer {
  name: "fire8/concat"
  type: "Concat"
  bottom: "fire8/expand1x1"
  bottom: "fire8/expand3x3"
  top: "fire8/concat"
}
layer {
  name: "fire8/concat_bn"
  type: "BatchNorm"
  bottom: "fire8/concat"
  top: "fire8/concat"
  include {
    phase: TRAIN
  }
  batch_norm_param {
    use_global_stats: false
    moving_average_fraction: 0.95
  }
}
layer {
  name: "fire9/squeeze1x1"
  type: "Convolution"
  bottom: "fire8/concat"
  top: "fire9/squeeze1x1"
  convolution_param {
    num_output: 64
    kernel_size: 1
    weight_filler {
      type: "xavier"
    }
  }
}
layer {
  name: "fire9/relu_squeeze1x1"
  type: "ReLU"
  bottom: "fire9/squeeze1x1"
  top: "fire9/squeeze1x1"
}
layer {
  name: "fire9/expand1x1"
  type: "Convolution"
  bottom: "fire9/squeeze1x1"
  top: "fire9/expand1x1"
  convolution_param {
    num_output: 256
    kernel_size: 1
    weight_filler {
      type: "xavier"
    }
  }
}
layer {
  name: "fire9/relu_expand1x1"
  type: "ReLU"
  bottom: "fire9/expand1x1"
  top: "fire9/expand1x1"
}
layer {
  name: "fire9/expand3x3"
  type: "Convolution"
  bottom: "fire9/squeeze1x1"
  top: "fire9/expand3x3"
  convolution_param {
    num_output: 256
    pad: 1
    kernel_size: 3
    weight_filler {
      type: "xavier"
    }
  }
}
layer {
  name: "fire9/relu_expand3x3"
  type: "ReLU"
  bottom: "fire9/expand3x3"
  top: "fire9/expand3x3"
}
layer {
  name: "fire9/concat"
  type: "Concat"
  bottom: "fire9/expand1x1"
  bottom: "fire9/expand3x3"
  top: "fire9/concat"
}
layer {
  name: "fire9/concat_bn"
  type: "BatchNorm"
  bottom: "fire9/concat"
  top: "fire9/concat"
  include {
    phase: TRAIN
  }
  batch_norm_param {
    use_global_stats: false
    moving_average_fraction: 0.95
  }
}
layer {
  name: "conv6_1"
  type: "Convolution"
  bottom: "fire9/concat"
  top: "conv6_1"
  param {
    lr_mult: 1
    decay_mult: 1
  }
  param {
    lr_mult: 2
    decay_mult: 0
  }
  convolution_param {
    num_output: 256
    pad: 0
    kernel_size: 1
    stride: 1
    weight_filler {
      type: "xavier"
    }
    bias_filler {
      type: "constant"
      value: 0
    }
  }
}
layer {
  name: "conv6_1_relu"
  type: "ReLU"
  bottom: "conv6_1"
  top: "conv6_1"
}
layer {
  name: "conv6_1_bn"
  type: "BatchNorm"
  bottom: "conv6_1"
  top: "conv6_1"
  include {
    phase: TRAIN
  }
  batch_norm_param {
    use_global_stats: false
    moving_average_fraction: 0.95
  }
}
layer {
  name: "conv6_2"
  type: "Convolution"
  bottom: "conv6_1"
  top: "conv6_2"
  param {
    lr_mult: 1
    decay_mult: 1
  }
  param {
    lr_mult: 2
    decay_mult: 0
  }
  convolution_param {
    num_output: 512
    pad: 1
    kernel_size: 3
    stride: 2
    weight_filler {
      type: "xavier"
    }
    bias_filler {
      type: "constant"
      value: 0
    }
  }
}
layer {
  name: "conv6_2_relu"
  type: "ReLU"
  bottom: "conv6_2"
  top: "conv6_2"
}
layer {
  name: "conv6_2_bn"
  type: "BatchNorm"
  bottom: "conv6_2"
  top: "conv6_2"
  include {
    phase: TRAIN
  }
  batch_norm_param {
    use_global_stats: false
    moving_average_fraction: 0.95
  }
}
layer {
  name: "conv7_1"
  type: "Convolution"
  bottom: "conv6_2"
  top: "conv7_1"
  param {
    lr_mult: 1
    decay_mult: 1
  }
  param {
    lr_mult: 2
    decay_mult: 0
  }
  convolution_param {
    num_output: 128
    pad: 0
    kernel_size: 1
    stride: 1
    weight_filler {
      type: "xavier"
    }
    bias_filler {
      type: "constant"
      value: 0
    }
  }
}
layer {
  name: "conv7_1_relu"
  type: "ReLU"
  bottom: "conv7_1"
  top: "conv7_1"
}
layer {
  name: "conv7_1_bn"
  type: "BatchNorm"
  bottom: "conv7_1"
  top: "conv7_1"
  include {
    phase: TRAIN
  }
  batch_norm_param {
    use_global_stats: false
    moving_average_fraction: 0.95
  }
}
layer {
  name: "conv7_2"
  type: "Convolution"
  bottom: "conv7_1"
  top: "conv7_2"
  param {
    lr_mult: 1
    decay_mult: 1
  }
  param {
    lr_mult: 2
    decay_mult: 0
  }
  convolution_param {
    num_output: 256
    pad: 1
    kernel_size: 3
    stride: 2
    weight_filler {
      type: "xavier"
    }
    bias_filler {
      type: "constant"
      value: 0
    }
  }
}
layer {
  name: "conv7_2_relu"
  type: "ReLU"
  bottom: "conv7_2"
  top: "conv7_2"
}
layer {
  name: "conv7_2_bn"
  type: "BatchNorm"
  bottom: "conv7_2"
  top: "conv7_2"
  include {
    phase: TRAIN
  }
  batch_norm_param {
    use_global_stats: false
    moving_average_fraction: 0.95
  }
}
layer {
  name: "conv8_1"
  type: "Convolution"
  bottom: "conv7_2"
  top: "conv8_1"
  param {
    lr_mult: 1
    decay_mult: 1
  }
  param {
    lr_mult: 2
    decay_mult: 0
  }
  convolution_param {
    num_output: 128
    pad: 0
    kernel_size: 1
    stride: 1
    weight_filler {
      type: "xavier"
    }
    bias_filler {
      type: "constant"
      value: 0
    }
  }
}
layer {
  name: "conv8_1_relu"
  type: "ReLU"
  bottom: "conv8_1"
  top: "conv8_1"
}
layer {
  name: "conv8_1_bn"
  type: "BatchNorm"
  bottom: "conv8_1"
  top: "conv8_1"
  include {
    phase: TRAIN
  }
  batch_norm_param {
    use_global_stats: false
    moving_average_fraction: 0.95
  }
}
layer {
  name: "conv8_2"
  type: "Convolution"
  bottom: "conv8_1"
  top: "conv8_2"
  param {
    lr_mult: 1
    decay_mult: 1
  }
  param {
    lr_mult: 2
    decay_mult: 0
  }
  convolution_param {
    num_output: 256
    pad: 1
    kernel_size: 3
    stride: 2
    weight_filler {
      type: "xavier"
    }
    bias_filler {
      type: "constant"
      value: 0
    }
  }
}
layer {
  name: "conv8_2_relu"
  type: "ReLU"
  bottom: "conv8_2"
  top: "conv8_2"
}
layer {
  name: "conv8_2_bn"
  type: "BatchNorm"
  bottom: "conv8_2"
  top: "conv8_2"
  include {
    phase: TRAIN
  }
  batch_norm_param {
    use_global_stats: false
    moving_average_fraction: 0.95
  }
}
layer {
  name: "pool6"
  type: "Pooling"
  bottom: "conv8_2"
  top: "pool6"
  pooling_param {
    pool: AVE
    global_pooling: true
  }
}
layer {
  name: "conv4_3_norm_1"
  type: "Normalize"
  bottom: "fire5/concat"
  top: "conv4_3_norm_1"
  norm_param {
    across_spatial: false
    scale_filler {
      type: "constant"
      value: 20
    }
    channel_shared: false
  }
}
layer {
  name: "conv4_3_norm_mbox_loc_1"
  type: "Convolution"
  bottom: "conv4_3_norm_1"
  top: "conv4_3_norm_mbox_loc_1"
  param {
    lr_mult: 1
    decay_mult: 1
  }
  param {
    lr_mult: 2
    decay_mult: 0
  }
  convolution_param {
    num_output: 24
    pad: 1
    kernel_size: 3
    stride: 1
    weight_filler {
      type: "xavier"
    }
    bias_filler {
      type: "constant"
      value: 0
    }
  }
}
layer {
  name: "conv4_3_norm_mbox_loc_perm_1"
  type: "Permute"
  bottom: "conv4_3_norm_mbox_loc_1"
  top: "conv4_3_norm_mbox_loc_perm_1"
  permute_param {
    order: 0
    order: 2
    order: 3
    order: 1
  }
}
layer {
  name: "conv4_3_norm_mbox_loc_flat_1"
  type: "Flatten"
  bottom: "conv4_3_norm_mbox_loc_perm_1"
  top: "conv4_3_norm_mbox_loc_flat_1"
  flatten_param {
    axis: 1
  }
}
layer {
  name: "conv4_3_norm_mbox_conf_0"
  type: "Convolution"
  bottom: "conv4_3_norm_1"
  top: "conv4_3_norm_mbox_conf_0"
  param {
    lr_mult: 1
    decay_mult: 1
  }
  param {
    lr_mult: 2
    decay_mult: 0
  }
  convolution_param {
    num_output: 64
    pad: 0
    kernel_size: 1
    stride: 1
    weight_filler {
      type: "xavier"
    }
    bias_filler {
      type: "constant"
      value: 0
    }
  }
}
layer {
  name: "conv4_3_norm_mbox_conf_0_relu"
  type: "ReLU"
  bottom: "conv4_3_norm_mbox_conf_0"
  top: "conv4_3_norm_mbox_conf_0"
}
layer {
  name: "conv4_3_norm_mbox_conf_0_bn"
  type: "BatchNorm"
  bottom: "conv4_3_norm_mbox_conf_0"
  top: "conv4_3_norm_mbox_conf_0"
  include {
    phase: TRAIN
  }
  batch_norm_param {
    use_global_stats: false
    moving_average_fraction: 0.95
  }
}
layer {
  name: "conv4_3_norm_mbox_conf_2"
  type: "Convolution"
  bottom: "conv4_3_norm_mbox_conf_0"
  top: "conv4_3_norm_mbox_conf_2"
  param {
    lr_mult: 1
    decay_mult: 1
  }
  param {
    lr_mult: 2
    decay_mult: 0
  }
  convolution_param {
    num_output: 64
    pad: 1
    kernel_size: 3
    stride: 1
    weight_filler {
      type: "xavier"
    }
    bias_filler {
      type: "constant"
      value: 0
    }
  }
}
layer {
  name: "conv4_3_norm_mbox_conf_2_relu"
  type: "ReLU"
  bottom: "conv4_3_norm_mbox_conf_2"
  top: "conv4_3_norm_mbox_conf_2"
}
layer {
  name: "conv4_3_norm_mbox_conf_2_bn"
  type: "BatchNorm"
  bottom: "conv4_3_norm_mbox_conf_2"
  top: "conv4_3_norm_mbox_conf_2"
  include {
    phase: TRAIN
  }
  batch_norm_param {
    use_global_stats: false
    moving_average_fraction: 0.95
  }
}
layer {
  name: "conv4_3_norm_mbox_conf_3"
  type: "Convolution"
  bottom: "conv4_3_norm_mbox_conf_2"
  top: "conv4_3_norm_mbox_conf_3"
  param {
    lr_mult: 1
    decay_mult: 1
  }
  param {
    lr_mult: 2
    decay_mult: 0
  }
  convolution_param {
    num_output: 12
    pad: 1
    kernel_size: 3
    stride: 1
    weight_filler {
      type: "xavier"
    }
    bias_filler {
      type: "constant"
      value: 0
    }
  }
}
layer {
  name: "conv4_3_norm_mbox_conf_perm_1"
  type: "Permute"
  bottom: "conv4_3_norm_mbox_conf_3"
  top: "conv4_3_norm_mbox_conf_perm_1"
  permute_param {
    order: 0
    order: 2
    order: 3
    order: 1
  }
}
layer {
  name: "conv4_3_norm_mbox_conf_flat_1"
  type: "Flatten"
  bottom: "conv4_3_norm_mbox_conf_perm_1"
  top: "conv4_3_norm_mbox_conf_flat_1"
  flatten_param {
    axis: 1
  }
}
layer {
  name: "conv4_3_norm_mbox_priorbox_1"
  type: "PriorBox"
  bottom: "conv4_3_norm_1"
  bottom: "data"
  top: "conv4_3_norm_mbox_priorbox_1"
  prior_box_param {
    min_size: 25
    max_size: 51
    aspect_ratio: 0.25
    aspect_ratio: 0.5
    aspect_ratio: 0.75
    aspect_ratio: 1.25
    flip: false
    clip: true
    variance: 0.1
    variance: 0.1
    variance: 0.2
    variance: 0.2
  }
}
layer {
  name: "fc7_mbox_loc_1"
  type: "Convolution"
  bottom: "fire9/concat"
  top: "fc7_mbox_loc_1"
  param {
    lr_mult: 1
    decay_mult: 1
  }
  param {
    lr_mult: 2
    decay_mult: 0
  }
  convolution_param {
    num_output: 24
    pad: 1
    kernel_size: 3
    stride: 1
    weight_filler {
      type: "xavier"
    }
    bias_filler {
      type: "constant"
      value: 0
    }
  }
}
layer {
  name: "fc7_mbox_loc_perm_1"
  type: "Permute"
  bottom: "fc7_mbox_loc_1"
  top: "fc7_mbox_loc_perm_1"
  permute_param {
    order: 0
    order: 2
    order: 3
    order: 1
  }
}
layer {
  name: "fc7_mbox_loc_flat_1"
  type: "Flatten"
  bottom: "fc7_mbox_loc_perm_1"
  top: "fc7_mbox_loc_flat_1"
  flatten_param {
    axis: 1
  }
}
layer {
  name: "fc7_mbox_conf_0"
  type: "Convolution"
  bottom: "fire9/concat"
  top: "fc7_mbox_conf_0"
  param {
    lr_mult: 1
    decay_mult: 1
  }
  param {
    lr_mult: 2
    decay_mult: 0
  }
  convolution_param {
    num_output: 64
    pad: 0
    kernel_size: 1
    stride: 1
    weight_filler {
      type: "xavier"
    }
    bias_filler {
      type: "constant"
      value: 0
    }
  }
}
layer {
  name: "fc7_mbox_conf_0_relu"
  type: "ReLU"
  bottom: "fc7_mbox_conf_0"
  top: "fc7_mbox_conf_0"
}
layer {
  name: "fc7_mbox_conf_0_bn"
  type: "BatchNorm"
  bottom: "fc7_mbox_conf_0"
  top: "fc7_mbox_conf_0"
  include {
    phase: TRAIN
  }
  batch_norm_param {
    use_global_stats: false
    moving_average_fraction: 0.95
  }
}
layer {
  name: "fc7_mbox_conf_2"
  type: "Convolution"
  bottom: "fc7_mbox_conf_0"
  top: "fc7_mbox_conf_2"
  param {
    lr_mult: 1
    decay_mult: 1
  }
  param {
    lr_mult: 2
    decay_mult: 0
  }
  convolution_param {
    num_output: 64
    pad: 1
    kernel_size: 3
    stride: 1
    weight_filler {
      type: "xavier"
    }
    bias_filler {
      type: "constant"
      value: 0
    }
  }
}
layer {
  name: "fc7_mbox_conf_2_relu"
  type: "ReLU"
  bottom: "fc7_mbox_conf_2"
  top: "fc7_mbox_conf_2"
}
layer {
  name: "fc7_mbox_conf_2_bn"
  type: "BatchNorm"
  bottom: "fc7_mbox_conf_2"
  top: "fc7_mbox_conf_2"
  include {
    phase: TRAIN
  }
  batch_norm_param {
    use_global_stats: false
    moving_average_fraction: 0.95
  }
}
layer {
  name: "fc7_mbox_conf_3"
  type: "Convolution"
  bottom: "fc7_mbox_conf_2"
  top: "fc7_mbox_conf_3"
  param {
    lr_mult: 1
    decay_mult: 1
  }
  param {
    lr_mult: 2
    decay_mult: 0
  }
  convolution_param {
    num_output: 12
    pad: 1
    kernel_size: 3
    stride: 1
    weight_filler {
      type: "xavier"
    }
    bias_filler {
      type: "constant"
      value: 0
    }
  }
}
layer {
  name: "fc7_mbox_conf_perm_1"
  type: "Permute"
  bottom: "fc7_mbox_conf_3"
  top: "fc7_mbox_conf_perm_1"
  permute_param {
    order: 0
    order: 2
    order: 3
    order: 1
  }
}
layer {
  name: "fc7_mbox_conf_flat_1"
  type: "Flatten"
  bottom: "fc7_mbox_conf_perm_1"
  top: "fc7_mbox_conf_flat_1"
  flatten_param {
    axis: 1
  }
}
layer {
  name: "fc7_mbox_priorbox_1"
  type: "PriorBox"
  bottom: "fire9/concat"
  bottom: "data"
  top: "fc7_mbox_priorbox_1"
  prior_box_param {
    min_size: 51
    max_size: 97
    aspect_ratio: 0.25
    aspect_ratio: 0.5
    aspect_ratio: 0.75
    aspect_ratio: 1.25
    flip: false
    clip: true
    variance: 0.1
    variance: 0.1
    variance: 0.2
    variance: 0.2
  }
}
layer {
  name: "conv6_2_mbox_loc_1"
  type: "Convolution"
  bottom: "conv6_2"
  top: "conv6_2_mbox_loc_1"
  param {
    lr_mult: 1
    decay_mult: 1
  }
  param {
    lr_mult: 2
    decay_mult: 0
  }
  convolution_param {
    num_output: 24
    pad: 1
    kernel_size: 3
    stride: 1
    weight_filler {
      type: "xavier"
    }
    bias_filler {
      type: "constant"
      value: 0
    }
  }
}
layer {
  name: "conv6_2_mbox_loc_perm_1"
  type: "Permute"
  bottom: "conv6_2_mbox_loc_1"
  top: "conv6_2_mbox_loc_perm_1"
  permute_param {
    order: 0
    order: 2
    order: 3
    order: 1
  }
}
layer {
  name: "conv6_2_mbox_loc_flat_1"
  type: "Flatten"
  bottom: "conv6_2_mbox_loc_perm_1"
  top: "conv6_2_mbox_loc_flat_1"
  flatten_param {
    axis: 1
  }
}
layer {
  name: "conv6_2_mbox_conf_0"
  type: "Convolution"
  bottom: "conv6_2"
  top: "conv6_2_mbox_conf_0"
  param {
    lr_mult: 1
    decay_mult: 1
  }
  param {
    lr_mult: 2
    decay_mult: 0
  }
  convolution_param {
    num_output: 64
    pad: 0
    kernel_size: 1
    stride: 1
    weight_filler {
      type: "xavier"
    }
    bias_filler {
      type: "constant"
      value: 0
    }
  }
}
layer {
  name: "conv6_2_mbox_conf_0_relu"
  type: "ReLU"
  bottom: "conv6_2_mbox_conf_0"
  top: "conv6_2_mbox_conf_0"
}
layer {
  name: "conv6_2_mbox_conf_0_bn"
  type: "BatchNorm"
  bottom: "conv6_2_mbox_conf_0"
  top: "conv6_2_mbox_conf_0"
  include {
    phase: TRAIN
  }
  batch_norm_param {
    use_global_stats: false
    moving_average_fraction: 0.95
  }
}
layer {
  name: "conv6_2_mbox_conf_2"
  type: "Convolution"
  bottom: "conv6_2_mbox_conf_0"
  top: "conv6_2_mbox_conf_2"
  param {
    lr_mult: 1
    decay_mult: 1
  }
  param {
    lr_mult: 2
    decay_mult: 0
  }
  convolution_param {
    num_output: 64
    pad: 1
    kernel_size: 3
    stride: 1
    weight_filler {
      type: "xavier"
    }
    bias_filler {
      type: "constant"
      value: 0
    }
  }
}
layer {
  name: "conv6_2_mbox_conf_2_relu"
  type: "ReLU"
  bottom: "conv6_2_mbox_conf_2"
  top: "conv6_2_mbox_conf_2"
}
layer {
  name: "conv6_2_mbox_conf_2_bn"
  type: "BatchNorm"
  bottom: "conv6_2_mbox_conf_2"
  top: "conv6_2_mbox_conf_2"
  include {
    phase: TRAIN
  }
  batch_norm_param {
    use_global_stats: false
    moving_average_fraction: 0.95
  }
}
layer {
  name: "conv6_2_mbox_conf_3"
  type: "Convolution"
  bottom: "conv6_2_mbox_conf_2"
  top: "conv6_2_mbox_conf_3"
  param {
    lr_mult: 1
    decay_mult: 1
  }
  param {
    lr_mult: 2
    decay_mult: 0
  }
  convolution_param {
    num_output: 12
    pad: 1
    kernel_size: 3
    stride: 1
    weight_filler {
      type: "xavier"
    }
    bias_filler {
      type: "constant"
      value: 0
    }
  }
}
layer {
  name: "conv6_2_mbox_conf_perm_1"
  type: "Permute"
  bottom: "conv6_2_mbox_conf_3"
  top: "conv6_2_mbox_conf_perm_1"
  permute_param {
    order: 0
    order: 2
    order: 3
    order: 1
  }
}
layer {
  name: "conv6_2_mbox_conf_flat_1"
  type: "Flatten"
  bottom: "conv6_2_mbox_conf_perm_1"
  top: "conv6_2_mbox_conf_flat_1"
  flatten_param {
    axis: 1
  }
}
layer {
  name: "conv6_2_mbox_priorbox_1"
  type: "PriorBox"
  bottom: "conv6_2"
  bottom: "data"
  top: "conv6_2_mbox_priorbox_1"
  prior_box_param {
    min_size: 97
    max_size: 138
    aspect_ratio: 0.25
    aspect_ratio: 0.5
    aspect_ratio: 0.75
    aspect_ratio: 1.25
    flip: false
    clip: true
    variance: 0.1
    variance: 0.1
    variance: 0.2
    variance: 0.2
  }
}
layer {
  name: "conv7_2_mbox_loc_1"
  type: "Convolution"
  bottom: "conv7_2"
  top: "conv7_2_mbox_loc_1"
  param {
    lr_mult: 1
    decay_mult: 1
  }
  param {
    lr_mult: 2
    decay_mult: 0
  }
  convolution_param {
    num_output: 24
    pad: 1
    kernel_size: 3
    stride: 1
    weight_filler {
      type: "xavier"
    }
    bias_filler {
      type: "constant"
      value: 0
    }
  }
}
layer {
  name: "conv7_2_mbox_loc_perm_1"
  type: "Permute"
  bottom: "conv7_2_mbox_loc_1"
  top: "conv7_2_mbox_loc_perm_1"
  permute_param {
    order: 0
    order: 
I1018 10:13:02.284291  7444 layer_factory.hpp:77] Creating layer data
I1018 10:13:02.284291  7444 common.cpp:42] System entropy source not available, using fallback algorithm to generate seed instead.
I1018 10:13:02.285291  7444 net.cpp:100] Creating Layer data
I1018 10:13:02.285291  7444 net.cpp:408] data -> data
I1018 10:13:02.285291  3752 common.cpp:42] System entropy source not available, using fallback algorithm to generate seed instead.
I1018 10:13:02.285291  7444 net.cpp:408] data -> label
I1018 10:13:02.286291  3752 db_lmdb.cpp:51] Opened lmdb E:/tyang/Pedestrian/Data_0922/train_lmdb
I1018 10:13:02.312292  7444 annotated_data_layer.cpp:62] output data size: 32,3,256,384
I1018 10:13:02.542306  7444 net.cpp:150] Setting up data
I1018 10:13:02.543306  7444 net.cpp:157] Top shape: 32 3 256 384 (9437184)
I1018 10:13:02.543306 11532 common.cpp:42] System entropy source not available, using fallback algorithm to generate seed instead.
I1018 10:13:02.543306  7444 net.cpp:157] Top shape: 1 1 1 8 (8)
I1018 10:13:02.544306  7444 net.cpp:165] Memory required for data: 37748768
I1018 10:13:02.544306  7444 layer_factory.hpp:77] Creating layer data_data_0_split
I1018 10:13:02.544306  7444 net.cpp:100] Creating Layer data_data_0_split
I1018 10:13:02.544306  7444 net.cpp:434] data_data_0_split <- data
I1018 10:13:02.545306  7444 net.cpp:408] data_data_0_split -> data_data_0_split_0
I1018 10:13:02.545306  7444 net.cpp:408] data_data_0_split -> data_data_0_split_1
I1018 10:13:02.545306  7444 net.cpp:408] data_data_0_split -> data_data_0_split_2
I1018 10:13:02.545306  7444 net.cpp:408] data_data_0_split -> data_data_0_split_3
I1018 10:13:02.545306  7444 net.cpp:408] data_data_0_split -> data_data_0_split_4
I1018 10:13:02.546306  7444 net.cpp:408] data_data_0_split -> data_data_0_split_5
I1018 10:13:02.546306  7444 net.cpp:408] data_data_0_split -> data_data_0_split_6
I1018 10:13:02.552306  7444 net.cpp:150] Setting up data_data_0_split
I1018 10:13:02.552306  7444 net.cpp:157] Top shape: 32 3 256 384 (9437184)
I1018 10:13:02.552306  7444 net.cpp:157] Top shape: 32 3 256 384 (9437184)
I1018 10:13:02.552306  7444 net.cpp:157] Top shape: 32 3 256 384 (9437184)
I1018 10:13:02.553306  7444 net.cpp:157] Top shape: 32 3 256 384 (9437184)
I1018 10:13:02.553306  7444 net.cpp:157] Top shape: 32 3 256 384 (9437184)
I1018 10:13:02.553306  7444 net.cpp:157] Top shape: 32 3 256 384 (9437184)
I1018 10:13:02.553306  7444 net.cpp:157] Top shape: 32 3 256 384 (9437184)
I1018 10:13:02.553306  7444 net.cpp:165] Memory required for data: 301989920
I1018 10:13:02.554306  7444 layer_factory.hpp:77] Creating layer conv1
I1018 10:13:02.554306  7444 net.cpp:100] Creating Layer conv1
I1018 10:13:02.554306  7444 net.cpp:434] conv1 <- data_data_0_split_0
I1018 10:13:02.554306  7444 net.cpp:408] conv1 -> conv1
I1018 10:13:02.918328  7444 net.cpp:150] Setting up conv1
I1018 10:13:02.919327  7444 net.cpp:157] Top shape: 32 64 128 192 (50331648)
I1018 10:13:02.920327  7444 net.cpp:165] Memory required for data: 503316512
I1018 10:13:02.920327  7444 layer_factory.hpp:77] Creating layer relu_conv1
I1018 10:13:02.921327  7444 net.cpp:100] Creating Layer relu_conv1
I1018 10:13:02.922327  7444 net.cpp:434] relu_conv1 <- conv1
I1018 10:13:02.922327  7444 net.cpp:395] relu_conv1 -> conv1 (in-place)
I1018 10:13:02.924327  7444 net.cpp:150] Setting up relu_conv1
I1018 10:13:02.924327  7444 net.cpp:157] Top shape: 32 64 128 192 (50331648)
I1018 10:13:02.925328  7444 net.cpp:165] Memory required for data: 704643104
I1018 10:13:02.926328  7444 layer_factory.hpp:77] Creating layer pool1
I1018 10:13:02.926328  7444 net.cpp:100] Creating Layer pool1
I1018 10:13:02.927328  7444 net.cpp:434] pool1 <- conv1
I1018 10:13:02.928328  7444 net.cpp:408] pool1 -> pool1
I1018 10:13:02.928328  7444 net.cpp:150] Setting up pool1
I1018 10:13:02.929328  7444 net.cpp:157] Top shape: 32 64 64 96 (12582912)
I1018 10:13:02.930328  7444 net.cpp:165] Memory required for data: 754974752
I1018 10:13:02.930328  7444 layer_factory.hpp:77] Creating layer conv1_bn
I1018 10:13:02.931329  7444 net.cpp:100] Creating Layer conv1_bn
I1018 10:13:02.932328  7444 net.cpp:434] conv1_bn <- pool1
I1018 10:13:02.932328  7444 net.cpp:395] conv1_bn -> pool1 (in-place)
I1018 10:13:02.935328  7444 net.cpp:150] Setting up conv1_bn
I1018 10:13:02.935328  7444 net.cpp:157] Top shape: 32 64 64 96 (12582912)
I1018 10:13:02.936328  7444 net.cpp:165] Memory required for data: 805306400
I1018 10:13:02.936328  7444 layer_factory.hpp:77] Creating layer fire2/squeeze1x1
I1018 10:13:02.937328  7444 net.cpp:100] Creating Layer fire2/squeeze1x1
I1018 10:13:02.938328  7444 net.cpp:434] fire2/squeeze1x1 <- pool1
I1018 10:13:02.938328  7444 net.cpp:408] fire2/squeeze1x1 -> fire2/squeeze1x1
I1018 10:13:02.943330  7444 net.cpp:150] Setting up fire2/squeeze1x1
I1018 10:13:02.943330  7444 net.cpp:157] Top shape: 32 16 64 96 (3145728)
I1018 10:13:02.944329  7444 net.cpp:165] Memory required for data: 817889312
I1018 10:13:02.945329  7444 layer_factory.hpp:77] Creating layer fire2/relu_squeeze1x1
I1018 10:13:02.945329  7444 net.cpp:100] Creating Layer fire2/relu_squeeze1x1
I1018 10:13:02.946329  7444 net.cpp:434] fire2/relu_squeeze1x1 <- fire2/squeeze1x1
I1018 10:13:02.947329  7444 net.cpp:395] fire2/relu_squeeze1x1 -> fire2/squeeze1x1 (in-place)
I1018 10:13:02.948329  7444 net.cpp:150] Setting up fire2/relu_squeeze1x1
I1018 10:13:02.948329  7444 net.cpp:157] Top shape: 32 16 64 96 (3145728)
I1018 10:13:02.949329  7444 net.cpp:165] Memory required for data: 830472224
I1018 10:13:02.950330  7444 layer_factory.hpp:77] Creating layer fire2/squeeze1x1_fire2/relu_squeeze1x1_0_split
I1018 10:13:02.950330  7444 net.cpp:100] Creating Layer fire2/squeeze1x1_fire2/relu_squeeze1x1_0_split
I1018 10:13:02.951329  7444 net.cpp:434] fire2/squeeze1x1_fire2/relu_squeeze1x1_0_split <- fire2/squeeze1x1
I1018 10:13:02.952329  7444 net.cpp:408] fire2/squeeze1x1_fire2/relu_squeeze1x1_0_split -> fire2/squeeze1x1_fire2/relu_squeeze1x1_0_split_0
I1018 10:13:02.953330  7444 net.cpp:408] fire2/squeeze1x1_fire2/relu_squeeze1x1_0_split -> fire2/squeeze1x1_fire2/relu_squeeze1x1_0_split_1
I1018 10:13:02.954329  7444 net.cpp:150] Setting up fire2/squeeze1x1_fire2/relu_squeeze1x1_0_split
I1018 10:13:02.955329  7444 net.cpp:157] Top shape: 32 16 64 96 (3145728)
I1018 10:13:02.955329  7444 net.cpp:157] Top shape: 32 16 64 96 (3145728)
I1018 10:13:02.956329  7444 net.cpp:165] Memory required for data: 855638048
I1018 10:13:02.957329  7444 layer_factory.hpp:77] Creating layer fire2/expand1x1
I1018 10:13:02.957329  7444 net.cpp:100] Creating Layer fire2/expand1x1
I1018 10:13:02.958329  7444 net.cpp:434] fire2/expand1x1 <- fire2/squeeze1x1_fire2/relu_squeeze1x1_0_split_0
I1018 10:13:02.959329  7444 net.cpp:408] fire2/expand1x1 -> fire2/expand1x1
I1018 10:13:02.962330  7444 net.cpp:150] Setting up fire2/expand1x1
I1018 10:13:02.962330  7444 net.cpp:157] Top shape: 32 64 64 96 (12582912)
I1018 10:13:02.963330  7444 net.cpp:165] Memory required for data: 905969696
I1018 10:13:02.964330  7444 layer_factory.hpp:77] Creating layer fire2/relu_expand1x1
I1018 10:13:02.965330  7444 net.cpp:100] Creating Layer fire2/relu_expand1x1
I1018 10:13:02.965330  7444 net.cpp:434] fire2/relu_expand1x1 <- fire2/expand1x1
I1018 10:13:02.966331  7444 net.cpp:395] fire2/relu_expand1x1 -> fire2/expand1x1 (in-place)
I1018 10:13:02.967330  7444 net.cpp:150] Setting up fire2/relu_expand1x1
I1018 10:13:02.967330  7444 net.cpp:157] Top shape: 32 64 64 96 (12582912)
I1018 10:13:02.968330  7444 net.cpp:165] Memory required for data: 956301344
I1018 10:13:02.969331  7444 layer_factory.hpp:77] Creating layer fire2/expand3x3
I1018 10:13:02.969331  7444 net.cpp:100] Creating Layer fire2/expand3x3
I1018 10:13:02.970330  7444 net.cpp:434] fire2/expand3x3 <- fire2/squeeze1x1_fire2/relu_squeeze1x1_0_split_1
I1018 10:13:02.971330  7444 net.cpp:408] fire2/expand3x3 -> fire2/expand3x3
I1018 10:13:02.974330  7444 net.cpp:150] Setting up fire2/expand3x3
I1018 10:13:02.975330  7444 net.cpp:157] Top shape: 32 64 64 96 (12582912)
I1018 10:13:02.975330  7444 net.cpp:165] Memory required for data: 1006632992
I1018 10:13:02.976330  7444 layer_factory.hpp:77] Creating layer fire2/relu_expand3x3
I1018 10:13:02.977330  7444 net.cpp:100] Creating Layer fire2/relu_expand3x3
I1018 10:13:02.977330  7444 net.cpp:434] fire2/relu_expand3x3 <- fire2/expand3x3
I1018 10:13:02.978332  7444 net.cpp:395] fire2/relu_expand3x3 -> fire2/expand3x3 (in-place)
I1018 10:13:02.979331  7444 net.cpp:150] Setting up fire2/relu_expand3x3
I1018 10:13:02.980331  7444 net.cpp:157] Top shape: 32 64 64 96 (12582912)
I1018 10:13:02.981331  7444 net.cpp:165] Memory required for data: 1056964640
I1018 10:13:02.981331  7444 layer_factory.hpp:77] Creating layer fire2/concat
I1018 10:13:02.982331  7444 net.cpp:100] Creating Layer fire2/concat
I1018 10:13:02.983331  7444 net.cpp:434] fire2/concat <- fire2/expand1x1
I1018 10:13:02.983331  7444 net.cpp:434] fire2/concat <- fire2/expand3x3
I1018 10:13:02.984331  7444 net.cpp:408] fire2/concat -> fire2/concat
I1018 10:13:02.985332  7444 net.cpp:150] Setting up fire2/concat
I1018 10:13:02.986331  7444 net.cpp:157] Top shape: 32 128 64 96 (25165824)
I1018 10:13:02.986331  7444 net.cpp:165] Memory required for data: 1157627936
I1018 10:13:02.987331  7444 layer_factory.hpp:77] Creating layer fire2/concat_bn
I1018 10:13:02.988332  7444 net.cpp:100] Creating Layer fire2/concat_bn
I1018 10:13:02.988332  7444 net.cpp:434] fire2/concat_bn <- fire2/concat
I1018 10:13:02.989331  7444 net.cpp:395] fire2/concat_bn -> fire2/concat (in-place)
I1018 10:13:02.990331  7444 net.cpp:150] Setting up fire2/concat_bn
I1018 10:13:02.991331  7444 net.cpp:157] Top shape: 32 128 64 96 (25165824)
I1018 10:13:02.991331  7444 net.cpp:165] Memory required for data: 1258291232
I1018 10:13:02.992331  7444 layer_factory.hpp:77] Creating layer fire3/squeeze1x1
I1018 10:13:02.993331  7444 net.cpp:100] Creating Layer fire3/squeeze1x1
I1018 10:13:02.993331  7444 net.cpp:434] fire3/squeeze1x1 <- fire2/concat
I1018 10:13:02.994331  7444 net.cpp:408] fire3/squeeze1x1 -> fire3/squeeze1x1
I1018 10:13:02.997333  7444 net.cpp:150] Setting up fire3/squeeze1x1
I1018 10:13:02.998332  7444 net.cpp:157] Top shape: 32 16 64 96 (3145728)
I1018 10:13:02.998332  7444 net.cpp:165] Memory required for data: 1270874144
I1018 10:13:02.999332  7444 layer_factory.hpp:77] Creating layer fire3/relu_squeeze1x1
I1018 10:13:03.000332  7444 net.cpp:100] Creating Layer fire3/relu_squeeze1x1
I1018 10:13:03.000332  7444 net.cpp:434] fire3/relu_squeeze1x1 <- fire3/squeeze1x1
I1018 10:13:03.001332  7444 net.cpp:395] fire3/relu_squeeze1x1 -> fire3/squeeze1x1 (in-place)
I1018 10:13:03.002332  7444 net.cpp:150] Setting up fire3/relu_squeeze1x1
I1018 10:13:03.003332  7444 net.cpp:157] Top shape: 32 16 64 96 (3145728)
I1018 10:13:03.003332  7444 net.cpp:165] Memory required for data: 1283457056
I1018 10:13:03.004333  7444 layer_factory.hpp:77] Creating layer fire3/squeeze1x1_fire3/relu_squeeze1x1_0_split
I1018 10:13:03.005332  7444 net.cpp:100] Creating Layer fire3/squeeze1x1_fire3/relu_squeeze1x1_0_split
I1018 10:13:03.005332  7444 net.cpp:434] fire3/squeeze1x1_fire3/relu_squeeze1x1_0_split <- fire3/squeeze1x1
I1018 10:13:03.006332  7444 net.cpp:408] fire3/squeeze1x1_fire3/relu_squeeze1x1_0_split -> fire3/squeeze1x1_fire3/relu_squeeze1x1_0_split_0
I1018 10:13:03.007333  7444 net.cpp:408] fire3/squeeze1x1_fire3/relu_squeeze1x1_0_split -> fire3/squeeze1x1_fire3/relu_squeeze1x1_0_split_1
I1018 10:13:03.008332  7444 net.cpp:150] Setting up fire3/squeeze1x1_fire3/relu_squeeze1x1_0_split
I1018 10:13:03.008332  7444 net.cpp:157] Top shape: 32 16 64 96 (3145728)
I1018 10:13:03.009332  7444 net.cpp:157] Top shape: 32 16 64 96 (3145728)
I1018 10:13:03.010332  7444 net.cpp:165] Memory required for data: 1308622880
I1018 10:13:03.010332  7444 layer_factory.hpp:77] Creating layer fire3/expand1x1
I1018 10:13:03.011332  7444 net.cpp:100] Creating Layer fire3/expand1x1
I1018 10:13:03.012332  7444 net.cpp:434] fire3/expand1x1 <- fire3/squeeze1x1_fire3/relu_squeeze1x1_0_split_0
I1018 10:13:03.012332  7444 net.cpp:408] fire3/expand1x1 -> fire3/expand1x1
I1018 10:13:03.016333  7444 net.cpp:150] Setting up fire3/expand1x1
I1018 10:13:03.016333  7444 net.cpp:157] Top shape: 32 64 64 96 (12582912)
I1018 10:13:03.017333  7444 net.cpp:165] Memory required for data: 1358954528
I1018 10:13:03.017333  7444 layer_factory.hpp:77] Creating layer fire3/relu_expand1x1
I1018 10:13:03.018333  7444 net.cpp:100] Creating Layer fire3/relu_expand1x1
I1018 10:13:03.019333  7444 net.cpp:434] fire3/relu_expand1x1 <- fire3/expand1x1
I1018 10:13:03.020334  7444 net.cpp:395] fire3/relu_expand1x1 -> fire3/expand1x1 (in-place)
I1018 10:13:03.021333  7444 net.cpp:150] Setting up fire3/relu_expand1x1
I1018 10:13:03.021333  7444 net.cpp:157] Top shape: 32 64 64 96 (12582912)
I1018 10:13:03.022333  7444 net.cpp:165] Memory required for data: 1409286176
I1018 10:13:03.023334  7444 layer_factory.hpp:77] Creating layer fire3/expand3x3
I1018 10:13:03.023334  7444 net.cpp:100] Creating Layer fire3/expand3x3
I1018 10:13:03.024333  7444 net.cpp:434] fire3/expand3x3 <- fire3/squeeze1x1_fire3/relu_squeeze1x1_0_split_1
I1018 10:13:03.025333  7444 net.cpp:408] fire3/expand3x3 -> fire3/expand3x3
I1018 10:13:03.028333  7444 net.cpp:150] Setting up fire3/expand3x3
I1018 10:13:03.029333  7444 net.cpp:157] Top shape: 32 64 64 96 (12582912)
I1018 10:13:03.029333  7444 net.cpp:165] Memory required for data: 1459617824
I1018 10:13:03.030334  7444 layer_factory.hpp:77] Creating layer fire3/relu_expand3x3
I1018 10:13:03.031334  7444 net.cpp:100] Creating Layer fire3/relu_expand3x3
I1018 10:13:03.032335  7444 net.cpp:434] fire3/relu_expand3x3 <- fire3/expand3x3
I1018 10:13:03.032335  7444 net.cpp:395] fire3/relu_expand3x3 -> fire3/expand3x3 (in-place)
I1018 10:13:03.034334  7444 net.cpp:150] Setting up fire3/relu_expand3x3
I1018 10:13:03.034334  7444 net.cpp:157] Top shape: 32 64 64 96 (12582912)
I1018 10:13:03.035334  7444 net.cpp:165] Memory required for data: 1509949472
I1018 10:13:03.035334  7444 layer_factory.hpp:77] Creating layer fire3/concat
I1018 10:13:03.036334  7444 net.cpp:100] Creating Layer fire3/concat
I1018 10:13:03.037334  7444 net.cpp:434] fire3/concat <- fire3/expand1x1
I1018 10:13:03.037334  7444 net.cpp:434] fire3/concat <- fire3/expand3x3
I1018 10:13:03.038334  7444 net.cpp:408] fire3/concat -> fire3/concat
I1018 10:13:03.039335  7444 net.cpp:150] Setting up fire3/concat
I1018 10:13:03.039335  7444 net.cpp:157] Top shape: 32 128 64 96 (25165824)
I1018 10:13:03.040334  7444 net.cpp:165] Memory required for data: 1610612768
I1018 10:13:03.041334  7444 layer_factory.hpp:77] Creating layer pool3
I1018 10:13:03.041334  7444 net.cpp:100] Creating Layer pool3
I1018 10:13:03.042335  7444 net.cpp:434] pool3 <- fire3/concat
I1018 10:13:03.043334  7444 net.cpp:408] pool3 -> pool3
I1018 10:13:03.043334  7444 net.cpp:150] Setting up pool3
I1018 10:13:03.044334  7444 net.cpp:157] Top shape: 32 128 32 48 (6291456)
I1018 10:13:03.045334  7444 net.cpp:165] Memory required for data: 1635778592
I1018 10:13:03.045334  7444 layer_factory.hpp:77] Creating layer fire3/concat_bn
I1018 10:13:03.046334  7444 net.cpp:100] Creating Layer fire3/concat_bn
I1018 10:13:03.047334  7444 net.cpp:434] fire3/concat_bn <- pool3
I1018 10:13:03.047334  7444 net.cpp:395] fire3/concat_bn -> pool3 (in-place)
I1018 10:13:03.048336  7444 net.cpp:150] Setting up fire3/concat_bn
I1018 10:13:03.049335  7444 net.cpp:157] Top shape: 32 128 32 48 (6291456)
I1018 10:13:03.050335  7444 net.cpp:165] Memory required for data: 1660944416
I1018 10:13:03.050335  7444 layer_factory.hpp:77] Creating layer fire4/squeeze1x1
I1018 10:13:03.051336  7444 net.cpp:100] Creating Layer fire4/squeeze1x1
I1018 10:13:03.052335  7444 net.cpp:434] fire4/squeeze1x1 <- pool3
I1018 10:13:03.052335  7444 net.cpp:408] fire4/squeeze1x1 -> fire4/squeeze1x1
I1018 10:13:03.056335  7444 net.cpp:150] Setting up fire4/squeeze1x1
I1018 10:13:03.056335  7444 net.cpp:157] Top shape: 32 32 32 48 (1572864)
I1018 10:13:03.057335  7444 net.cpp:165] Memory required for data: 1667235872
I1018 10:13:03.058336  7444 layer_factory.hpp:77] Creating layer fire4/relu_squeeze1x1
I1018 10:13:03.058336  7444 net.cpp:100] Creating Layer fire4/relu_squeeze1x1
I1018 10:13:03.059335  7444 net.cpp:434] fire4/relu_squeeze1x1 <- fire4/squeeze1x1
I1018 10:13:03.060335  7444 net.cpp:395] fire4/relu_squeeze1x1 -> fire4/squeeze1x1 (in-place)
I1018 10:13:03.061336  7444 net.cpp:150] Setting up fire4/relu_squeeze1x1
I1018 10:13:03.062335  7444 net.cpp:157] Top shape: 32 32 32 48 (1572864)
I1018 10:13:03.062335  7444 net.cpp:165] Memory required for data: 1673527328
I1018 10:13:03.063335  7444 layer_factory.hpp:77] Creating layer fire4/squeeze1x1_fire4/relu_squeeze1x1_0_split
I1018 10:13:03.064335  7444 net.cpp:100] Creating Layer fire4/squeeze1x1_fire4/relu_squeeze1x1_0_split
I1018 10:13:03.064335  7444 net.cpp:434] fire4/squeeze1x1_fire4/relu_squeeze1x1_0_split <- fire4/squeeze1x1
I1018 10:13:03.065336  7444 net.cpp:408] fire4/squeeze1x1_fire4/relu_squeeze1x1_0_split -> fire4/squeeze1x1_fire4/relu_squeeze1x1_0_split_0
I1018 10:13:03.066336  7444 net.cpp:408] fire4/squeeze1x1_fire4/relu_squeeze1x1_0_split -> fire4/squeeze1x1_fire4/relu_squeeze1x1_0_split_1
I1018 10:13:03.067337  7444 net.cpp:150] Setting up fire4/squeeze1x1_fire4/relu_squeeze1x1_0_split
I1018 10:13:03.067337  7444 net.cpp:157] Top shape: 32 32 32 48 (1572864)
I1018 10:13:03.068336  7444 net.cpp:157] Top shape: 32 32 32 48 (1572864)
I1018 10:13:03.069336  7444 net.cpp:165] Memory required for data: 1686110240
I1018 10:13:03.069336  7444 layer_factory.hpp:77] Creating layer fire4/expand1x1
I1018 10:13:03.070336  7444 net.cpp:100] Creating Layer fire4/expand1x1
I1018 10:13:03.071336  7444 net.cpp:434] fire4/expand1x1 <- fire4/squeeze1x1_fire4/relu_squeeze1x1_0_split_0
I1018 10:13:03.071336  7444 net.cpp:408] fire4/expand1x1 -> fire4/expand1x1
I1018 10:13:03.074337  7444 net.cpp:150] Setting up fire4/expand1x1
I1018 10:13:03.075336  7444 net.cpp:157] Top shape: 32 128 32 48 (6291456)
I1018 10:13:03.076336  7444 net.cpp:165] Memory required for data: 1711276064
I1018 10:13:03.076336  7444 layer_factory.hpp:77] Creating layer fire4/relu_expand1x1
I1018 10:13:03.077337  7444 net.cpp:100] Creating Layer fire4/relu_expand1x1
I1018 10:13:03.078336  7444 net.cpp:434] fire4/relu_expand1x1 <- fire4/expand1x1
I1018 10:13:03.078336  7444 net.cpp:395] fire4/relu_expand1x1 -> fire4/expand1x1 (in-place)
I1018 10:13:03.079336  7444 net.cpp:150] Setting up fire4/relu_expand1x1
I1018 10:13:03.080337  7444 net.cpp:157] Top shape: 32 128 32 48 (6291456)
I1018 10:13:03.081336  7444 net.cpp:165] Memory required for data: 1736441888
I1018 10:13:03.082336  7444 layer_factory.hpp:77] Creating layer fire4/expand3x3
I1018 10:13:03.082336  7444 net.cpp:100] Creating Layer fire4/expand3x3
I1018 10:13:03.083338  7444 net.cpp:434] fire4/expand3x3 <- fire4/squeeze1x1_fire4/relu_squeeze1x1_0_split_1
I1018 10:13:03.084337  7444 net.cpp:408] fire4/expand3x3 -> fire4/expand3x3
I1018 10:13:03.087337  7444 net.cpp:150] Setting up fire4/expand3x3
I1018 10:13:03.088337  7444 net.cpp:157] Top shape: 32 128 32 48 (6291456)
I1018 10:13:03.089337  7444 net.cpp:165] Memory required for data: 1761607712
I1018 10:13:03.089337  7444 layer_factory.hpp:77] Creating layer fire4/relu_expand3x3
I1018 10:13:03.090337  7444 net.cpp:100] Creating Layer fire4/relu_expand3x3
I1018 10:13:03.091337  7444 net.cpp:434] fire4/relu_expand3x3 <- fire4/expand3x3
I1018 10:13:03.091337  7444 net.cpp:395] fire4/relu_expand3x3 -> fire4/expand3x3 (in-place)
I1018 10:13:03.093338  7444 net.cpp:150] Setting up fire4/relu_expand3x3
I1018 10:13:03.093338  7444 net.cpp:157] Top shape: 32 128 32 48 (6291456)
I1018 10:13:03.094337  7444 net.cpp:165] Memory required for data: 1786773536
I1018 10:13:03.094337  7444 layer_factory.hpp:77] Creating layer fire4/concat
I1018 10:13:03.095337  7444 net.cpp:100] Creating Layer fire4/concat
I1018 10:13:03.096338  7444 net.cpp:434] fire4/concat <- fire4/expand1x1
I1018 10:13:03.096338  7444 net.cpp:434] fire4/concat <- fire4/expand3x3
I1018 10:13:03.097337  7444 net.cpp:408] fire4/concat -> fire4/concat
I1018 10:13:03.098337  7444 net.cpp:150] Setting up fire4/concat
I1018 10:13:03.098337  7444 net.cpp:157] Top shape: 32 256 32 48 (12582912)
I1018 10:13:03.099337  7444 net.cpp:165] Memory required for data: 1837105184
I1018 10:13:03.100338  7444 layer_factory.hpp:77] Creating layer fire4/concat_bn
I1018 10:13:03.100338  7444 net.cpp:100] Creating Layer fire4/concat_bn
I1018 10:13:03.101338  7444 net.cpp:434] fire4/concat_bn <- fire4/concat
I1018 10:13:03.102339  7444 net.cpp:395] fire4/concat_bn -> fire4/concat (in-place)
I1018 10:13:03.103338  7444 net.cpp:150] Setting up fire4/concat_bn
I1018 10:13:03.103338  7444 net.cpp:157] Top shape: 32 256 32 48 (12582912)
I1018 10:13:03.104338  7444 net.cpp:165] Memory required for data: 1887436832
I1018 10:13:03.105339  7444 layer_factory.hpp:77] Creating layer fire5/squeeze1x1
I1018 10:13:03.105339  7444 net.cpp:100] Creating Layer fire5/squeeze1x1
I1018 10:13:03.106338  7444 net.cpp:434] fire5/squeeze1x1 <- fire4/concat
I1018 10:13:03.107338  7444 net.cpp:408] fire5/squeeze1x1 -> fire5/squeeze1x1
I1018 10:13:03.110338  7444 net.cpp:150] Setting up fire5/squeeze1x1
I1018 10:13:03.110338  7444 net.cpp:157] Top shape: 32 32 32 48 (1572864)
I1018 10:13:03.111338  7444 net.cpp:165] Memory required for data: 1893728288
I1018 10:13:03.111338  7444 layer_factory.hpp:77] Creating layer fire5/relu_squeeze1x1
I1018 10:13:03.112339  7444 net.cpp:100] Creating Layer fire5/relu_squeeze1x1
I1018 10:13:03.113338  7444 net.cpp:434] fire5/relu_squeeze1x1 <- fire5/squeeze1x1
I1018 10:13:03.113338  7444 net.cpp:395] fire5/relu_squeeze1x1 -> fire5/squeeze1x1 (in-place)
I1018 10:13:03.115339  7444 net.cpp:150] Setting up fire5/relu_squeeze1x1
I1018 10:13:03.116338  7444 net.cpp:157] Top shape: 32 32 32 48 (1572864)
I1018 10:13:03.116338  7444 net.cpp:165] Memory required for data: 1900019744
I1018 10:13:03.117338  7444 layer_factory.hpp:77] Creating layer fire5/squeeze1x1_fire5/relu_squeeze1x1_0_split
I1018 10:13:03.118340  7444 net.cpp:100] Creating Layer fire5/squeeze1x1_fire5/relu_squeeze1x1_0_split
I1018 10:13:03.118340  7444 net.cpp:434] fire5/squeeze1x1_fire5/relu_squeeze1x1_0_split <- fire5/squeeze1x1
I1018 10:13:03.119339  7444 net.cpp:408] fire5/squeeze1x1_fire5/relu_squeeze1x1_0_split -> fire5/squeeze1x1_fire5/relu_squeeze1x1_0_split_0
I1018 10:13:03.120339  7444 net.cpp:408] fire5/squeeze1x1_fire5/relu_squeeze1x1_0_split -> fire5/squeeze1x1_fire5/relu_squeeze1x1_0_split_1
I1018 10:13:03.121340  7444 net.cpp:150] Setting up fire5/squeeze1x1_fire5/relu_squeeze1x1_0_split
I1018 10:13:03.121340  7444 net.cpp:157] Top shape: 32 32 32 48 (1572864)
I1018 10:13:03.122339  7444 net.cpp:157] Top shape: 32 32 32 48 (1572864)
I1018 10:13:03.123339  7444 net.cpp:165] Memory required for data: 1912602656
I1018 10:13:03.123339  7444 layer_factory.hpp:77] Creating layer fire5/expand1x1
I1018 10:13:03.124339  7444 net.cpp:100] Creating Layer fire5/expand1x1
I1018 10:13:03.125339  7444 net.cpp:434] fire5/expand1x1 <- fire5/squeeze1x1_fire5/relu_squeeze1x1_0_split_0
I1018 10:13:03.125339  7444 net.cpp:408] fire5/expand1x1 -> fire5/expand1x1
I1018 10:13:03.131340  7444 net.cpp:150] Setting up fire5/expand1x1
I1018 10:13:03.132339  7444 net.cpp:157] Top shape: 32 128 32 48 (6291456)
I1018 10:13:03.132339  7444 net.cpp:165] Memory required for data: 1937768480
I1018 10:13:03.133339  7444 layer_factory.hpp:77] Creating layer fire5/relu_expand1x1
I1018 10:13:03.134340  7444 net.cpp:100] Creating Layer fire5/relu_expand1x1
I1018 10:13:03.134340  7444 net.cpp:434] fire5/relu_expand1x1 <- fire5/expand1x1
I1018 10:13:03.135340  7444 net.cpp:395] fire5/relu_expand1x1 -> fire5/expand1x1 (in-place)
I1018 10:13:03.135340  7444 net.cpp:150] Setting up fire5/relu_expand1x1
I1018 10:13:03.135340  7444 net.cpp:157] Top shape: 32 128 32 48 (6291456)
I1018 10:13:03.136340  7444 net.cpp:165] Memory required for data: 1962934304
I1018 10:13:03.136340  7444 layer_factory.hpp:77] Creating layer fire5/expand3x3
I1018 10:13:03.136340  7444 net.cpp:100] Creating Layer fire5/expand3x3
I1018 10:13:03.136340  7444 net.cpp:434] fire5/expand3x3 <- fire5/squeeze1x1_fire5/relu_squeeze1x1_0_split_1
I1018 10:13:03.137341  7444 net.cpp:408] fire5/expand3x3 -> fire5/expand3x3
I1018 10:13:03.138340  7444 net.cpp:150] Setting up fire5/expand3x3
I1018 10:13:03.139340  7444 net.cpp:157] Top shape: 32 128 32 48 (6291456)
I1018 10:13:03.139340  7444 net.cpp:165] Memory required for data: 1988100128
I1018 10:13:03.139340  7444 layer_factory.hpp:77] Creating layer fire5/relu_expand3x3
I1018 10:13:03.139340  7444 net.cpp:100] Creating Layer fire5/relu_expand3x3
I1018 10:13:03.139340  7444 net.cpp:434] fire5/relu_expand3x3 <- fire5/expand3x3
I1018 10:13:03.140341  7444 net.cpp:395] fire5/relu_expand3x3 -> fire5/expand3x3 (in-place)
I1018 10:13:03.140341  7444 net.cpp:150] Setting up fire5/relu_expand3x3
I1018 10:13:03.140341  7444 net.cpp:157] Top shape: 32 128 32 48 (6291456)
I1018 10:13:03.141340  7444 net.cpp:165] Memory required for data: 2013265952
I1018 10:13:03.141340  7444 layer_factory.hpp:77] Creating layer fire5/concat
I1018 10:13:03.141340  7444 net.cpp:100] Creating Layer fire5/concat
I1018 10:13:03.142340  7444 net.cpp:434] fire5/concat <- fire5/expand1x1
I1018 10:13:03.142340  7444 net.cpp:434] fire5/concat <- fire5/expand3x3
I1018 10:13:03.142340  7444 net.cpp:408] fire5/concat -> fire5/concat
I1018 10:13:03.142340  7444 net.cpp:150] Setting up fire5/concat
I1018 10:13:03.143340  7444 net.cpp:157] Top shape: 32 256 32 48 (12582912)
I1018 10:13:03.143340  7444 net.cpp:165] Memory required for data: 2063597600
I1018 10:13:03.143340  7444 layer_factory.hpp:77] Creating layer fire5/concat_fire5/concat_0_split
I1018 10:13:03.143340  7444 net.cpp:100] Creating Layer fire5/concat_fire5/concat_0_split
I1018 10:13:03.143340  7444 net.cpp:434] fire5/concat_fire5/concat_0_split <- fire5/concat
I1018 10:13:03.144340  7444 net.cpp:408] fire5/concat_fire5/concat_0_split -> fire5/concat_fire5/concat_0_split_0
I1018 10:13:03.144340  7444 net.cpp:408] fire5/concat_fire5/concat_0_split -> fire5/concat_fire5/concat_0_split_1
I1018 10:13:03.144340  7444 net.cpp:150] Setting up fire5/concat_fire5/concat_0_split
I1018 10:13:03.144340  7444 net.cpp:157] Top shape: 32 256 32 48 (12582912)
I1018 10:13:03.144340  7444 net.cpp:157] Top shape: 32 256 32 48 (12582912)
I1018 10:13:03.145340  7444 net.cpp:165] Memory required for data: 2164260896
I1018 10:13:03.145340  7444 layer_factory.hpp:77] Creating layer pool5
I1018 10:13:03.145340  7444 net.cpp:100] Creating Layer pool5
I1018 10:13:03.145340  7444 net.cpp:434] pool5 <- fire5/concat_fire5/concat_0_split_0
I1018 10:13:03.146340  7444 net.cpp:408] pool5 -> pool5
I1018 10:13:03.146340  7444 net.cpp:150] Setting up pool5
I1018 10:13:03.146340  7444 net.cpp:157] Top shape: 32 256 16 24 (3145728)
I1018 10:13:03.146340  7444 net.cpp:165] Memory required for data: 2176843808
I1018 10:13:03.146340  7444 layer_factory.hpp:77] Creating layer fire5/concat_bn
I1018 10:13:03.147341  7444 net.cpp:100] Creating Layer fire5/concat_bn
I1018 10:13:03.147341  7444 net.cpp:434] fire5/concat_bn <- pool5
I1018 10:13:03.147341  7444 net.cpp:395] fire5/concat_bn -> pool5 (in-place)
I1018 10:13:03.148340  7444 net.cpp:150] Setting up fire5/concat_bn
I1018 10:13:03.148340  7444 net.cpp:157] Top shape: 32 256 16 24 (3145728)
I1018 10:13:03.148340  7444 net.cpp:165] Memory required for data: 2189426720
I1018 10:13:03.148340  7444 layer_factory.hpp:77] Creating layer fire6/squeeze1x1
I1018 10:13:03.149340  7444 net.cpp:100] Creating Layer fire6/squeeze1x1
I1018 10:13:03.149340  7444 net.cpp:434] fire6/squeeze1x1 <- pool5
I1018 10:13:03.149340  7444 net.cpp:408] fire6/squeeze1x1 -> fire6/squeeze1x1
I1018 10:13:03.150341  7444 net.cpp:150] Setting up fire6/squeeze1x1
I1018 10:13:03.151340  7444 net.cpp:157] Top shape: 32 48 16 24 (589824)
I1018 10:13:03.151340  7444 net.cpp:165] Memory required for data: 2191786016
I1018 10:13:03.151340  7444 layer_factory.hpp:77] Creating layer fire6/relu_squeeze1x1
I1018 10:13:03.151340  7444 net.cpp:100] Creating Layer fire6/relu_squeeze1x1
I1018 10:13:03.152340  7444 net.cpp:434] fire6/relu_squeeze1x1 <- fire6/squeeze1x1
I1018 10:13:03.152340  7444 net.cpp:395] fire6/relu_squeeze1x1 -> fire6/squeeze1x1 (in-place)
I1018 10:13:03.152340  7444 net.cpp:150] Setting up fire6/relu_squeeze1x1
I1018 10:13:03.153342  7444 net.cpp:157] Top shape: 32 48 16 24 (589824)
I1018 10:13:03.153342  7444 net.cpp:165] Memory required for data: 2194145312
I1018 10:13:03.153342  7444 layer_factory.hpp:77] Creating layer fire6/squeeze1x1_fire6/relu_squeeze1x1_0_split
I1018 10:13:03.153342  7444 net.cpp:100] Creating Layer fire6/squeeze1x1_fire6/relu_squeeze1x1_0_split
I1018 10:13:03.154341  7444 net.cpp:434] fire6/squeeze1x1_fire6/relu_squeeze1x1_0_split <- fire6/squeeze1x1
I1018 10:13:03.154341  7444 net.cpp:408] fire6/squeeze1x1_fire6/relu_squeeze1x1_0_split -> fire6/squeeze1x1_fire6/relu_squeeze1x1_0_split_0
I1018 10:13:03.154341  7444 net.cpp:408] fire6/squeeze1x1_fire6/relu_squeeze1x1_0_split -> fire6/squeeze1x1_fire6/relu_squeeze1x1_0_split_1
I1018 10:13:03.155341  7444 net.cpp:150] Setting up fire6/squeeze1x1_fire6/relu_squeeze1x1_0_split
I1018 10:13:03.155341  7444 net.cpp:157] Top shape: 32 48 16 24 (589824)
I1018 10:13:03.155341  7444 net.cpp:157] Top shape: 32 48 16 24 (589824)
I1018 10:13:03.155341  7444 net.cpp:165] Memory required for data: 2198863904
I1018 10:13:03.156342  7444 layer_factory.hpp:77] Creating layer fire6/expand1x1
I1018 10:13:03.156342  7444 net.cpp:100] Creating Layer fire6/expand1x1
I1018 10:13:03.156342  7444 net.cpp:434] fire6/expand1x1 <- fire6/squeeze1x1_fire6/relu_squeeze1x1_0_split_0
I1018 10:13:03.156342  7444 net.cpp:408] fire6/expand1x1 -> fire6/expand1x1
I1018 10:13:03.158341  7444 net.cpp:150] Setting up fire6/expand1x1
I1018 10:13:03.158341  7444 net.cpp:157] Top shape: 32 192 16 24 (2359296)
I1018 10:13:03.158341  7444 net.cpp:165] Memory required for data: 2208301088
I1018 10:13:03.158341  7444 layer_factory.hpp:77] Creating layer fire6/relu_expand1x1
I1018 10:13:03.159342  7444 net.cpp:100] Creating Layer fire6/relu_expand1x1
I1018 10:13:03.159342  7444 net.cpp:434] fire6/relu_expand1x1 <- fire6/expand1x1
I1018 10:13:03.159342  7444 net.cpp:395] fire6/relu_expand1x1 -> fire6/expand1x1 (in-place)
I1018 10:13:03.159342  7444 net.cpp:150] Setting up fire6/relu_expand1x1
I1018 10:13:03.160341  7444 net.cpp:157] Top shape: 32 192 16 24 (2359296)
I1018 10:13:03.160341  7444 net.cpp:165] Memory required for data: 2217738272
I1018 10:13:03.160341  7444 layer_factory.hpp:77] Creating layer fire6/expand3x3
I1018 10:13:03.160341  7444 net.cpp:100] Creating Layer fire6/expand3x3
I1018 10:13:03.161341  7444 net.cpp:434] fire6/expand3x3 <- fire6/squeeze1x1_fire6/relu_squeeze1x1_0_split_1
I1018 10:13:03.161341  7444 net.cpp:408] fire6/expand3x3 -> fire6/expand3x3
I1018 10:13:03.163341  7444 net.cpp:150] Setting up fire6/expand3x3
I1018 10:13:03.164341  7444 net.cpp:157] Top shape: 32 192 16 24 (2359296)
I1018 10:13:03.164341  7444 net.cpp:165] Memory required for data: 2227175456
I1018 10:13:03.164341  7444 layer_factory.hpp:77] Creating layer fire6/relu_expand3x3
I1018 10:13:03.164341  7444 net.cpp:100] Creating Layer fire6/relu_expand3x3
I1018 10:13:03.165341  7444 net.cpp:434] fire6/relu_expand3x3 <- fire6/expand3x3
I1018 10:13:03.165341  7444 net.cpp:395] fire6/relu_expand3x3 -> fire6/expand3x3 (in-place)
I1018 10:13:03.165341  7444 net.cpp:150] Setting up fire6/relu_expand3x3
I1018 10:13:03.166342  7444 net.cpp:157] Top shape: 32 192 16 24 (2359296)
I1018 10:13:03.166342  7444 net.cpp:165] Memory required for data: 2236612640
I1018 10:13:03.166342  7444 layer_factory.hpp:77] Creating layer fire6/concat
I1018 10:13:03.166342  7444 net.cpp:100] Creating Layer fire6/concat
I1018 10:13:03.166342  7444 net.cpp:434] fire6/concat <- fire6/expand1x1
I1018 10:13:03.167341  7444 net.cpp:434] fire6/concat <- fire6/expand3x3
I1018 10:13:03.167341  7444 net.cpp:408] fire6/concat -> fire6/concat
I1018 10:13:03.167341  7444 net.cpp:150] Setting up fire6/concat
I1018 10:13:03.167341  7444 net.cpp:157] Top shape: 32 384 16 24 (4718592)
I1018 10:13:03.167341  7444 net.cpp:165] Memory required for data: 2255487008
I1018 10:13:03.168341  7444 layer_factory.hpp:77] Creating layer fire6/concat_bn
I1018 10:13:03.168341  7444 net.cpp:100] Creating Layer fire6/concat_bn
I1018 10:13:03.168341  7444 net.cpp:434] fire6/concat_bn <- fire6/concat
I1018 10:13:03.168341  7444 net.cpp:395] fire6/concat_bn -> fire6/concat (in-place)
I1018 10:13:03.169342  7444 net.cpp:150] Setting up fire6/concat_bn
I1018 10:13:03.169342  7444 net.cpp:157] Top shape: 32 384 16 24 (4718592)
I1018 10:13:03.169342  7444 net.cpp:165] Memory required for data: 2274361376
I1018 10:13:03.170342  7444 layer_factory.hpp:77] Creating layer fire7/squeeze1x1
I1018 10:13:03.170342  7444 net.cpp:100] Creating Layer fire7/squeeze1x1
I1018 10:13:03.170342  7444 net.cpp:434] fire7/squeeze1x1 <- fire6/concat
I1018 10:13:03.170342  7444 net.cpp:408] fire7/squeeze1x1 -> fire7/squeeze1x1
I1018 10:13:03.172343  7444 net.cpp:150] Setting up fire7/squeeze1x1
I1018 10:13:03.172343  7444 net.cpp:157] Top shape: 32 48 16 24 (589824)
I1018 10:13:03.172343  7444 net.cpp:165] Memory required for data: 2276720672
I1018 10:13:03.173342  7444 layer_factory.hpp:77] Creating layer fire7/relu_squeeze1x1
I1018 10:13:03.173342  7444 net.cpp:100] Creating Layer fire7/relu_squeeze1x1
I1018 10:13:03.173342  7444 net.cpp:434] fire7/relu_squeeze1x1 <- fire7/squeeze1x1
I1018 10:13:03.173342  7444 net.cpp:395] fire7/relu_squeeze1x1 -> fire7/squeeze1x1 (in-place)
I1018 10:13:03.174342  7444 net.cpp:150] Setting up fire7/relu_squeeze1x1
I1018 10:13:03.174342  7444 net.cpp:157] Top shape: 32 48 16 24 (589824)
I1018 10:13:03.174342  7444 net.cpp:165] Memory required for data: 2279079968
I1018 10:13:03.174342  7444 layer_factory.hpp:77] Creating layer fire7/squeeze1x1_fire7/relu_squeeze1x1_0_split
I1018 10:13:03.175343  7444 net.cpp:100] Creating Layer fire7/squeeze1x1_fire7/relu_squeeze1x1_0_split
I1018 10:13:03.175343  7444 net.cpp:434] fire7/squeeze1x1_fire7/relu_squeeze1x1_0_split <- fire7/squeeze1x1
I1018 10:13:03.175343  7444 net.cpp:408] fire7/squeeze1x1_fire7/relu_squeeze1x1_0_split -> fire7/squeeze1x1_fire7/relu_squeeze1x1_0_split_0
I1018 10:13:03.175343  7444 net.cpp:408] fire7/squeeze1x1_fire7/relu_squeeze1x1_0_split -> fire7/squeeze1x1_fire7/relu_squeeze1x1_0_split_1
I1018 10:13:03.176342  7444 net.cpp:150] Setting up fire7/squeeze1x1_fire7/relu_squeeze1x1_0_split
I1018 10:13:03.176342  7444 net.cpp:157] Top shape: 32 48 16 24 (589824)
I1018 10:13:03.177342  7444 net.cpp:157] Top shape: 32 48 16 24 (589824)
I1018 10:13:03.177342  7444 net.cpp:165] Memory required for data: 2283798560
I1018 10:13:03.177342  7444 layer_factory.hpp:77] Creating layer fire7/expand1x1
I1018 10:13:03.178342  7444 net.cpp:100] Creating Layer fire7/expand1x1
I1018 10:13:03.178342  7444 net.cpp:434] fire7/expand1x1 <- fire7/squeeze1x1_fire7/relu_squeeze1x1_0_split_0
I1018 10:13:03.178342  7444 net.cpp:408] fire7/expand1x1 -> fire7/expand1x1
I1018 10:13:03.179342  7444 net.cpp:150] Setting up fire7/expand1x1
I1018 10:13:03.180342  7444 net.cpp:157] Top shape: 32 192 16 24 (2359296)
I1018 10:13:03.180342  7444 net.cpp:165] Memory required for data: 2293235744
I1018 10:13:03.180342  7444 layer_factory.hpp:77] Creating layer fire7/relu_expand1x1
I1018 10:13:03.180342  7444 net.cpp:100] Creating Layer fire7/relu_expand1x1
I1018 10:13:03.180342  7444 net.cpp:434] fire7/relu_expand1x1 <- fire7/expand1x1
I1018 10:13:03.181342  7444 net.cpp:395] fire7/relu_expand1x1 -> fire7/expand1x1 (in-place)
I1018 10:13:03.181342  7444 net.cpp:150] Setting up fire7/relu_expand1x1
I1018 10:13:03.181342  7444 net.cpp:157] Top shape: 32 192 16 24 (2359296)
I1018 10:13:03.182343  7444 net.cpp:165] Memory required for data: 2302672928
I1018 10:13:03.182343  7444 layer_factory.hpp:77] Creating layer fire7/expand3x3
I1018 10:13:03.182343  7444 net.cpp:100] Creating Layer fire7/expand3x3
I1018 10:13:03.182343  7444 net.cpp:434] fire7/expand3x3 <- fire7/squeeze1x1_fire7/relu_squeeze1x1_0_split_1
I1018 10:13:03.183342  7444 net.cpp:408] fire7/expand3x3 -> fire7/expand3x3
I1018 10:13:03.184342  7444 net.cpp:150] Setting up fire7/expand3x3
I1018 10:13:03.185343  7444 net.cpp:157] Top shape: 32 192 16 24 (2359296)
I1018 10:13:03.185343  7444 net.cpp:165] Memory required for data: 2312110112
I1018 10:13:03.185343  7444 layer_factory.hpp:77] Creating layer fire7/relu_expand3x3
I1018 10:13:03.185343  7444 net.cpp:100] Creating Layer fire7/relu_expand3x3
I1018 10:13:03.185343  7444 net.cpp:434] fire7/relu_expand3x3 <- fire7/expand3x3
I1018 10:13:03.186342  7444 net.cpp:395] fire7/relu_expand3x3 -> fire7/expand3x3 (in-place)
I1018 10:13:03.186342  7444 net.cpp:150] Setting up fire7/relu_expand3x3
I1018 10:13:03.187342  7444 net.cpp:157] Top shape: 32 192 16 24 (2359296)
I1018 10:13:03.187342  7444 net.cpp:165] Memory required for data: 2321547296
I1018 10:13:03.187342  7444 layer_factory.hpp:77] Creating layer fire7/concat
I1018 10:13:03.187342  7444 net.cpp:100] Creating Layer fire7/concat
I1018 10:13:03.188344  7444 net.cpp:434] fire7/concat <- fire7/expand1x1
I1018 10:13:03.188344  7444 net.cpp:434] fire7/concat <- fire7/expand3x3
I1018 10:13:03.188344  7444 net.cpp:408] fire7/concat -> fire7/concat
I1018 10:13:03.188344  7444 net.cpp:150] Setting up fire7/concat
I1018 10:13:03.188344  7444 net.cpp:157] Top shape: 32 384 16 24 (4718592)
I1018 10:13:03.189343  7444 net.cpp:165] Memory required for data: 2340421664
I1018 10:13:03.189343  7444 layer_factory.hpp:77] Creating layer fire7/concat_bn
I1018 10:13:03.189343  7444 net.cpp:100] Creating Layer fire7/concat_bn
I1018 10:13:03.189343  7444 net.cpp:434] fire7/concat_bn <- fire7/concat
I1018 10:13:03.190343  7444 net.cpp:395] fire7/concat_bn -> fire7/concat (in-place)
I1018 10:13:03.190343  7444 net.cpp:150] Setting up fire7/concat_bn
I1018 10:13:03.190343  7444 net.cpp:157] Top shape: 32 384 16 24 (4718592)
I1018 10:13:03.191344  7444 net.cpp:165] Memory required for data: 2359296032
I1018 10:13:03.191344  7444 layer_factory.hpp:77] Creating layer fire8/squeeze1x1
I1018 10:13:03.191344  7444 net.cpp:100] Creating Layer fire8/squeeze1x1
I1018 10:13:03.191344  7444 net.cpp:434] fire8/squeeze1x1 <- fire7/concat
I1018 10:13:03.192343  7444 net.cpp:408] fire8/squeeze1x1 -> fire8/squeeze1x1
I1018 10:13:03.193343  7444 net.cpp:150] Setting up fire8/squeeze1x1
I1018 10:13:03.193343  7444 net.cpp:157] Top shape: 32 64 16 24 (786432)
I1018 10:13:03.193343  7444 net.cpp:165] Memory required for data: 2362441760
I1018 10:13:03.194344  7444 layer_factory.hpp:77] Creating layer fire8/relu_squeeze1x1
I1018 10:13:03.194344  7444 net.cpp:100] Creating Layer fire8/relu_squeeze1x1
I1018 10:13:03.194344  7444 net.cpp:434] fire8/relu_squeeze1x1 <- fire8/squeeze1x1
I1018 10:13:03.194344  7444 net.cpp:395] fire8/relu_squeeze1x1 -> fire8/squeeze1x1 (in-place)
I1018 10:13:03.195343  7444 net.cpp:150] Setting up fire8/relu_squeeze1x1
I1018 10:13:03.195343  7444 net.cpp:157] Top shape: 32 64 16 24 (786432)
I1018 10:13:03.195343  7444 net.cpp:165] Memory required for data: 2365587488
I1018 10:13:03.195343  7444 layer_factory.hpp:77] Creating layer fire8/squeeze1x1_fire8/relu_squeeze1x1_0_split
I1018 10:13:03.196343  7444 net.cpp:100] Creating Layer fire8/squeeze1x1_fire8/relu_squeeze1x1_0_split
I1018 10:13:03.196343  7444 net.cpp:434] fire8/squeeze1x1_fire8/relu_squeeze1x1_0_split <- fire8/squeeze1x1
I1018 10:13:03.196343  7444 net.cpp:408] fire8/squeeze1x1_fire8/relu_squeeze1x1_0_split -> fire8/squeeze1x1_fire8/relu_squeeze1x1_0_split_0
I1018 10:13:03.196343  7444 net.cpp:408] fire8/squeeze1x1_fire8/relu_squeeze1x1_0_split -> fire8/squeeze1x1_fire8/relu_squeeze1x1_0_split_1
I1018 10:13:03.197343  7444 net.cpp:150] Setting up fire8/squeeze1x1_fire8/relu_squeeze1x1_0_split
I1018 10:13:03.197343  7444 net.cpp:157] Top shape: 32 64 16 24 (786432)
I1018 10:13:03.197343  7444 net.cpp:157] Top shape: 32 64 16 24 (786432)
I1018 10:13:03.197343  7444 net.cpp:165] Memory required for data: 2371878944
I1018 10:13:03.198343  7444 layer_factory.hpp:77] Creating layer fire8/expand1x1
I1018 10:13:03.198343  7444 net.cpp:100] Creating Layer fire8/expand1x1
I1018 10:13:03.198343  7444 net.cpp:434] fire8/expand1x1 <- fire8/squeeze1x1_fire8/relu_squeeze1x1_0_split_0
I1018 10:13:03.198343  7444 net.cpp:408] fire8/expand1x1 -> fire8/expand1x1
I1018 10:13:03.200343  7444 net.cpp:150] Setting up fire8/expand1x1
I1018 10:13:03.200343  7444 net.cpp:157] Top shape: 32 256 16 24 (3145728)
I1018 10:13:03.200343  7444 net.cpp:165] Memory required for data: 2384461856
I1018 10:13:03.200343  7444 layer_factory.hpp:77] Creating layer fire8/relu_expand1x1
I1018 10:13:03.201344  7444 net.cpp:100] Creating Layer fire8/relu_expand1x1
I1018 10:13:03.201344  7444 net.cpp:434] fire8/relu_expand1x1 <- fire8/expand1x1
I1018 10:13:03.201344  7444 net.cpp:395] fire8/relu_expand1x1 -> fire8/expand1x1 (in-place)
I1018 10:13:03.202343  7444 net.cpp:150] Setting up fire8/relu_expand1x1
I1018 10:13:03.202343  7444 net.cpp:157] Top shape: 32 256 16 24 (3145728)
I1018 10:13:03.202343  7444 net.cpp:165] Memory required for data: 2397044768
I1018 10:13:03.202343  7444 layer_factory.hpp:77] Creating layer fire8/expand3x3
I1018 10:13:03.203343  7444 net.cpp:100] Creating Layer fire8/expand3x3
I1018 10:13:03.203343  7444 net.cpp:434] fire8/expand3x3 <- fire8/squeeze1x1_fire8/relu_squeeze1x1_0_split_1
I1018 10:13:03.203343  7444 net.cpp:408] fire8/expand3x3 -> fire8/expand3x3
I1018 10:13:03.206344  7444 net.cpp:150] Setting up fire8/expand3x3
I1018 10:13:03.206344  7444 net.cpp:157] Top shape: 32 256 16 24 (3145728)
I1018 10:13:03.206344  7444 net.cpp:165] Memory required for data: 2409627680
I1018 10:13:03.207345  7444 layer_factory.hpp:77] Creating layer fire8/relu_expand3x3
I1018 10:13:03.207345  7444 net.cpp:100] Creating Layer fire8/relu_expand3x3
I1018 10:13:03.207345  7444 net.cpp:434] fire8/relu_expand3x3 <- fire8/expand3x3
I1018 10:13:03.207345  7444 net.cpp:395] fire8/relu_expand3x3 -> fire8/expand3x3 (in-place)
I1018 10:13:03.208344  7444 net.cpp:150] Setting up fire8/relu_expand3x3
I1018 10:13:03.208344  7444 net.cpp:157] Top shape: 32 256 16 24 (3145728)
I1018 10:13:03.208344  7444 net.cpp:165] Memory required for data: 2422210592
I1018 10:13:03.209344  7444 layer_factory.hpp:77] Creating layer fire8/concat
I1018 10:13:03.209344  7444 net.cpp:100] Creating Layer fire8/concat
I1018 10:13:03.209344  7444 net.cpp:434] fire8/concat <- fire8/expand1x1
I1018 10:13:03.209344  7444 net.cpp:434] fire8/concat <- fire8/expand3x3
I1018 10:13:03.209344  7444 net.cpp:408] fire8/concat -> fire8/concat
I1018 10:13:03.210345  7444 net.cpp:150] Setting up fire8/concat
I1018 10:13:03.210345  7444 net.cpp:157] Top shape: 32 512 16 24 (6291456)
I1018 10:13:03.210345  7444 net.cpp:165] Memory required for data: 2447376416
I1018 10:13:03.210345  7444 layer_factory.hpp:77] Creating layer fire8/concat_bn
I1018 10:13:03.211344  7444 net.cpp:100] Creating Layer fire8/concat_bn
I1018 10:13:03.211344  7444 net.cpp:434] fire8/concat_bn <- fire8/concat
I1018 10:13:03.211344  7444 net.cpp:395] fire8/concat_bn -> fire8/concat (in-place)
I1018 10:13:03.212344  7444 net.cpp:150] Setting up fire8/concat_bn
I1018 10:13:03.212344  7444 net.cpp:157] Top shape: 32 512 16 24 (6291456)
I1018 10:13:03.212344  7444 net.cpp:165] Memory required for data: 2472542240
I1018 10:13:03.212344  7444 layer_factory.hpp:77] Creating layer fire9/squeeze1x1
I1018 10:13:03.212344  7444 net.cpp:100] Creating Layer fire9/squeeze1x1
I1018 10:13:03.213345  7444 net.cpp:434] fire9/squeeze1x1 <- fire8/concat
I1018 10:13:03.213345  7444 net.cpp:408] fire9/squeeze1x1 -> fire9/squeeze1x1
I1018 10:13:03.214344  7444 net.cpp:150] Setting up fire9/squeeze1x1
I1018 10:13:03.215344  7444 net.cpp:157] Top shape: 32 64 16 24 (786432)
I1018 10:13:03.215344  7444 net.cpp:165] Memory required for data: 2475687968
I1018 10:13:03.215344  7444 layer_factory.hpp:77] Creating layer fire9/relu_squeeze1x1
I1018 10:13:03.215344  7444 net.cpp:100] Creating Layer fire9/relu_squeeze1x1
I1018 10:13:03.215344  7444 net.cpp:434] fire9/relu_squeeze1x1 <- fire9/squeeze1x1
I1018 10:13:03.216344  7444 net.cpp:395] fire9/relu_squeeze1x1 -> fire9/squeeze1x1 (in-place)
I1018 10:13:03.216344  7444 net.cpp:150] Setting up fire9/relu_squeeze1x1
I1018 10:13:03.217344  7444 net.cpp:157] Top shape: 32 64 16 24 (786432)
I1018 10:13:03.217344  7444 net.cpp:165] Memory required for data: 2478833696
I1018 10:13:03.217344  7444 layer_factory.hpp:77] Creating layer fire9/squeeze1x1_fire9/relu_squeeze1x1_0_split
I1018 10:13:03.217344  7444 net.cpp:100] Creating Layer fire9/squeeze1x1_fire9/relu_squeeze1x1_0_split
I1018 10:13:03.218344  7444 net.cpp:434] fire9/squeeze1x1_fire9/relu_squeeze1x1_0_split <- fire9/squeeze1x1
I1018 10:13:03.218344  7444 net.cpp:408] fire9/squeeze1x1_fire9/relu_squeeze1x1_0_split -> fire9/squeeze1x1_fire9/relu_squeeze1x1_0_split_0
I1018 10:13:03.218344  7444 net.cpp:408] fire9/squeeze1x1_fire9/relu_squeeze1x1_0_split -> fire9/squeeze1x1_fire9/relu_squeeze1x1_0_split_1
I1018 10:13:03.218344  7444 net.cpp:150] Setting up fire9/squeeze1x1_fire9/relu_squeeze1x1_0_split
I1018 10:13:03.219344  7444 net.cpp:157] Top shape: 32 64 16 24 (786432)
I1018 10:13:03.219344  7444 net.cpp:157] Top shape: 32 64 16 24 (786432)
I1018 10:13:03.219344  7444 net.cpp:165] Memory required for data: 2485125152
I1018 10:13:03.219344  7444 layer_factory.hpp:77] Creating layer fire9/expand1x1
I1018 10:13:03.220345  7444 net.cpp:100] Creating Layer fire9/expand1x1
I1018 10:13:03.220345  7444 net.cpp:434] fire9/expand1x1 <- fire9/squeeze1x1_fire9/relu_squeeze1x1_0_split_0
I1018 10:13:03.220345  7444 net.cpp:408] fire9/expand1x1 -> fire9/expand1x1
I1018 10:13:03.221344  7444 net.cpp:150] Setting up fire9/expand1x1
I1018 10:13:03.222344  7444 net.cpp:157] Top shape: 32 256 16 24 (3145728)
I1018 10:13:03.222344  7444 net.cpp:165] Memory required for data: 2497708064
I1018 10:13:03.222344  7444 layer_factory.hpp:77] Creating layer fire9/relu_expand1x1
I1018 10:13:03.222344  7444 net.cpp:100] Creating Layer fire9/relu_expand1x1
I1018 10:13:03.223345  7444 net.cpp:434] fire9/relu_expand1x1 <- fire9/expand1x1
I1018 10:13:03.223345  7444 net.cpp:395] fire9/relu_expand1x1 -> fire9/expand1x1 (in-place)
I1018 10:13:03.223345  7444 net.cpp:150] Setting up fire9/relu_expand1x1
I1018 10:13:03.223345  7444 net.cpp:157] Top shape: 32 256 16 24 (3145728)
I1018 10:13:03.224345  7444 net.cpp:165] Memory required for data: 2510290976
I1018 10:13:03.224345  7444 layer_factory.hpp:77] Creating layer fire9/expand3x3
I1018 10:13:03.224345  7444 net.cpp:100] Creating Layer fire9/expand3x3
I1018 10:13:03.224345  7444 net.cpp:434] fire9/expand3x3 <- fire9/squeeze1x1_fire9/relu_squeeze1x1_0_split_1
I1018 10:13:03.225345  7444 net.cpp:408] fire9/expand3x3 -> fire9/expand3x3
I1018 10:13:03.228345  7444 net.cpp:150] Setting up fire9/expand3x3
I1018 10:13:03.228345  7444 net.cpp:157] Top shape: 32 256 16 24 (3145728)
I1018 10:13:03.228345  7444 net.cpp:165] Memory required for data: 2522873888
I1018 10:13:03.228345  7444 layer_factory.hpp:77] Creating layer fire9/relu_expand3x3
I1018 10:13:03.228345  7444 net.cpp:100] Creating Layer fire9/relu_expand3x3
I1018 10:13:03.229346  7444 net.cpp:434] fire9/relu_expand3x3 <- fire9/expand3x3
I1018 10:13:03.229346  7444 net.cpp:395] fire9/relu_expand3x3 -> fire9/expand3x3 (in-place)
I1018 10:13:03.229346  7444 net.cpp:150] Setting up fire9/relu_expand3x3
I1018 10:13:03.230345  7444 net.cpp:157] Top shape: 32 256 16 24 (3145728)
I1018 10:13:03.230345  7444 net.cpp:165] Memory required for data: 2535456800
I1018 10:13:03.230345  7444 layer_factory.hpp:77] Creating layer fire9/concat
I1018 10:13:03.231345  7444 net.cpp:100] Creating Layer fire9/concat
I1018 10:13:03.231345  7444 net.cpp:434] fire9/concat <- fire9/expand1x1
I1018 10:13:03.231345  7444 net.cpp:434] fire9/concat <- fire9/expand3x3
I1018 10:13:03.231345  7444 net.cpp:408] fire9/concat -> fire9/concat
I1018 10:13:03.231345  7444 net.cpp:150] Setting up fire9/concat
I1018 10:13:03.232345  7444 net.cpp:157] Top shape: 32 512 16 24 (6291456)
I1018 10:13:03.232345  7444 net.cpp:165] Memory required for data: 2560622624
I1018 10:13:03.232345  7444 layer_factory.hpp:77] Creating layer fire9/concat_bn
I1018 10:13:03.232345  7444 net.cpp:100] Creating Layer fire9/concat_bn
I1018 10:13:03.233345  7444 net.cpp:434] fire9/concat_bn <- fire9/concat
I1018 10:13:03.233345  7444 net.cpp:395] fire9/concat_bn -> fire9/concat (in-place)
I1018 10:13:03.233345  7444 net.cpp:150] Setting up fire9/concat_bn
I1018 10:13:03.233345  7444 net.cpp:157] Top shape: 32 512 16 24 (6291456)
I1018 10:13:03.234345  7444 net.cpp:165] Memory required for data: 2585788448
I1018 10:13:03.234345  7444 layer_factory.hpp:77] Creating layer fire9/concat_fire9/concat_bn_0_split
I1018 10:13:03.234345  7444 net.cpp:100] Creating Layer fire9/concat_fire9/concat_bn_0_split
I1018 10:13:03.234345  7444 net.cpp:434] fire9/concat_fire9/concat_bn_0_split <- fire9/concat
I1018 10:13:03.235345  7444 net.cpp:408] fire9/concat_fire9/concat_bn_0_split -> fire9/concat_fire9/concat_bn_0_split_0
I1018 10:13:03.235345  7444 net.cpp:408] fire9/concat_fire9/concat_bn_0_split -> fire9/concat_fire9/concat_bn_0_split_1
I1018 10:13:03.235345  7444 net.cpp:408] fire9/concat_fire9/concat_bn_0_split -> fire9/concat_fire9/concat_bn_0_split_2
I1018 10:13:03.235345  7444 net.cpp:408] fire9/concat_fire9/concat_bn_0_split -> fire9/concat_fire9/concat_bn_0_split_3
I1018 10:13:03.236346  7444 net.cpp:150] Setting up fire9/concat_fire9/concat_bn_0_split
I1018 10:13:03.236346  7444 net.cpp:157] Top shape: 32 512 16 24 (6291456)
I1018 10:13:03.236346  7444 net.cpp:157] Top shape: 32 512 16 24 (6291456)
I1018 10:13:03.236346  7444 net.cpp:157] Top shape: 32 512 16 24 (6291456)
I1018 10:13:03.237345  7444 net.cpp:157] Top shape: 32 512 16 24 (6291456)
I1018 10:13:03.237345  7444 net.cpp:165] Memory required for data: 2686451744
I1018 10:13:03.237345  7444 layer_factory.hpp:77] Creating layer conv6_1
I1018 10:13:03.237345  7444 net.cpp:100] Creating Layer conv6_1
I1018 10:13:03.237345  7444 net.cpp:434] conv6_1 <- fire9/concat_fire9/concat_bn_0_split_0
I1018 10:13:03.238345  7444 net.cpp:408] conv6_1 -> conv6_1
I1018 10:13:03.240346  7444 net.cpp:150] Setting up conv6_1
I1018 10:13:03.241346  7444 net.cpp:157] Top shape: 32 256 16 24 (3145728)
I1018 10:13:03.241346  7444 net.cpp:165] Memory required for data: 2699034656
I1018 10:13:03.241346  7444 layer_factory.hpp:77] Creating layer conv6_1_relu
I1018 10:13:03.241346  7444 net.cpp:100] Creating Layer conv6_1_relu
I1018 10:13:03.242347  7444 net.cpp:434] conv6_1_relu <- conv6_1
I1018 10:13:03.242347  7444 net.cpp:395] conv6_1_relu -> conv6_1 (in-place)
I1018 10:13:03.243346  7444 net.cpp:150] Setting up conv6_1_relu
I1018 10:13:03.243346  7444 net.cpp:157] Top shape: 32 256 16 24 (3145728)
I1018 10:13:03.243346  7444 net.cpp:165] Memory required for data: 2711617568
I1018 10:13:03.243346  7444 layer_factory.hpp:77] Creating layer conv6_1_bn
I1018 10:13:03.243346  7444 net.cpp:100] Creating Layer conv6_1_bn
I1018 10:13:03.244346  7444 net.cpp:434] conv6_1_bn <- conv6_1
I1018 10:13:03.244346  7444 net.cpp:395] conv6_1_bn -> conv6_1 (in-place)
I1018 10:13:03.244346  7444 net.cpp:150] Setting up conv6_1_bn
I1018 10:13:03.245347  7444 net.cpp:157] Top shape: 32 256 16 24 (3145728)
I1018 10:13:03.245347  7444 net.cpp:165] Memory required for data: 2724200480
I1018 10:13:03.245347  7444 layer_factory.hpp:77] Creating layer conv6_2
I1018 10:13:03.245347  7444 net.cpp:100] Creating Layer conv6_2
I1018 10:13:03.245347  7444 net.cpp:434] conv6_2 <- conv6_1
I1018 10:13:03.246346  7444 net.cpp:408] conv6_2 -> conv6_2
I1018 10:13:03.258347  7444 net.cpp:150] Setting up conv6_2
I1018 10:13:03.258347  7444 net.cpp:157] Top shape: 32 512 8 12 (1572864)
I1018 10:13:03.259347  7444 net.cpp:165] Memory required for data: 2730491936
I1018 10:13:03.259347  7444 layer_factory.hpp:77] Creating layer conv6_2_relu
I1018 10:13:03.259347  7444 net.cpp:100] Creating Layer conv6_2_relu
I1018 10:13:03.259347  7444 net.cpp:434] conv6_2_relu <- conv6_2
I1018 10:13:03.259347  7444 net.cpp:395] conv6_2_relu -> conv6_2 (in-place)
I1018 10:13:03.260347  7444 net.cpp:150] Setting up conv6_2_relu
I1018 10:13:03.260347  7444 net.cpp:157] Top shape: 32 512 8 12 (1572864)
I1018 10:13:03.260347  7444 net.cpp:165] Memory required for data: 2736783392
I1018 10:13:03.261348  7444 layer_factory.hpp:77] Creating layer conv6_2_bn
I1018 10:13:03.261348  7444 net.cpp:100] Creating Layer conv6_2_bn
I1018 10:13:03.261348  7444 net.cpp:434] conv6_2_bn <- conv6_2
I1018 10:13:03.261348  7444 net.cpp:395] conv6_2_bn -> conv6_2 (in-place)
I1018 10:13:03.262347  7444 net.cpp:150] Setting up conv6_2_bn
I1018 10:13:03.262347  7444 net.cpp:157] Top shape: 32 512 8 12 (1572864)
I1018 10:13:03.262347  7444 net.cpp:165] Memory required for data: 2743074848
I1018 10:13:03.262347  7444 layer_factory.hpp:77] Creating layer conv6_2_conv6_2_bn_0_split
I1018 10:13:03.263347  7444 net.cpp:100] Creating Layer conv6_2_conv6_2_bn_0_split
I1018 10:13:03.263347  7444 net.cpp:434] conv6_2_conv6_2_bn_0_split <- conv6_2
I1018 10:13:03.263347  7444 net.cpp:408] conv6_2_conv6_2_bn_0_split -> conv6_2_conv6_2_bn_0_split_0
I1018 10:13:03.263347  7444 net.cpp:408] conv6_2_conv6_2_bn_0_split -> conv6_2_conv6_2_bn_0_split_1
I1018 10:13:03.264348  7444 net.cpp:408] conv6_2_conv6_2_bn_0_split -> conv6_2_conv6_2_bn_0_split_2
I1018 10:13:03.264348  7444 net.cpp:408] conv6_2_conv6_2_bn_0_split -> conv6_2_conv6_2_bn_0_split_3
I1018 10:13:03.264348  7444 net.cpp:150] Setting up conv6_2_conv6_2_bn_0_split
I1018 10:13:03.264348  7444 net.cpp:157] Top shape: 32 512 8 12 (1572864)
I1018 10:13:03.265347  7444 net.cpp:157] Top shape: 32 512 8 12 (1572864)
I1018 10:13:03.265347  7444 net.cpp:157] Top shape: 32 512 8 12 (1572864)
I1018 10:13:03.265347  7444 net.cpp:157] Top shape: 32 512 8 12 (1572864)
I1018 10:13:03.265347  7444 net.cpp:165] Memory required for data: 2768240672
I1018 10:13:03.266347  7444 layer_factory.hpp:77] Creating layer conv7_1
I1018 10:13:03.266347  7444 net.cpp:100] Creating Layer conv7_1
I1018 10:13:03.266347  7444 net.cpp:434] conv7_1 <- conv6_2_conv6_2_bn_0_split_0
I1018 10:13:03.266347  7444 net.cpp:408] conv7_1 -> conv7_1
I1018 10:13:03.268347  7444 net.cpp:150] Setting up conv7_1
I1018 10:13:03.268347  7444 net.cpp:157] Top shape: 32 128 8 12 (393216)
I1018 10:13:03.269347  7444 net.cpp:165] Memory required for data: 2769813536
I1018 10:13:03.269347  7444 layer_factory.hpp:77] Creating layer conv7_1_relu
I1018 10:13:03.269347  7444 net.cpp:100] Creating Layer conv7_1_relu
I1018 10:13:03.269347  7444 net.cpp:434] conv7_1_relu <- conv7_1
I1018 10:13:03.270347  7444 net.cpp:395] conv7_1_relu -> conv7_1 (in-place)
I1018 10:13:03.270347  7444 net.cpp:150] Setting up conv7_1_relu
I1018 10:13:03.270347  7444 net.cpp:157] Top shape: 32 128 8 12 (393216)
I1018 10:13:03.271347  7444 net.cpp:165] Memory required for data: 2771386400
I1018 10:13:03.271347  7444 layer_factory.hpp:77] Creating layer conv7_1_bn
I1018 10:13:03.271347  7444 net.cpp:100] Creating Layer conv7_1_bn
I1018 10:13:03.271347  7444 net.cpp:434] conv7_1_bn <- conv7_1
I1018 10:13:03.272347  7444 net.cpp:395] conv7_1_bn -> conv7_1 (in-place)
I1018 10:13:03.272347  7444 net.cpp:150] Setting up conv7_1_bn
I1018 10:13:03.272347  7444 net.cpp:157] Top shape: 32 128 8 12 (393216)
I1018 10:13:03.273347  7444 net.cpp:165] Memory required for data: 2772959264
I1018 10:13:03.273347  7444 layer_factory.hpp:77] Creating layer conv7_2
I1018 10:13:03.273347  7444 net.cpp:100] Creating Layer conv7_2
I1018 10:13:03.273347  7444 net.cpp:434] conv7_2 <- conv7_1
I1018 10:13:03.273347  7444 net.cpp:408] conv7_2 -> conv7_2
I1018 10:13:03.278348  7444 net.cpp:150] Setting up conv7_2
I1018 10:13:03.278348  7444 net.cpp:157] Top shape: 32 256 4 6 (196608)
I1018 10:13:03.278348  7444 net.cpp:165] Memory required for data: 2773745696
I1018 10:13:03.278348  7444 layer_factory.hpp:77] Creating layer conv7_2_relu
I1018 10:13:03.278348  7444 net.cpp:100] Creating Layer conv7_2_relu
I1018 10:13:03.279348  7444 net.cpp:434] conv7_2_relu <- conv7_2
I1018 10:13:03.279348  7444 net.cpp:395] conv7_2_relu -> conv7_2 (in-place)
I1018 10:13:03.279348  7444 net.cpp:150] Setting up conv7_2_relu
I1018 10:13:03.280349  7444 net.cpp:157] Top shape: 32 256 4 6 (196608)
I1018 10:13:03.280349  7444 net.cpp:165] Memory required for data: 2774532128
I1018 10:13:03.280349  7444 layer_factory.hpp:77] Creating layer conv7_2_bn
I1018 10:13:03.281348  7444 net.cpp:100] Creating Layer conv7_2_bn
I1018 10:13:03.281348  7444 net.cpp:434] conv7_2_bn <- conv7_2
I1018 10:13:03.281348  7444 net.cpp:395] conv7_2_bn -> conv7_2 (in-place)
I1018 10:13:03.282348  7444 net.cpp:150] Setting up conv7_2_bn
I1018 10:13:03.282348  7444 net.cpp:157] Top shape: 32 256 4 6 (196608)
I1018 10:13:03.282348  7444 net.cpp:165] Memory required for data: 2775318560
I1018 10:13:03.282348  7444 layer_factory.hpp:77] Creating layer conv7_2_conv7_2_bn_0_split
I1018 10:13:03.282348  7444 net.cpp:100] Creating Layer conv7_2_conv7_2_bn_0_split
I1018 10:13:03.283349  7444 net.cpp:434] conv7_2_conv7_2_bn_0_split <- conv7_2
I1018 10:13:03.283349  7444 net.cpp:408] conv7_2_conv7_2_bn_0_split -> conv7_2_conv7_2_bn_0_split_0
I1018 10:13:03.283349  7444 net.cpp:408] conv7_2_conv7_2_bn_0_split -> conv7_2_conv7_2_bn_0_split_1
I1018 10:13:03.283349  7444 net.cpp:408] conv7_2_conv7_2_bn_0_split -> conv7_2_conv7_2_bn_0_split_2
I1018 10:13:03.283349  7444 net.cpp:408] conv7_2_conv7_2_bn_0_split -> conv7_2_conv7_2_bn_0_split_3
I1018 10:13:03.284348  7444 net.cpp:150] Setting up conv7_2_conv7_2_bn_0_split
I1018 10:13:03.284348  7444 net.cpp:157] Top shape: 32 256 4 6 (196608)
I1018 10:13:03.284348  7444 net.cpp:157] Top shape: 32 256 4 6 (196608)
I1018 10:13:03.285348  7444 net.cpp:157] Top shape: 32 256 4 6 (196608)
I1018 10:13:03.285348  7444 net.cpp:157] Top shape: 32 256 4 6 (196608)
I1018 10:13:03.285348  7444 net.cpp:165] Memory required for data: 2778464288
I1018 10:13:03.285348  7444 layer_factory.hpp:77] Creating layer conv8_1
I1018 10:13:03.285348  7444 net.cpp:100] Creating Layer conv8_1
I1018 10:13:03.286348  7444 net.cpp:434] conv8_1 <- conv7_2_conv7_2_bn_0_split_0
I1018 10:13:03.286348  7444 net.cpp:408] conv8_1 -> conv8_1
I1018 10:13:03.288348  7444 net.cpp:150] Setting up conv8_1
I1018 10:13:03.288348  7444 net.cpp:157] Top shape: 32 128 4 6 (98304)
I1018 10:13:03.288348  7444 net.cpp:165] Memory required for data: 2778857504
I1018 10:13:03.289348  7444 layer_factory.hpp:77] Creating layer conv8_1_relu
I1018 10:13:03.289348  7444 net.cpp:100] Creating Layer conv8_1_relu
I1018 10:13:03.289348  7444 net.cpp:434] conv8_1_relu <- conv8_1
I1018 10:13:03.289348  7444 net.cpp:395] conv8_1_relu -> conv8_1 (in-place)
I1018 10:13:03.290349  7444 net.cpp:150] Setting up conv8_1_relu
I1018 10:13:03.290349  7444 net.cpp:157] Top shape: 32 128 4 6 (98304)
I1018 10:13:03.290349  7444 net.cpp:165] Memory required for data: 2779250720
I1018 10:13:03.290349  7444 layer_factory.hpp:77] Creating layer conv8_1_bn
I1018 10:13:03.291348  7444 net.cpp:100] Creating Layer conv8_1_bn
I1018 10:13:03.291348  7444 net.cpp:434] conv8_1_bn <- conv8_1
I1018 10:13:03.291348  7444 net.cpp:395] conv8_1_bn -> conv8_1 (in-place)
I1018 10:13:03.292348  7444 net.cpp:150] Setting up conv8_1_bn
I1018 10:13:03.292348  7444 net.cpp:157] Top shape: 32 128 4 6 (98304)
I1018 10:13:03.292348  7444 net.cpp:165] Memory required for data: 2779643936
I1018 10:13:03.292348  7444 layer_factory.hpp:77] Creating layer conv8_2
I1018 10:13:03.293349  7444 net.cpp:100] Creating Layer conv8_2
I1018 10:13:03.293349  7444 net.cpp:434] conv8_2 <- conv8_1
I1018 10:13:03.293349  7444 net.cpp:408] conv8_2 -> conv8_2
I1018 10:13:03.297349  7444 net.cpp:150] Setting up conv8_2
I1018 10:13:03.298349  7444 net.cpp:157] Top shape: 32 256 2 3 (49152)
I1018 10:13:03.298349  7444 net.cpp:165] Memory required for data: 2779840544
I1018 10:13:03.298349  7444 layer_factory.hpp:77] Creating layer conv8_2_relu
I1018 10:13:03.298349  7444 net.cpp:100] Creating Layer conv8_2_relu
I1018 10:13:03.299350  7444 net.cpp:434] conv8_2_relu <- conv8_2
I1018 10:13:03.299350  7444 net.cpp:395] conv8_2_relu -> conv8_2 (in-place)
I1018 10:13:03.299350  7444 net.cpp:150] Setting up conv8_2_relu
I1018 10:13:03.300349  7444 net.cpp:157] Top shape: 32 256 2 3 (49152)
I1018 10:13:03.300349  7444 net.cpp:165] Memory required for data: 2780037152
I1018 10:13:03.300349  7444 layer_factory.hpp:77] Creating layer conv8_2_bn
I1018 10:13:03.300349  7444 net.cpp:100] Creating Layer conv8_2_bn
I1018 10:13:03.300349  7444 net.cpp:434] conv8_2_bn <- conv8_2
I1018 10:13:03.301349  7444 net.cpp:395] conv8_2_bn -> conv8_2 (in-place)
I1018 10:13:03.301349  7444 net.cpp:150] Setting up conv8_2_bn
I1018 10:13:03.301349  7444 net.cpp:157] Top shape: 32 256 2 3 (49152)
I1018 10:13:03.302350  7444 net.cpp:165] Memory required for data: 2780233760
I1018 10:13:03.302350  7444 layer_factory.hpp:77] Creating layer conv8_2_conv8_2_bn_0_split
I1018 10:13:03.302350  7444 net.cpp:100] Creating Layer conv8_2_conv8_2_bn_0_split
I1018 10:13:03.302350  7444 net.cpp:434] conv8_2_conv8_2_bn_0_split <- conv8_2
I1018 10:13:03.303349  7444 net.cpp:408] conv8_2_conv8_2_bn_0_split -> conv8_2_conv8_2_bn_0_split_0
I1018 10:13:03.303349  7444 net.cpp:408] conv8_2_conv8_2_bn_0_split -> conv8_2_conv8_2_bn_0_split_1
I1018 10:13:03.303349  7444 net.cpp:408] conv8_2_conv8_2_bn_0_split -> conv8_2_conv8_2_bn_0_split_2
I1018 10:13:03.303349  7444 net.cpp:408] conv8_2_conv8_2_bn_0_split -> conv8_2_conv8_2_bn_0_split_3
I1018 10:13:03.303349  7444 net.cpp:150] Setting up conv8_2_conv8_2_bn_0_split
I1018 10:13:03.304349  7444 net.cpp:157] Top shape: 32 256 2 3 (49152)
I1018 10:13:03.304349  7444 net.cpp:157] Top shape: 32 256 2 3 (49152)
I1018 10:13:03.304349  7444 net.cpp:157] Top shape: 32 256 2 3 (49152)
I1018 10:13:03.304349  7444 net.cpp:157] Top shape: 32 256 2 3 (49152)
I1018 10:13:03.305349  7444 net.cpp:165] Memory required for data: 2781020192
I1018 10:13:03.305349  7444 layer_factory.hpp:77] Creating layer pool6
I1018 10:13:03.305349  7444 net.cpp:100] Creating Layer pool6
I1018 10:13:03.305349  7444 net.cpp:434] pool6 <- conv8_2_conv8_2_bn_0_split_0
I1018 10:13:03.305349  7444 net.cpp:408] pool6 -> pool6
I1018 10:13:03.306349  7444 net.cpp:150] Setting up pool6
I1018 10:13:03.306349  7444 net.cpp:157] Top shape: 32 256 1 1 (8192)
I1018 10:13:03.306349  7444 net.cpp:165] Memory required for data: 2781052960
I1018 10:13:03.307349  7444 layer_factory.hpp:77] Creating layer pool6_pool6_0_split
I1018 10:13:03.307349  7444 net.cpp:100] Creating Layer pool6_pool6_0_split
I1018 10:13:03.307349  7444 net.cpp:434] pool6_pool6_0_split <- pool6
I1018 10:13:03.307349  7444 net.cpp:408] pool6_pool6_0_split -> pool6_pool6_0_split_0
I1018 10:13:03.308349  7444 net.cpp:408] pool6_pool6_0_split -> pool6_pool6_0_split_1
I1018 10:13:03.308349  7444 net.cpp:408] pool6_pool6_0_split -> pool6_pool6_0_split_2
I1018 10:13:03.308349  7444 net.cpp:150] Setting up pool6_pool6_0_split
I1018 10:13:03.308349  7444 net.cpp:157] Top shape: 32 256 1 1 (8192)
I1018 10:13:03.309350  7444 net.cpp:157] Top shape: 32 256 1 1 (8192)
I1018 10:13:03.309350  7444 net.cpp:157] Top shape: 32 256 1 1 (8192)
I1018 10:13:03.309350  7444 net.cpp:165] Memory required for data: 2781151264
I1018 10:13:03.309350  7444 layer_factory.hpp:77] Creating layer conv4_3_norm_1
I1018 10:13:03.309350  7444 net.cpp:100] Creating Layer conv4_3_norm_1
I1018 10:13:03.310350  7444 net.cpp:434] conv4_3_norm_1 <- fire5/concat_fire5/concat_0_split_1
I1018 10:13:03.310350  7444 net.cpp:408] conv4_3_norm_1 -> conv4_3_norm_1
I1018 10:13:03.310350  7444 net.cpp:150] Setting up conv4_3_norm_1
I1018 10:13:03.311350  7444 net.cpp:157] Top shape: 32 256 32 48 (12582912)
I1018 10:13:03.311350  7444 net.cpp:165] Memory required for data: 2831482912
I1018 10:13:03.311350  7444 layer_factory.hpp:77] Creating layer conv4_3_norm_1_conv4_3_norm_1_0_split
I1018 10:13:03.311350  7444 net.cpp:100] Creating Layer conv4_3_norm_1_conv4_3_norm_1_0_split
I1018 10:13:03.312350  7444 net.cpp:434] conv4_3_norm_1_conv4_3_norm_1_0_split <- conv4_3_norm_1
I1018 10:13:03.312350  7444 net.cpp:408] conv4_3_norm_1_conv4_3_norm_1_0_split -> conv4_3_norm_1_conv4_3_norm_1_0_split_0
I1018 10:13:03.312350  7444 net.cpp:408] conv4_3_norm_1_conv4_3_norm_1_0_split -> conv4_3_norm_1_conv4_3_norm_1_0_split_1
I1018 10:13:03.312350  7444 net.cpp:408] conv4_3_norm_1_conv4_3_norm_1_0_split -> conv4_3_norm_1_conv4_3_norm_1_0_split_2
I1018 10:13:03.313350  7444 net.cpp:150] Setting up conv4_3_norm_1_conv4_3_norm_1_0_split
I1018 10:13:03.313350  7444 net.cpp:157] Top shape: 32 256 32 48 (12582912)
I1018 10:13:03.313350  7444 net.cpp:157] Top shape: 32 256 32 48 (12582912)
I1018 10:13:03.313350  7444 net.cpp:157] Top shape: 32 256 32 48 (12582912)
I1018 10:13:03.314350  7444 net.cpp:165] Memory required for data: 2982477856
I1018 10:13:03.314350  7444 layer_factory.hpp:77] Creating layer conv4_3_norm_mbox_loc_1
I1018 10:13:03.314350  7444 net.cpp:100] Creating Layer conv4_3_norm_mbox_loc_1
I1018 10:13:03.315351  7444 net.cpp:434] conv4_3_norm_mbox_loc_1 <- conv4_3_norm_1_conv4_3_norm_1_0_split_0
I1018 10:13:03.315351  7444 net.cpp:408] conv4_3_norm_mbox_loc_1 -> conv4_3_norm_mbox_loc_1
I1018 10:13:03.317350  7444 net.cpp:150] Setting up conv4_3_norm_mbox_loc_1
I1018 10:13:03.317350  7444 net.cpp:157] Top shape: 32 24 32 48 (1179648)
I1018 10:13:03.317350  7444 net.cpp:165] Memory required for data: 2987196448
I1018 10:13:03.317350  7444 layer_factory.hpp:77] Creating layer conv4_3_norm_mbox_loc_perm_1
I1018 10:13:03.318351  7444 net.cpp:100] Creating Layer conv4_3_norm_mbox_loc_perm_1
I1018 10:13:03.318351  7444 net.cpp:434] conv4_3_norm_mbox_loc_perm_1 <- conv4_3_norm_mbox_loc_1
I1018 10:13:03.318351  7444 net.cpp:408] conv4_3_norm_mbox_loc_perm_1 -> conv4_3_norm_mbox_loc_perm_1
I1018 10:13:03.319350  7444 net.cpp:150] Setting up conv4_3_norm_mbox_loc_perm_1
I1018 10:13:03.319350  7444 net.cpp:157] Top shape: 32 32 48 24 (1179648)
I1018 10:13:03.319350  7444 net.cpp:165] Memory required for data: 2991915040
I1018 10:13:03.319350  7444 layer_factory.hpp:77] Creating layer conv4_3_norm_mbox_loc_flat_1
I1018 10:13:03.319350  7444 net.cpp:100] Creating Layer conv4_3_norm_mbox_loc_flat_1
I1018 10:13:03.320350  7444 net.cpp:434] conv4_3_norm_mbox_loc_flat_1 <- conv4_3_norm_mbox_loc_perm_1
I1018 10:13:03.320350  7444 net.cpp:408] conv4_3_norm_mbox_loc_flat_1 -> conv4_3_norm_mbox_loc_flat_1
I1018 10:13:03.320350  7444 net.cpp:150] Setting up conv4_3_norm_mbox_loc_flat_1
I1018 10:13:03.320350  7444 net.cpp:157] Top shape: 32 36864 (1179648)
I1018 10:13:03.321350  7444 net.cpp:165] Memory required for data: 2996633632
I1018 10:13:03.321350  7444 layer_factory.hpp:77] Creating layer conv4_3_norm_mbox_conf_0
I1018 10:13:03.321350  7444 net.cpp:100] Creating Layer conv4_3_norm_mbox_conf_0
I1018 10:13:03.321350  7444 net.cpp:434] conv4_3_norm_mbox_conf_0 <- conv4_3_norm_1_conv4_3_norm_1_0_split_1
I1018 10:13:03.321350  7444 net.cpp:408] conv4_3_norm_mbox_conf_0 -> conv4_3_norm_mbox_conf_0
I1018 10:13:03.323350  7444 net.cpp:150] Setting up conv4_3_norm_mbox_conf_0
I1018 10:13:03.323350  7444 net.cpp:157] Top shape: 32 64 32 48 (3145728)
I1018 10:13:03.323350  7444 net.cpp:165] Memory required for data: 3009216544
I1018 10:13:03.324350  7444 layer_factory.hpp:77] Creating layer conv4_3_norm_mbox_conf_0_relu
I1018 10:13:03.324350  7444 net.cpp:100] Creating Layer conv4_3_norm_mbox_conf_0_relu
I1018 10:13:03.324350  7444 net.cpp:434] conv4_3_norm_mbox_conf_0_relu <- conv4_3_norm_mbox_conf_0
I1018 10:13:03.324350  7444 net.cpp:395] conv4_3_norm_mbox_conf_0_relu -> conv4_3_norm_mbox_conf_0 (in-place)
I1018 10:13:03.325350  7444 net.cpp:150] Setting up conv4_3_norm_mbox_conf_0_relu
I1018 10:13:03.325350  7444 net.cpp:157] Top shape: 32 64 32 48 (3145728)
I1018 10:13:03.325350  7444 net.cpp:165] Memory required for data: 3021799456
I1018 10:13:03.326350  7444 layer_factory.hpp:77] Creating layer conv4_3_norm_mbox_conf_0_bn
I1018 10:13:03.326350  7444 net.cpp:100] Creating Layer conv4_3_norm_mbox_conf_0_bn
I1018 10:13:03.326350  7444 net.cpp:434] conv4_3_norm_mbox_conf_0_bn <- conv4_3_norm_mbox_conf_0
I1018 10:13:03.326350  7444 net.cpp:395] conv4_3_norm_mbox_conf_0_bn -> conv4_3_norm_mbox_conf_0 (in-place)
I1018 10:13:03.327350  7444 net.cpp:150] Setting up conv4_3_norm_mbox_conf_0_bn
I1018 10:13:03.327350  7444 net.cpp:157] Top shape: 32 64 32 48 (3145728)
I1018 10:13:03.327350  7444 net.cpp:165] Memory required for data: 3034382368
I1018 10:13:03.327350  7444 layer_factory.hpp:77] Creating layer conv4_3_norm_mbox_conf_2
I1018 10:13:03.328351  7444 net.cpp:100] Creating Layer conv4_3_norm_mbox_conf_2
I1018 10:13:03.328351  7444 net.cpp:434] conv4_3_norm_mbox_conf_2 <- conv4_3_norm_mbox_conf_0
I1018 10:13:03.328351  7444 net.cpp:408] conv4_3_norm_mbox_conf_2 -> conv4_3_norm_mbox_conf_2
I1018 10:13:03.330351  7444 net.cpp:150] Setting up conv4_3_norm_mbox_conf_2
I1018 10:13:03.330351  7444 net.cpp:157] Top shape: 32 64 32 48 (3145728)
I1018 10:13:03.330351  7444 net.cpp:165] Memory required for data: 3046965280
I1018 10:13:03.331351  7444 layer_factory.hpp:77] Creating layer conv4_3_norm_mbox_conf_2_relu
I1018 10:13:03.331351  7444 net.cpp:100] Creating Layer conv4_3_norm_mbox_conf_2_relu
I1018 10:13:03.331351  7444 net.cpp:434] conv4_3_norm_mbox_conf_2_relu <- conv4_3_norm_mbox_conf_2
I1018 10:13:03.331351  7444 net.cpp:395] conv4_3_norm_mbox_conf_2_relu -> conv4_3_norm_mbox_conf_2 (in-place)
I1018 10:13:03.332351  7444 net.cpp:150] Setting up conv4_3_norm_mbox_conf_2_relu
I1018 10:13:03.332351  7444 net.cpp:157] Top shape: 32 64 32 48 (3145728)
I1018 10:13:03.332351  7444 net.cpp:165] Memory required for data: 3059548192
I1018 10:13:03.333351  7444 layer_factory.hpp:77] Creating layer conv4_3_norm_mbox_conf_2_bn
I1018 10:13:03.333351  7444 net.cpp:100] Creating Layer conv4_3_norm_mbox_conf_2_bn
I1018 10:13:03.333351  7444 net.cpp:434] conv4_3_norm_mbox_conf_2_bn <- conv4_3_norm_mbox_conf_2
I1018 10:13:03.333351  7444 net.cpp:395] conv4_3_norm_mbox_conf_2_bn -> conv4_3_norm_mbox_conf_2 (in-place)
I1018 10:13:03.334352  7444 net.cpp:150] Setting up conv4_3_norm_mbox_conf_2_bn
I1018 10:13:03.334352  7444 net.cpp:157] Top shape: 32 64 32 48 (3145728)
I1018 10:13:03.334352  7444 net.cpp:165] Memory required for data: 3072131104
I1018 10:13:03.335351  7444 layer_factory.hpp:77] Creating layer conv4_3_norm_mbox_conf_3
I1018 10:13:03.335351  7444 net.cpp:100] Creating Layer conv4_3_norm_mbox_conf_3
I1018 10:13:03.335351  7444 net.cpp:434] conv4_3_norm_mbox_conf_3 <- conv4_3_norm_mbox_conf_2
I1018 10:13:03.335351  7444 net.cpp:408] conv4_3_norm_mbox_conf_3 -> conv4_3_norm_mbox_conf_3
I1018 10:13:03.337352  7444 net.cpp:150] Setting up conv4_3_norm_mbox_conf_3
I1018 10:13:03.337352  7444 net.cpp:157] Top shape: 32 12 32 48 (589824)
I1018 10:13:03.337352  7444 net.cpp:165] Memory required for data: 3074490400
I1018 10:13:03.337352  7444 layer_factory.hpp:77] Creating layer conv4_3_norm_mbox_conf_perm_1
I1018 10:13:03.338351  7444 net.cpp:100] Creating Layer conv4_3_norm_mbox_conf_perm_1
I1018 10:13:03.338351  7444 net.cpp:434] conv4_3_norm_mbox_conf_perm_1 <- conv4_3_norm_mbox_conf_3
I1018 10:13:03.338351  7444 net.cpp:408] conv4_3_norm_mbox_conf_perm_1 -> conv4_3_norm_mbox_conf_perm_1
I1018 10:13:03.338351  7444 net.cpp:150] Setting up conv4_3_norm_mbox_conf_perm_1
I1018 10:13:03.339351  7444 net.cpp:157] Top shape: 32 32 48 12 (589824)
I1018 10:13:03.339351  7444 net.cpp:165] Memory required for data: 3076849696
I1018 10:13:03.339351  7444 layer_factory.hpp:77] Creating layer conv4_3_norm_mbox_conf_flat_1
I1018 10:13:03.339351  7444 net.cpp:100] Creating Layer conv4_3_norm_mbox_conf_flat_1
I1018 10:13:03.340351  7444 net.cpp:434] conv4_3_norm_mbox_conf_flat_1 <- conv4_3_norm_mbox_conf_perm_1
I1018 10:13:03.340351  7444 net.cpp:408] conv4_3_norm_mbox_conf_flat_1 -> conv4_3_norm_mbox_conf_flat_1
I1018 10:13:03.340351  7444 net.cpp:150] Setting up conv4_3_norm_mbox_conf_flat_1
I1018 10:13:03.340351  7444 net.cpp:157] Top shape: 32 18432 (589824)
I1018 10:13:03.341351  7444 net.cpp:165] Memory required for data: 3079208992
I1018 10:13:03.341351  7444 layer_factory.hpp:77] Creating layer conv4_3_norm_mbox_priorbox_1
I1018 10:13:03.341351  7444 net.cpp:100] Creating Layer conv4_3_norm_mbox_priorbox_1
I1018 10:13:03.341351  7444 net.cpp:434] conv4_3_norm_mbox_priorbox_1 <- conv4_3_norm_1_conv4_3_norm_1_0_split_2
I1018 10:13:03.341351  7444 net.cpp:434] conv4_3_norm_mbox_priorbox_1 <- data_data_0_split_1
I1018 10:13:03.342351  7444 net.cpp:408] conv4_3_norm_mbox_priorbox_1 -> conv4_3_norm_mbox_priorbox_1
I1018 10:13:03.342351  7444 net.cpp:150] Setting up conv4_3_norm_mbox_priorbox_1
I1018 10:13:03.342351  7444 net.cpp:157] Top shape: 1 2 36864 (73728)
I1018 10:13:03.343351  7444 net.cpp:165] Memory required for data: 3079503904
I1018 10:13:03.343351  7444 layer_factory.hpp:77] Creating layer fc7_mbox_loc_1
I1018 10:13:03.343351  7444 net.cpp:100] Creating Layer fc7_mbox_loc_1
I1018 10:13:03.343351  7444 net.cpp:434] fc7_mbox_loc_1 <- fire9/concat_fire9/concat_bn_0_split_1
I1018 10:13:03.344352  7444 net.cpp:408] fc7_mbox_loc_1 -> fc7_mbox_loc_1
I1018 10:13:03.346352  7444 net.cpp:150] Setting up fc7_mbox_loc_1
I1018 10:13:03.346352  7444 net.cpp:157] Top shape: 32 24 16 24 (294912)
I1018 10:13:03.346352  7444 net.cpp:165] Memory required for data: 3080683552
I1018 10:13:03.347352  7444 layer_factory.hpp:77] Creating layer fc7_mbox_loc_perm_1
I1018 10:13:03.347352  7444 net.cpp:100] Creating Layer fc7_mbox_loc_perm_1
I1018 10:13:03.347352  7444 net.cpp:434] fc7_mbox_loc_perm_1 <- fc7_mbox_loc_1
I1018 10:13:03.347352  7444 net.cpp:408] fc7_mbox_loc_perm_1 -> fc7_mbox_loc_perm_1
I1018 10:13:03.348352  7444 net.cpp:150] Setting up fc7_mbox_loc_perm_1
I1018 10:13:03.348352  7444 net.cpp:157] Top shape: 32 16 24 24 (294912)
I1018 10:13:03.348352  7444 net.cpp:165] Memory required for data: 3081863200
I1018 10:13:03.348352  7444 layer_factory.hpp:77] Creating layer fc7_mbox_loc_flat_1
I1018 10:13:03.348352  7444 net.cpp:100] Creating Layer fc7_mbox_loc_flat_1
I1018 10:13:03.349352  7444 net.cpp:434] fc7_mbox_loc_flat_1 <- fc7_mbox_loc_perm_1
I1018 10:13:03.349352  7444 net.cpp:408] fc7_mbox_loc_flat_1 -> fc7_mbox_loc_flat_1
I1018 10:13:03.349352  7444 net.cpp:150] Setting up fc7_mbox_loc_flat_1
I1018 10:13:03.349352  7444 net.cpp:157] Top shape: 32 9216 (294912)
I1018 10:13:03.349352  7444 net.cpp:165] Memory required for data: 3083042848
I1018 10:13:03.350353  7444 layer_factory.hpp:77] Creating layer fc7_mbox_conf_0
I1018 10:13:03.350353  7444 net.cpp:100] Creating Layer fc7_mbox_conf_0
I1018 10:13:03.350353  7444 net.cpp:434] fc7_mbox_conf_0 <- fire9/concat_fire9/concat_bn_0_split_2
I1018 10:13:03.350353  7444 net.cpp:408] fc7_mbox_conf_0 -> fc7_mbox_conf_0
I1018 10:13:03.352352  7444 net.cpp:150] Setting up fc7_mbox_conf_0
I1018 10:13:03.352352  7444 net.cpp:157] Top shape: 32 64 16 24 (786432)
I1018 10:13:03.353353  7444 net.cpp:165] Memory required for data: 3086188576
I1018 10:13:03.353353  7444 layer_factory.hpp:77] Creating layer fc7_mbox_conf_0_relu
I1018 10:13:03.353353  7444 net.cpp:100] Creating Layer fc7_mbox_conf_0_relu
I1018 10:13:03.353353  7444 net.cpp:434] fc7_mbox_conf_0_relu <- fc7_mbox_conf_0
I1018 10:13:03.353353  7444 net.cpp:395] fc7_mbox_conf_0_relu -> fc7_mbox_conf_0 (in-place)
I1018 10:13:03.354352  7444 net.cpp:150] Setting up fc7_mbox_conf_0_relu
I1018 10:13:03.354352  7444 net.cpp:157] Top shape: 32 64 16 24 (786432)
I1018 10:13:03.355352  7444 net.cpp:165] Memory required for data: 3089334304
I1018 10:13:03.355352  7444 layer_factory.hpp:77] Creating layer fc7_mbox_conf_0_bn
I1018 10:13:03.355352  7444 net.cpp:100] Creating Layer fc7_mbox_conf_0_bn
I1018 10:13:03.355352  7444 net.cpp:434] fc7_mbox_conf_0_bn <- fc7_mbox_conf_0
I1018 10:13:03.356353  7444 net.cpp:395] fc7_mbox_conf_0_bn -> fc7_mbox_conf_0 (in-place)
I1018 10:13:03.356353  7444 net.cpp:150] Setting up fc7_mbox_conf_0_bn
I1018 10:13:03.357352  7444 net.cpp:157] Top shape: 32 64 16 24 (786432)
I1018 10:13:03.357352  7444 net.cpp:165] Memory required for data: 3092480032
I1018 10:13:03.357352  7444 layer_factory.hpp:77] Creating layer fc7_mbox_conf_2
I1018 10:13:03.357352  7444 net.cpp:100] Creating Layer fc7_mbox_conf_2
I1018 10:13:03.357352  7444 net.cpp:434] fc7_mbox_conf_2 <- fc7_mbox_conf_0
I1018 10:13:03.358352  7444 net.cpp:408] fc7_mbox_conf_2 -> fc7_mbox_conf_2
I1018 10:13:03.359352  7444 net.cpp:150] Setting up fc7_mbox_conf_2
I1018 10:13:03.360352  7444 net.cpp:157] Top shape: 32 64 16 24 (786432)
I1018 10:13:03.360352  7444 net.cpp:165] Memory required for data: 3095625760
I1018 10:13:03.360352  7444 layer_factory.hpp:77] Creating layer fc7_mbox_conf_2_relu
I1018 10:13:03.360352  7444 net.cpp:100] Creating Layer fc7_mbox_conf_2_relu
I1018 10:13:03.360352  7444 net.cpp:434] fc7_mbox_conf_2_relu <- fc7_mbox_conf_2
I1018 10:13:03.361352  7444 net.cpp:395] fc7_mbox_conf_2_relu -> fc7_mbox_conf_2 (in-place)
I1018 10:13:03.361352  7444 net.cpp:150] Setting up fc7_mbox_conf_2_relu
I1018 10:13:03.362352  7444 net.cpp:157] Top shape: 32 64 16 24 (786432)
I1018 10:13:03.362352  7444 net.cpp:165] Memory required for data: 3098771488
I1018 10:13:03.362352  7444 layer_factory.hpp:77] Creating layer fc7_mbox_conf_2_bn
I1018 10:13:03.362352  7444 net.cpp:100] Creating Layer fc7_mbox_conf_2_bn
I1018 10:13:03.362352  7444 net.cpp:434] fc7_mbox_conf_2_bn <- fc7_mbox_conf_2
I1018 10:13:03.363353  7444 net.cpp:395] fc7_mbox_conf_2_bn -> fc7_mbox_conf_2 (in-place)
I1018 10:13:03.363353  7444 net.cpp:150] Setting up fc7_mbox_conf_2_bn
I1018 10:13:03.363353  7444 net.cpp:157] Top shape: 32 64 16 24 (786432)
I1018 10:13:03.364353  7444 net.cpp:165] Memory required for data: 3101917216
I1018 10:13:03.364353  7444 layer_factory.hpp:77] Creating layer fc7_mbox_conf_3
I1018 10:13:03.364353  7444 net.cpp:100] Creating Layer fc7_mbox_conf_3
I1018 10:13:03.364353  7444 net.cpp:434] fc7_mbox_conf_3 <- fc7_mbox_conf_2
I1018 10:13:03.365353  7444 net.cpp:408] fc7_mbox_conf_3 -> fc7_mbox_conf_3
I1018 10:13:03.366353  7444 net.cpp:150] Setting up fc7_mbox_conf_3
I1018 10:13:03.366353  7444 net.cpp:157] Top shape: 32 12 16 24 (147456)
I1018 10:13:03.367353  7444 net.cpp:165] Memory required for data: 3102507040
I1018 10:13:03.367353  7444 layer_factory.hpp:77] Creating layer fc7_mbox_conf_perm_1
I1018 10:13:03.367353  7444 net.cpp:100] Creating Layer fc7_mbox_conf_perm_1
I1018 10:13:03.367353  7444 net.cpp:434] fc7_mbox_conf_perm_1 <- fc7_mbox_conf_3
I1018 10:13:03.368353  7444 net.cpp:408] fc7_mbox_conf_perm_1 -> fc7_mbox_conf_perm_1
I1018 10:13:03.368353  7444 net.cpp:150] Setting up fc7_mbox_conf_perm_1
I1018 10:13:03.368353  7444 net.cpp:157] Top shape: 32 16 24 12 (147456)
I1018 10:13:03.369354  7444 net.cpp:165] Memory required for data: 3103096864
I1018 10:13:03.369354  7444 layer_factory.hpp:77] Creating layer fc7_mbox_conf_flat_1
I1018 10:13:03.369354  7444 net.cpp:100] Creating Layer fc7_mbox_conf_flat_1
I1018 10:13:03.369354  7444 net.cpp:434] fc7_mbox_conf_flat_1 <- fc7_mbox_conf_perm_1
I1018 10:13:03.370353  7444 net.cpp:408] fc7_mbox_conf_flat_1 -> fc7_mbox_conf_flat_1
I1018 10:13:03.370353  7444 net.cpp:150] Setting up fc7_mbox_conf_flat_1
I1018 10:13:03.370353  7444 net.cpp:157] Top shape: 32 4608 (147456)
I1018 10:13:03.370353  7444 net.cpp:165] Memory required for data: 3103686688
I1018 10:13:03.371353  7444 layer_factory.hpp:77] Creating layer fc7_mbox_priorbox_1
I1018 10:13:03.371353  7444 net.cpp:100] Creating Layer fc7_mbox_priorbox_1
I1018 10:13:03.371353  7444 net.cpp:434] fc7_mbox_priorbox_1 <- fire9/concat_fire9/concat_bn_0_split_3
I1018 10:13:03.371353  7444 net.cpp:434] fc7_mbox_priorbox_1 <- data_data_0_split_2
I1018 10:13:03.372354  7444 net.cpp:408] fc7_mbox_priorbox_1 -> fc7_mbox_priorbox_1
I1018 10:13:03.372354  7444 net.cpp:150] Setting up fc7_mbox_priorbox_1
I1018 10:13:03.372354  7444 net.cpp:157] Top shape: 1 2 9216 (18432)
I1018 10:13:03.372354  7444 net.cpp:165] Memory required for data: 3103760416
I1018 10:13:03.372354  7444 layer_factory.hpp:77] Creating layer conv6_2_mbox_loc_1
I1018 10:13:03.373353  7444 net.cpp:100] Creating Layer conv6_2_mbox_loc_1
I1018 10:13:03.373353  7444 net.cpp:434] conv6_2_mbox_loc_1 <- conv6_2_conv6_2_bn_0_split_1
I1018 10:13:03.373353  7444 net.cpp:408] conv6_2_mbox_loc_1 -> conv6_2_mbox_loc_1
I1018 10:13:03.375353  7444 net.cpp:150] Setting up conv6_2_mbox_loc_1
I1018 10:13:03.376353  7444 net.cpp:157] Top shape: 32 24 8 12 (73728)
I1018 10:13:03.376353  7444 net.cpp:165] Memory required for data: 3104055328
I1018 10:13:03.376353  7444 layer_factory.hpp:77] Creating layer conv6_2_mbox_loc_perm_1
I1018 10:13:03.376353  7444 net.cpp:100] Creating Layer conv6_2_mbox_loc_perm_1
I1018 10:13:03.377353  7444 net.cpp:434] conv6_2_mbox_loc_perm_1 <- conv6_2_mbox_loc_1
I1018 10:13:03.377353  7444 net.cpp:408] conv6_2_mbox_loc_perm_1 -> conv6_2_mbox_loc_perm_1
I1018 10:13:03.377353  7444 net.cpp:150] Setting up conv6_2_mbox_loc_perm_1
I1018 10:13:03.377353  7444 net.cpp:157] Top shape: 32 8 12 24 (73728)
I1018 10:13:03.378353  7444 net.cpp:165] Memory required for data: 3104350240
I1018 10:13:03.378353  7444 layer_factory.hpp:77] Creating layer conv6_2_mbox_loc_flat_1
I1018 10:13:03.378353  7444 net.cpp:100] Creating Layer conv6_2_mbox_loc_flat_1
I1018 10:13:03.378353  7444 net.cpp:434] conv6_2_mbox_loc_flat_1 <- conv6_2_mbox_loc_perm_1
I1018 10:13:03.379354  7444 net.cpp:408] conv6_2_mbox_loc_flat_1 -> conv6_2_mbox_loc_flat_1
I1018 10:13:03.379354  7444 net.cpp:150] Setting up conv6_2_mbox_loc_flat_1
I1018 10:13:03.379354  7444 net.cpp:157] Top shape: 32 2304 (73728)
I1018 10:13:03.379354  7444 net.cpp:165] Memory required for data: 3104645152
I1018 10:13:03.379354  7444 layer_factory.hpp:77] Creating layer conv6_2_mbox_conf_0
I1018 10:13:03.380354  7444 net.cpp:100] Creating Layer conv6_2_mbox_conf_0
I1018 10:13:03.380354  7444 net.cpp:434] conv6_2_mbox_conf_0 <- conv6_2_conv6_2_bn_0_split_2
I1018 10:13:03.380354  7444 net.cpp:408] conv6_2_mbox_conf_0 -> conv6_2_mbox_conf_0
I1018 10:13:03.382354  7444 net.cpp:150] Setting up conv6_2_mbox_conf_0
I1018 10:13:03.382354  7444 net.cpp:157] Top shape: 32 64 8 12 (196608)
I1018 10:13:03.382354  7444 net.cpp:165] Memory required for data: 3105431584
I1018 10:13:03.382354  7444 layer_factory.hpp:77] Creating layer conv6_2_mbox_conf_0_relu
I1018 10:13:03.382354  7444 net.cpp:100] Creating Layer conv6_2_mbox_conf_0_relu
I1018 10:13:03.383354  7444 net.cpp:434] conv6_2_mbox_conf_0_relu <- conv6_2_mbox_conf_0
I1018 10:13:03.383354  7444 net.cpp:395] conv6_2_mbox_conf_0_relu -> conv6_2_mbox_conf_0 (in-place)
I1018 10:13:03.383354  7444 net.cpp:150] Setting up conv6_2_mbox_conf_0_relu
I1018 10:13:03.384354  7444 net.cpp:157] Top shape: 32 64 8 12 (196608)
I1018 10:13:03.384354  7444 net.cpp:165] Memory required for data: 3106218016
I1018 10:13:03.384354  7444 layer_factory.hpp:77] Creating layer conv6_2_mbox_conf_0_bn
I1018 10:13:03.384354  7444 net.cpp:100] Creating Layer conv6_2_mbox_conf_0_bn
I1018 10:13:03.385354  7444 net.cpp:434] conv6_2_mbox_conf_0_bn <- conv6_2_mbox_conf_0
I1018 10:13:03.385354  7444 net.cpp:395] conv6_2_mbox_conf_0_bn -> conv6_2_mbox_conf_0 (in-place)
I1018 10:13:03.385354  7444 net.cpp:150] Setting up conv6_2_mbox_conf_0_bn
I1018 10:13:03.386354  7444 net.cpp:157] Top shape: 32 64 8 12 (196608)
I1018 10:13:03.386354  7444 net.cpp:165] Memory required for data: 3107004448
I1018 10:13:03.386354  7444 layer_factory.hpp:77] Creating layer conv6_2_mbox_conf_2
I1018 10:13:03.386354  7444 net.cpp:100] Creating Layer conv6_2_mbox_conf_2
I1018 10:13:03.386354  7444 net.cpp:434] conv6_2_mbox_conf_2 <- conv6_2_mbox_conf_0
I1018 10:13:03.387354  7444 net.cpp:408] conv6_2_mbox_conf_2 -> conv6_2_mbox_conf_2
I1018 10:13:03.389354  7444 net.cpp:150] Setting up conv6_2_mbox_conf_2
I1018 10:13:03.389354  7444 net.cpp:157] Top shape: 32 64 8 12 (196608)
I1018 10:13:03.389354  7444 net.cpp:165] Memory required for data: 3107790880
I1018 10:13:03.390354  7444 layer_factory.hpp:77] Creating layer conv6_2_mbox_conf_2_relu
I1018 10:13:03.390354  7444 net.cpp:100] Creating Layer conv6_2_mbox_conf_2_relu
I1018 10:13:03.390354  7444 net.cpp:434] conv6_2_mbox_conf_2_relu <- conv6_2_mbox_conf_2
I1018 10:13:03.390354  7444 net.cpp:395] conv6_2_mbox_conf_2_relu -> conv6_2_mbox_conf_2 (in-place)
I1018 10:13:03.391355  7444 net.cpp:150] Setting up conv6_2_mbox_conf_2_relu
I1018 10:13:03.391355  7444 net.cpp:157] Top shape: 32 64 8 12 (196608)
I1018 10:13:03.391355  7444 net.cpp:165] Memory required for data: 3108577312
I1018 10:13:03.392354  7444 layer_factory.hpp:77] Creating layer conv6_2_mbox_conf_2_bn
I1018 10:13:03.392354  7444 net.cpp:100] Creating Layer conv6_2_mbox_conf_2_bn
I1018 10:13:03.392354  7444 net.cpp:434] conv6_2_mbox_conf_2_bn <- conv6_2_mbox_conf_2
I1018 10:13:03.392354  7444 net.cpp:395] conv6_2_mbox_conf_2_bn -> conv6_2_mbox_conf_2 (in-place)
I1018 10:13:03.393354  7444 net.cpp:150] Setting up conv6_2_mbox_conf_2_bn
I1018 10:13:03.393354  7444 net.cpp:157] Top shape: 32 64 8 12 (196608)
I1018 10:13:03.393354  7444 net.cpp:165] Memory required for data: 3109363744
I1018 10:13:03.393354  7444 layer_factory.hpp:77] Creating layer conv6_2_mbox_conf_3
I1018 10:13:03.394354  7444 net.cpp:100] Creating Layer conv6_2_mbox_conf_3
I1018 10:13:03.394354  7444 net.cpp:434] conv6_2_mbox_conf_3 <- conv6_2_mbox_conf_2
I1018 10:13:03.394354  7444 net.cpp:408] conv6_2_mbox_conf_3 -> conv6_2_mbox_conf_3
I1018 10:13:03.396354  7444 net.cpp:150] Setting up conv6_2_mbox_conf_3
I1018 10:13:03.396354  7444 net.cpp:157] Top shape: 32 12 8 12 (36864)
I1018 10:13:03.396354  7444 net.cpp:165] Memory required for data: 3109511200
I1018 10:13:03.396354  7444 layer_factory.hpp:77] Creating layer conv6_2_mbox_conf_perm_1
I1018 10:13:03.397354  7444 net.cpp:100] Creating Layer conv6_2_mbox_conf_perm_1
I1018 10:13:03.397354  7444 net.cpp:434] conv6_2_mbox_conf_perm_1 <- conv6_2_mbox_conf_3
I1018 10:13:03.397354  7444 net.cpp:408] conv6_2_mbox_conf_perm_1 -> conv6_2_mbox_conf_perm_1
I1018 10:13:03.398355  7444 net.cpp:150] Setting up conv6_2_mbox_conf_perm_1
I1018 10:13:03.398355  7444 net.cpp:157] Top shape: 32 8 12 12 (36864)
I1018 10:13:03.398355  7444 net.cpp:165] Memory required for data: 3109658656
I1018 10:13:03.398355  7444 layer_factory.hpp:77] Creating layer conv6_2_mbox_conf_flat_1
I1018 10:13:03.398355  7444 net.cpp:100] Creating Layer conv6_2_mbox_conf_flat_1
I1018 10:13:03.399355  7444 net.cpp:434] conv6_2_mbox_conf_flat_1 <- conv6_2_mbox_conf_perm_1
I1018 10:13:03.399355  7444 net.cpp:408] conv6_2_mbox_conf_flat_1 -> conv6_2_mbox_conf_flat_1
I1018 10:13:03.399355  7444 net.cpp:150] Setting up conv6_2_mbox_conf_flat_1
I1018 10:13:03.399355  7444 net.cpp:157] Top shape: 32 1152 (36864)
I1018 10:13:03.400355  7444 net.cpp:165] Memory required for data: 3109806112
I1018 10:13:03.400355  7444 layer_factory.hpp:77] Creating layer conv6_2_mbox_priorbox_1
I1018 10:13:03.400355  7444 net.cpp:100] Creating Layer conv6_2_mbox_priorbox_1
I1018 10:13:03.400355  7444 net.cpp:434] conv6_2_mbox_priorbox_1 <- conv6_2_conv6_2_bn_0_split_3
I1018 10:13:03.401355  7444 net.cpp:434] conv6_2_mbox_priorbox_1 <- data_data_0_split_3
I1018 10:13:03.401355  7444 net.cpp:408] conv6_2_mbox_priorbox_1 -> conv6_2_mbox_priorbox_1
I1018 10:13:03.401355  7444 net.cpp:150] Setting up conv6_2_mbox_priorbox_1
I1018 10:13:03.401355  7444 net.cpp:157] Top shape: 1 2 2304 (4608)
I1018 10:13:03.402355  7444 net.cpp:165] Memory required for data: 3109824544
I1018 10:13:03.402355  7444 layer_factory.hpp:77] Creating layer conv7_2_mbox_loc_1
I1018 10:13:03.402355  7444 net.cpp:100] Creating Layer conv7_2_mbox_loc_1
I1018 10:13:03.402355  7444 net.cpp:434] conv7_2_mbox_loc_1 <- conv7_2_conv7_2_bn_0_split_1
I1018 10:13:03.402355  7444 net.cpp:408] conv7_2_mbox_loc_1 -> conv7_2_mbox_loc_1
I1018 10:13:03.404356  7444 net.cpp:150] Setting up conv7_2_mbox_loc_1
I1018 10:13:03.404356  7444 net.cpp:157] Top shape: 32 24 4 6 (18432)
I1018 10:13:03.405355  7444 net.cpp:165] Memory required for data: 3109898272
I1018 10:13:03.405355  7444 layer_factory.hpp:77] Creating layer conv7_2_mbox_loc_perm_1
I1018 10:13:03.405355  7444 net.cpp:100] Creating Layer conv7_2_mbox_loc_perm_1
I1018 10:13:03.405355  7444 net.cpp:434] conv7_2_mbox_loc_perm_1 <- conv7_2_mbox_loc_1
I1018 10:13:03.405355  7444 net.cpp:408] conv7_2_mbox_loc_perm_1 -> conv7_2_mbox_loc_perm_1
I1018 10:13:03.406355  7444 net.cpp:150] Setting up conv7_2_mbox_loc_perm_1
I1018 10:13:03.406355  7444 net.cpp:157] Top shape: 32 4 6 24 (18432)
I1018 10:13:03.406355  7444 net.cpp:165] Memory required for data: 3109972000
I1018 10:13:03.407356  7444 layer_factory.hpp:77] Creating layer conv7_2_mbox_loc_flat_1
I1018 10:13:03.407356  7444 net.cpp:100] Creating Layer conv7_2_mbox_loc_flat_1
I1018 10:13:03.407356  7444 net.cpp:434] conv7_2_mbox_loc_flat_1 <- conv7_2_mbox_loc_perm_1
I1018 10:13:03.407356  7444 net.cpp:408] conv7_2_mbox_loc_flat_1 -> conv7_2_mbox_loc_flat_1
I1018 10:13:03.408355  7444 net.cpp:150] Setting up conv7_2_mbox_loc_flat_1
I1018 10:13:03.408355  7444 net.cpp:157] Top shape: 32 576 (18432)
I1018 10:13:03.408355  7444 net.cpp:165] Memory required for data: 3110045728
I1018 10:13:03.408355  7444 layer_factory.hpp:77] Creating layer conv7_2_mbox_conf_0
I1018 10:13:03.409355  7444 net.cpp:100] Creating Layer conv7_2_mbox_conf_0
I1018 10:13:03.409355  7444 net.cpp:434] conv7_2_mbox_conf_0 <- conv7_2_conv7_2_bn_0_split_2
I1018 10:13:03.409355  7444 net.cpp:408] conv7_2_mbox_conf_0 -> conv7_2_mbox_conf_0
I1018 10:13:03.410356  7444 net.cpp:150] Setting up conv7_2_mbox_conf_0
I1018 10:13:03.411355  7444 net.cpp:157] Top shape: 32 64 4 6 (49152)
I1018 10:13:03.411355  7444 net.cpp:165] Memory required for data: 3110242336
I1018 10:13:03.411355  7444 layer_factory.hpp:77] Creating layer conv7_2_mbox_conf_0_relu
I1018 10:13:03.411355  7444 net.cpp:100] Creating Layer conv7_2_mbox_conf_0_relu
I1018 10:13:03.412355  7444 net.cpp:434] conv7_2_mbox_conf_0_relu <- conv7_2_mbox_conf_0
I1018 10:13:03.412355  7444 net.cpp:395] conv7_2_mbox_conf_0_relu -> conv7_2_mbox_conf_0 (in-place)
I1018 10:13:03.412355  7444 net.cpp:150] Setting up conv7_2_mbox_conf_0_relu
I1018 10:13:03.413355  7444 net.cpp:157] Top shape: 32 64 4 6 (49152)
I1018 10:13:03.413355  7444 net.cpp:165] Memory required for data: 3110438944
I1018 10:13:03.413355  7444 layer_factory.hpp:77] Creating layer conv7_2_mbox_conf_0_bn
I1018 10:13:03.413355  7444 net.cpp:100] Creating Layer conv7_2_mbox_conf_0_bn
I1018 10:13:03.413355  7444 net.cpp:434] conv7_2_mbox_conf_0_bn <- conv7_2_mbox_conf_0
I1018 10:13:03.414355  7444 net.cpp:395] conv7_2_mbox_conf_0_bn -> conv7_2_mbox_conf_0 (in-place)
I1018 10:13:03.414355  7444 net.cpp:150] Setting up conv7_2_mbox_conf_0_bn
I1018 10:13:03.414355  7444 net.cpp:157] Top shape: 32 64 4 6 (49152)
I1018 10:13:03.415356  7444 net.cpp:165] Memory required for data: 3110635552
I1018 10:13:03.415356  7444 layer_factory.hpp:77] Creating layer conv7_2_mbox_conf_2
I1018 10:13:03.415356  7444 net.cpp:100] Creating Layer conv7_2_mbox_conf_2
I1018 10:13:03.415356  7444 net.cpp:434] conv7_2_mbox_conf_2 <- conv7_2_mbox_conf_0
I1018 10:13:03.416357  7444 net.cpp:408] conv7_2_mbox_conf_2 -> conv7_2_mbox_conf_2
I1018 10:13:03.417356  7444 net.cpp:150] Setting up conv7_2_mbox_conf_2
I1018 10:13:03.417356  7444 net.cpp:157] Top shape: 32 64 4 6 (49152)
I1018 10:13:03.418356  7444 net.cpp:165] Memory required for data: 3110832160
I1018 10:13:03.418356  7444 layer_factory.hpp:77] Creating layer conv7_2_mbox_conf_2_relu
I1018 10:13:03.418356  7444 net.cpp:100] Creating Layer conv7_2_mbox_conf_2_relu
I1018 10:13:03.418356  7444 net.cpp:434] conv7_2_mbox_conf_2_relu <- conv7_2_mbox_conf_2
I1018 10:13:03.419356  7444 net.cpp:395] conv7_2_mbox_conf_2_relu -> conv7_2_mbox_conf_2 (in-place)
I1018 10:13:03.419356  7444 net.cpp:150] Setting up conv7_2_mbox_conf_2_relu
I1018 10:13:03.419356  7444 net.cpp:157] Top shape: 32 64 4 6 (49152)
I1018 10:13:03.420356  7444 net.cpp:165] Memory required for data: 3111028768
I1018 10:13:03.420356  7444 layer_factory.hpp:77] Creating layer conv7_2_mbox_conf_2_bn
I1018 10:13:03.420356  7444 net.cpp:100] Creating Layer conv7_2_mbox_conf_2_bn
I1018 10:13:03.420356  7444 net.cpp:434] conv7_2_mbox_conf_2_bn <- conv7_2_mbox_conf_2
I1018 10:13:03.421356  7444 net.cpp:395] conv7_2_mbox_conf_2_bn -> conv7_2_mbox_conf_2 (in-place)
I1018 10:13:03.421356  7444 net.cpp:150] Setting up conv7_2_mbox_conf_2_bn
I1018 10:13:03.421356  7444 net.cpp:157] Top shape: 32 64 4 6 (49152)
I1018 10:13:03.422356  7444 net.cpp:165] Memory required for data: 3111225376
I1018 10:13:03.422356  7444 layer_factory.hpp:77] Creating layer conv7_2_mbox_conf_3
I1018 10:13:03.422356  7444 net.cpp:100] Creating Layer conv7_2_mbox_conf_3
I1018 10:13:03.422356  7444 net.cpp:434] conv7_2_mbox_conf_3 <- conv7_2_mbox_conf_2
I1018 10:13:03.422356  7444 net.cpp:408] conv7_2_mbox_conf_3 -> conv7_2_mbox_conf_3
I1018 10:13:03.424356  7444 net.cpp:150] Setting up conv7_2_mbox_conf_3
I1018 10:13:03.424356  7444 net.cpp:157] Top shape: 32 12 4 6 (9216)
I1018 10:13:03.424356  7444 net.cpp:165] Memory required for data: 3111262240
I1018 10:13:03.425356  7444 layer_factory.hpp:77] Creating layer conv7_2_mbox_conf_perm_1
I1018 10:13:03.425356  7444 net.cpp:100] Creating Layer conv7_2_mbox_conf_perm_1
I1018 10:13:03.425356  7444 net.cpp:434] conv7_2_mbox_conf_perm_1 <- conv7_2_mbox_conf_3
I1018 10:13:03.425356  7444 net.cpp:408] conv7_2_mbox_conf_perm_1 -> conv7_2_mbox_conf_perm_1
I1018 10:13:03.426357  7444 net.cpp:150] Setting up conv7_2_mbox_conf_perm_1
I1018 10:13:03.426357  7444 net.cpp:157] Top shape: 32 4 6 12 (9216)
I1018 10:13:03.426357  7444 net.cpp:165] Memory required for data: 3111299104
I1018 10:13:03.426357  7444 layer_factory.hpp:77] Creating layer conv7_2_mbox_conf_flat_1
I1018 10:13:03.427356  7444 net.cpp:100] Creating Layer conv7_2_mbox_conf_flat_1
I1018 10:13:03.427356  7444 net.cpp:434] conv7_2_mbox_conf_flat_1 <- conv7_2_mbox_conf_perm_1
I1018 10:13:03.427356  7444 net.cpp:408] conv7_2_mbox_conf_flat_1 -> conv7_2_mbox_conf_flat_1
I1018 10:13:03.427356  7444 net.cpp:150] Setting up conv7_2_mbox_conf_flat_1
I1018 10:13:03.428356  7444 net.cpp:157] Top shape: 32 288 (9216)
I1018 10:13:03.428356  7444 net.cpp:165] Memory required for data: 3111335968
I1018 10:13:03.428356  7444 layer_factory.hpp:77] Creating layer conv7_2_mbox_priorbox_1
I1018 10:13:03.428356  7444 net.cpp:100] Creating Layer conv7_2_mbox_priorbox_1
I1018 10:13:03.428356  7444 net.cpp:434] conv7_2_mbox_priorbox_1 <- conv7_2_conv7_2_bn_0_split_3
I1018 10:13:03.429356  7444 net.cpp:434] conv7_2_mbox_priorbox_1 <- data_data_0_split_4
I1018 10:13:03.429356  7444 net.cpp:408] conv7_2_mbox_priorbox_1 -> conv7_2_mbox_priorbox_1
I1018 10:13:03.429356  7444 net.cpp:150] Setting up conv7_2_mbox_priorbox_1
I1018 10:13:03.429356  7444 net.cpp:157] Top shape: 1 2 576 (1152)
I1018 10:13:03.429356  7444 net.cpp:165] Memory required for data: 3111340576
I1018 10:13:03.430356  7444 layer_factory.hpp:77] Creating layer conv8_2_mbox_loc_1
I1018 10:13:03.430356  7444 net.cpp:100] Creating Layer conv8_2_mbox_loc_1
I1018 10:13:03.430356  7444 net.cpp:434] conv8_2_mbox_loc_1 <- conv8_2_conv8_2_bn_0_split_1
I1018 10:13:03.431356  7444 net.cpp:408] conv8_2_mbox_loc_1 -> conv8_2_mbox_loc_1
I1018 10:13:03.433357  7444 net.cpp:150] Setting up conv8_2_mbox_loc_1
I1018 10:13:03.433357  7444 net.cpp:157] Top shape: 32 24 2 3 (4608)
I1018 10:13:03.433357  7444 net.cpp:165] Memory required for data: 3111359008
I1018 10:13:03.433357  7444 layer_factory.hpp:77] Creating layer conv8_2_mbox_loc_perm_1
I1018 10:13:03.434357  7444 net.cpp:100] Creating Layer conv8_2_mbox_loc_perm_1
I1018 10:13:03.434357  7444 net.cpp:434] conv8_2_mbox_loc_perm_1 <- conv8_2_mbox_loc_1
I1018 10:13:03.434357  7444 net.cpp:408] conv8_2_mbox_loc_perm_1 -> conv8_2_mbox_loc_perm_1
I1018 10:13:03.434357  7444 net.cpp:150] Setting up conv8_2_mbox_loc_perm_1
I1018 10:13:03.435358  7444 net.cpp:157] Top shape: 32 2 3 24 (4608)
I1018 10:13:03.435358  7444 net.cpp:165] Memory required for data: 3111377440
I1018 10:13:03.435358  7444 layer_factory.hpp:77] Creating layer conv8_2_mbox_loc_flat_1
I1018 10:13:03.435358  7444 net.cpp:100] Creating Layer conv8_2_mbox_loc_flat_1
I1018 10:13:03.436357  7444 net.cpp:434] conv8_2_mbox_loc_flat_1 <- conv8_2_mbox_loc_perm_1
I1018 10:13:03.436357  7444 net.cpp:408] conv8_2_mbox_loc_flat_1 -> conv8_2_mbox_loc_flat_1
I1018 10:13:03.441357  7444 net.cpp:150] Setting up conv8_2_mbox_loc_flat_1
I1018 10:13:03.442358  7444 net.cpp:157] Top shape: 32 144 (4608)
I1018 10:13:03.442358  7444 net.cpp:165] Memory required for data: 3111395872
I1018 10:13:03.442358  7444 layer_factory.hpp:77] Creating layer conv8_2_mbox_conf_0
I1018 10:13:03.442358  7444 net.cpp:100] Creating Layer conv8_2_mbox_conf_0
I1018 10:13:03.443357  7444 net.cpp:434] conv8_2_mbox_conf_0 <- conv8_2_conv8_2_bn_0_split_2
I1018 10:13:03.443357  7444 net.cpp:408] conv8_2_mbox_conf_0 -> conv8_2_mbox_conf_0
I1018 10:13:03.444357  7444 net.cpp:150] Setting up conv8_2_mbox_conf_0
I1018 10:13:03.445358  7444 net.cpp:157] Top shape: 32 64 2 3 (12288)
I1018 10:13:03.445358  7444 net.cpp:165] Memory required for data: 3111445024
I1018 10:13:03.445358  7444 layer_factory.hpp:77] Creating layer conv8_2_mbox_conf_0_relu
I1018 10:13:03.445358  7444 net.cpp:100] Creating Layer conv8_2_mbox_conf_0_relu
I1018 10:13:03.445358  7444 net.cpp:434] conv8_2_mbox_conf_0_relu <- conv8_2_mbox_conf_0
I1018 10:13:03.446357  7444 net.cpp:395] conv8_2_mbox_conf_0_relu -> conv8_2_mbox_conf_0 (in-place)
I1018 10:13:03.446357  7444 net.cpp:150] Setting up conv8_2_mbox_conf_0_relu
I1018 10:13:03.446357  7444 net.cpp:157] Top shape: 32 64 2 3 (12288)
I1018 10:13:03.447357  7444 net.cpp:165] Memory required for data: 3111494176
I1018 10:13:03.447357  7444 layer_factory.hpp:77] Creating layer conv8_2_mbox_conf_0_bn
I1018 10:13:03.447357  7444 net.cpp:100] Creating Layer conv8_2_mbox_conf_0_bn
I1018 10:13:03.447357  7444 net.cpp:434] conv8_2_mbox_conf_0_bn <- conv8_2_mbox_conf_0
I1018 10:13:03.448357  7444 net.cpp:395] conv8_2_mbox_conf_0_bn -> conv8_2_mbox_conf_0 (in-place)
I1018 10:13:03.448357  7444 net.cpp:150] Setting up conv8_2_mbox_conf_0_bn
I1018 10:13:03.448357  7444 net.cpp:157] Top shape: 32 64 2 3 (12288)
I1018 10:13:03.449357  7444 net.cpp:165] Memory required for data: 3111543328
I1018 10:13:03.449357  7444 layer_factory.hpp:77] Creating layer conv8_2_mbox_conf_2
I1018 10:13:03.449357  7444 net.cpp:100] Creating Layer conv8_2_mbox_conf_2
I1018 10:13:03.449357  7444 net.cpp:434] conv8_2_mbox_conf_2 <- conv8_2_mbox_conf_0
I1018 10:13:03.450358  7444 net.cpp:408] conv8_2_mbox_conf_2 -> conv8_2_mbox_conf_2
I1018 10:13:03.451359  7444 net.cpp:150] Setting up conv8_2_mbox_conf_2
I1018 10:13:03.452358  7444 net.cpp:157] Top shape: 32 64 2 3 (12288)
I1018 10:13:03.452358  7444 net.cpp:165] Memory required for data: 3111592480
I1018 10:13:03.452358  7444 layer_factory.hpp:77] Creating layer conv8_2_mbox_conf_2_relu
I1018 10:13:03.452358  7444 net.cpp:100] Creating Layer conv8_2_mbox_conf_2_relu
I1018 10:13:03.453358  7444 net.cpp:434] conv8_2_mbox_conf_2_relu <- conv8_2_mbox_conf_2
I1018 10:13:03.453358  7444 net.cpp:395] conv8_2_mbox_conf_2_relu -> conv8_2_mbox_conf_2 (in-place)
I1018 10:13:03.454358  7444 net.cpp:150] Setting up conv8_2_mbox_conf_2_relu
I1018 10:13:03.454358  7444 net.cpp:157] Top shape: 32 64 2 3 (12288)
I1018 10:13:03.454358  7444 net.cpp:165] Memory required for data: 3111641632
I1018 10:13:03.454358  7444 layer_factory.hpp:77] Creating layer conv8_2_mbox_conf_2_bn
I1018 10:13:03.454358  7444 net.cpp:100] Creating Layer conv8_2_mbox_conf_2_bn
I1018 10:13:03.455358  7444 net.cpp:434] conv8_2_mbox_conf_2_bn <- conv8_2_mbox_conf_2
I1018 10:13:03.455358  7444 net.cpp:395] conv8_2_mbox_conf_2_bn -> conv8_2_mbox_conf_2 (in-place)
I1018 10:13:03.455358  7444 net.cpp:150] Setting up conv8_2_mbox_conf_2_bn
I1018 10:13:03.456358  7444 net.cpp:157] Top shape: 32 64 2 3 (12288)
I1018 10:13:03.456358  7444 net.cpp:165] Memory required for data: 3111690784
I1018 10:13:03.456358  7444 layer_factory.hpp:77] Creating layer conv8_2_mbox_conf_3
I1018 10:13:03.456358  7444 net.cpp:100] Creating Layer conv8_2_mbox_conf_3
I1018 10:13:03.457358  7444 net.cpp:434] conv8_2_mbox_conf_3 <- conv8_2_mbox_conf_2
I1018 10:13:03.457358  7444 net.cpp:408] conv8_2_mbox_conf_3 -> conv8_2_mbox_conf_3
I1018 10:13:03.458359  7444 net.cpp:150] Setting up conv8_2_mbox_conf_3
I1018 10:13:03.458359  7444 net.cpp:157] Top shape: 32 12 2 3 (2304)
I1018 10:13:03.459358  7444 net.cpp:165] Memory required for data: 3111700000
I1018 10:13:03.459358  7444 layer_factory.hpp:77] Creating layer conv8_2_mbox_conf_perm_1
I1018 10:13:03.459358  7444 net.cpp:100] Creating Layer conv8_2_mbox_conf_perm_1
I1018 10:13:03.459358  7444 net.cpp:434] conv8_2_mbox_conf_perm_1 <- conv8_2_mbox_conf_3
I1018 10:13:03.459358  7444 net.cpp:408] conv8_2_mbox_conf_perm_1 -> conv8_2_mbox_conf_perm_1
I1018 10:13:03.460358  7444 net.cpp:150] Setting up conv8_2_mbox_conf_perm_1
I1018 10:13:03.460358  7444 net.cpp:157] Top shape: 32 2 3 12 (2304)
I1018 10:13:03.460358  7444 net.cpp:165] Memory required for data: 3111709216
I1018 10:13:03.460358  7444 layer_factory.hpp:77] Creating layer conv8_2_mbox_conf_flat_1
I1018 10:13:03.461359  7444 net.cpp:100] Creating Layer conv8_2_mbox_conf_flat_1
I1018 10:13:03.461359  7444 net.cpp:434] conv8_2_mbox_conf_flat_1 <- conv8_2_mbox_conf_perm_1
I1018 10:13:03.461359  7444 net.cpp:408] conv8_2_mbox_conf_flat_1 -> conv8_2_mbox_conf_flat_1
I1018 10:13:03.462358  7444 net.cpp:150] Setting up conv8_2_mbox_conf_flat_1
I1018 10:13:03.462358  7444 net.cpp:157] Top shape: 32 72 (2304)
I1018 10:13:03.462358  7444 net.cpp:165] Memory required for data: 3111718432
I1018 10:13:03.462358  7444 layer_factory.hpp:77] Creating layer conv8_2_mbox_priorbox_1
I1018 10:13:03.462358  7444 net.cpp:100] Creating Layer conv8_2_mbox_priorbox_1
I1018 10:13:03.463358  7444 net.cpp:434] conv8_2_mbox_priorbox_1 <- conv8_2_conv8_2_bn_0_split_3
I1018 10:13:03.463358  7444 net.cpp:434] conv8_2_mbox_priorbox_1 <- data_data_0_split_5
I1018 10:13:03.463358  7444 net.cpp:408] conv8_2_mbox_priorbox_1 -> conv8_2_mbox_priorbox_1
I1018 10:13:03.463358  7444 net.cpp:150] Setting up conv8_2_mbox_priorbox_1
I1018 10:13:03.464359  7444 net.cpp:157] Top shape: 1 2 144 (288)
I1018 10:13:03.464359  7444 net.cpp:165] Memory required for data: 3111719584
I1018 10:13:03.464359  7444 layer_factory.hpp:77] Creating layer pool6_mbox_loc_1
I1018 10:13:03.464359  7444 net.cpp:100] Creating Layer pool6_mbox_loc_1
I1018 10:13:03.464359  7444 net.cpp:434] pool6_mbox_loc_1 <- pool6_pool6_0_split_0
I1018 10:13:03.465358  7444 net.cpp:408] pool6_mbox_loc_1 -> pool6_mbox_loc_1
I1018 10:13:03.467358  7444 net.cpp:150] Setting up pool6_mbox_loc_1
I1018 10:13:03.467358  7444 net.cpp:157] Top shape: 32 24 1 1 (768)
I1018 10:13:03.467358  7444 net.cpp:165] Memory required for data: 3111722656
I1018 10:13:03.468359  7444 layer_factory.hpp:77] Creating layer pool6_mbox_loc_perm_1
I1018 10:13:03.468359  7444 net.cpp:100] Creating Layer pool6_mbox_loc_perm_1
I1018 10:13:03.468359  7444 net.cpp:434] pool6_mbox_loc_perm_1 <- pool6_mbox_loc_1
I1018 10:13:03.468359  7444 net.cpp:408] pool6_mbox_loc_perm_1 -> pool6_mbox_loc_perm_1
I1018 10:13:03.469359  7444 net.cpp:150] Setting up pool6_mbox_loc_perm_1
I1018 10:13:03.469359  7444 net.cpp:157] Top shape: 32 1 1 24 (768)
I1018 10:13:03.469359  7444 net.cpp:165] Memory required for data: 3111725728
I1018 10:13:03.469359  7444 layer_factory.hpp:77] Creating layer pool6_mbox_loc_flat_1
I1018 10:13:03.470360  7444 net.cpp:100] Creating Layer pool6_mbox_loc_flat_1
I1018 10:13:03.470360  7444 net.cpp:434] pool6_mbox_loc_flat_1 <- pool6_mbox_loc_perm_1
I1018 10:13:03.470360  7444 net.cpp:408] pool6_mbox_loc_flat_1 -> pool6_mbox_loc_flat_1
I1018 10:13:03.470360  7444 net.cpp:150] Setting up pool6_mbox_loc_flat_1
I1018 10:13:03.471359  7444 net.cpp:157] Top shape: 32 24 (768)
I1018 10:13:03.471359  7444 net.cpp:165] Memory required for data: 3111728800
I1018 10:13:03.471359  7444 layer_factory.hpp:77] Creating layer pool6_mbox_conf_0
I1018 10:13:03.471359  7444 net.cpp:100] Creating Layer pool6_mbox_conf_0
I1018 10:13:03.471359  7444 net.cpp:434] pool6_mbox_conf_0 <- pool6_pool6_0_split_1
I1018 10:13:03.472359  7444 net.cpp:408] pool6_mbox_conf_0 -> pool6_mbox_conf_0
I1018 10:13:03.473359  7444 net.cpp:150] Setting up pool6_mbox_conf_0
I1018 10:13:03.473359  7444 net.cpp:157] Top shape: 32 64 1 1 (2048)
I1018 10:13:03.474359  7444 net.cpp:165] Memory required for data: 3111736992
I1018 10:13:03.474359  7444 layer_factory.hpp:77] Creating layer pool6_mbox_conf_0_relu
I1018 10:13:03.474359  7444 net.cpp:100] Creating Layer pool6_mbox_conf_0_relu
I1018 10:13:03.475359  7444 net.cpp:434] pool6_mbox_conf_0_relu <- pool6_mbox_conf_0
I1018 10:13:03.475359  7444 net.cpp:395] pool6_mbox_conf_0_relu -> pool6_mbox_conf_0 (in-place)
I1018 10:13:03.475359  7444 net.cpp:150] Setting up pool6_mbox_conf_0_relu
I1018 10:13:03.476359  7444 net.cpp:157] Top shape: 32 64 1 1 (2048)
I1018 10:13:03.476359  7444 net.cpp:165] Memory required for data: 3111745184
I1018 10:13:03.476359  7444 layer_factory.hpp:77] Creating layer pool6_mbox_conf_0_bn
I1018 10:13:03.476359  7444 net.cpp:100] Creating Layer pool6_mbox_conf_0_bn
I1018 10:13:03.477360  7444 net.cpp:434] pool6_mbox_conf_0_bn <- pool6_mbox_conf_0
I1018 10:13:03.477360  7444 net.cpp:395] pool6_mbox_conf_0_bn -> pool6_mbox_conf_0 (in-place)
I1018 10:13:03.477360  7444 net.cpp:150] Setting up pool6_mbox_conf_0_bn
I1018 10:13:03.478359  7444 net.cpp:157] Top shape: 32 64 1 1 (2048)
I1018 10:13:03.478359  7444 net.cpp:165] Memory required for data: 3111753376
I1018 10:13:03.478359  7444 layer_factory.hpp:77] Creating layer pool6_mbox_conf_2
I1018 10:13:03.478359  7444 net.cpp:100] Creating Layer pool6_mbox_conf_2
I1018 10:13:03.478359  7444 net.cpp:434] pool6_mbox_conf_2 <- pool6_mbox_conf_0
I1018 10:13:03.479359  7444 net.cpp:408] pool6_mbox_conf_2 -> pool6_mbox_conf_2
I1018 10:13:03.480360  7444 net.cpp:150] Setting up pool6_mbox_conf_2
I1018 10:13:03.480360  7444 net.cpp:157] Top shape: 32 64 1 1 (2048)
I1018 10:13:03.481359  7444 net.cpp:165] Memory required for data: 3111761568
I1018 10:13:03.481359  7444 layer_factory.hpp:77] Creating layer pool6_mbox_conf_2_relu
I1018 10:13:03.481359  7444 net.cpp:100] Creating Layer pool6_mbox_conf_2_relu
I1018 10:13:03.481359  7444 net.cpp:434] pool6_mbox_conf_2_relu <- pool6_mbox_conf_2
I1018 10:13:03.482359  7444 net.cpp:395] pool6_mbox_conf_2_relu -> pool6_mbox_conf_2 (in-place)
I1018 10:13:03.482359  7444 net.cpp:150] Setting up pool6_mbox_conf_2_relu
I1018 10:13:03.482359  7444 net.cpp:157] Top shape: 32 64 1 1 (2048)
I1018 10:13:03.483359  7444 net.cpp:165] Memory required for data: 3111769760
I1018 10:13:03.483359  7444 layer_factory.hpp:77] Creating layer pool6_mbox_conf_2_bn
I1018 10:13:03.483359  7444 net.cpp:100] Creating Layer pool6_mbox_conf_2_bn
I1018 10:13:03.483359  7444 net.cpp:434] pool6_mbox_conf_2_bn <- pool6_mbox_conf_2
I1018 10:13:03.484359  7444 net.cpp:395] pool6_mbox_conf_2_bn -> pool6_mbox_conf_2 (in-place)
I1018 10:13:03.484359  7444 net.cpp:150] Setting up pool6_mbox_conf_2_bn
I1018 10:13:03.484359  7444 net.cpp:157] Top shape: 32 64 1 1 (2048)
I1018 10:13:03.485360  7444 net.cpp:165] Memory required for data: 3111777952
I1018 10:13:03.485360  7444 layer_factory.hpp:77] Creating layer pool6_mbox_conf_3
I1018 10:13:03.485360  7444 net.cpp:100] Creating Layer pool6_mbox_conf_3
I1018 10:13:03.485360  7444 net.cpp:434] pool6_mbox_conf_3 <- pool6_mbox_conf_2
I1018 10:13:03.485360  7444 net.cpp:408] pool6_mbox_conf_3 -> pool6_mbox_conf_3
I1018 10:13:03.487360  7444 net.cpp:150] Setting up pool6_mbox_conf_3
I1018 10:13:03.487360  7444 net.cpp:157] Top shape: 32 12 1 1 (384)
I1018 10:13:03.488360  7444 net.cpp:165] Memory required for data: 3111779488
I1018 10:13:03.488360  7444 layer_factory.hpp:77] Creating layer pool6_mbox_conf_perm_1
I1018 10:13:03.488360  7444 net.cpp:100] Creating Layer pool6_mbox_conf_perm_1
I1018 10:13:03.488360  7444 net.cpp:434] pool6_mbox_conf_perm_1 <- pool6_mbox_conf_3
I1018 10:13:03.489361  7444 net.cpp:408] pool6_mbox_conf_perm_1 -> pool6_mbox_conf_perm_1
I1018 10:13:03.489361  7444 net.cpp:150] Setting up pool6_mbox_conf_perm_1
I1018 10:13:03.489361  7444 net.cpp:157] Top shape: 32 1 1 12 (384)
I1018 10:13:03.489361  7444 net.cpp:165] Memory required for data: 3111781024
I1018 10:13:03.490360  7444 layer_factory.hpp:77] Creating layer pool6_mbox_conf_flat_1
I1018 10:13:03.490360  7444 net.cpp:100] Creating Layer pool6_mbox_conf_flat_1
I1018 10:13:03.490360  7444 net.cpp:434] pool6_mbox_conf_flat_1 <- pool6_mbox_conf_perm_1
I1018 10:13:03.490360  7444 net.cpp:408] pool6_mbox_conf_flat_1 -> pool6_mbox_conf_flat_1
I1018 10:13:03.491360  7444 net.cpp:150] Setting up pool6_mbox_conf_flat_1
I1018 10:13:03.491360  7444 net.cpp:157] Top shape: 32 12 (384)
I1018 10:13:03.491360  7444 net.cpp:165] Memory required for data: 3111782560
I1018 10:13:03.491360  7444 layer_factory.hpp:77] Creating layer pool6_mbox_priorbox_1
I1018 10:13:03.492360  7444 net.cpp:100] Creating Layer pool6_mbox_priorbox_1
I1018 10:13:03.492360  7444 net.cpp:434] pool6_mbox_priorbox_1 <- pool6_pool6_0_split_2
I1018 10:13:03.492360  7444 net.cpp:434] pool6_mbox_priorbox_1 <- data_data_0_split_6
I1018 10:13:03.492360  7444 net.cpp:408] pool6_mbox_priorbox_1 -> pool6_mbox_priorbox_1
I1018 10:13:03.492360  7444 net.cpp:150] Setting up pool6_mbox_priorbox_1
I1018 10:13:03.493360  7444 net.cpp:157] Top shape: 1 2 24 (48)
I1018 10:13:03.493360  7444 net.cpp:165] Memory required for data: 3111782752
I1018 10:13:03.493360  7444 layer_factory.hpp:77] Creating layer mbox_loc_1
I1018 10:13:03.493360  7444 net.cpp:100] Creating Layer mbox_loc_1
I1018 10:13:03.494360  7444 net.cpp:434] mbox_loc_1 <- conv4_3_norm_mbox_loc_flat_1
I1018 10:13:03.494360  7444 net.cpp:434] mbox_loc_1 <- fc7_mbox_loc_flat_1
I1018 10:13:03.494360  7444 net.cpp:434] mbox_loc_1 <- conv6_2_mbox_loc_flat_1
I1018 10:13:03.494360  7444 net.cpp:434] mbox_loc_1 <- conv7_2_mbox_loc_flat_1
I1018 10:13:03.494360  7444 net.cpp:434] mbox_loc_1 <- conv8_2_mbox_loc_flat_1
I1018 10:13:03.495360  7444 net.cpp:434] mbox_loc_1 <- pool6_mbox_loc_flat_1
I1018 10:13:03.495360  7444 net.cpp:408] mbox_loc_1 -> mbox_loc_1
I1018 10:13:03.495360  7444 net.cpp:150] Setting up mbox_loc_1
I1018 10:13:03.495360  7444 net.cpp:157] Top shape: 32 49128 (1572096)
I1018 10:13:03.496361  7444 net.cpp:165] Memory required for data: 3118071136
I1018 10:13:03.496361  7444 layer_factory.hpp:77] Creating layer mbox_conf_1
I1018 10:13:03.496361  7444 net.cpp:100] Creating Layer mbox_conf_1
I1018 10:13:03.496361  7444 net.cpp:434] mbox_conf_1 <- conv4_3_norm_mbox_conf_flat_1
I1018 10:13:03.497360  7444 net.cpp:434] mbox_conf_1 <- fc7_mbox_conf_flat_1
I1018 10:13:03.497360  7444 net.cpp:434] mbox_conf_1 <- conv6_2_mbox_conf_flat_1
I1018 10:13:03.497360  7444 net.cpp:434] mbox_conf_1 <- conv7_2_mbox_conf_flat_1
I1018 10:13:03.497360  7444 net.cpp:434] mbox_conf_1 <- conv8_2_mbox_conf_flat_1
I1018 10:13:03.498360  7444 net.cpp:434] mbox_conf_1 <- pool6_mbox_conf_flat_1
I1018 10:13:03.498360  7444 net.cpp:408] mbox_conf_1 -> mbox_conf_1
I1018 10:13:03.498360  7444 net.cpp:150] Setting up mbox_conf_1
I1018 10:13:03.498360  7444 net.cpp:157] Top shape: 32 24564 (786048)
I1018 10:13:03.498360  7444 net.cpp:165] Memory required for data: 3121215328
I1018 10:13:03.499361  7444 layer_factory.hpp:77] Creating layer mbox_priorbox_1
I1018 10:13:03.499361  7444 net.cpp:100] Creating Layer mbox_priorbox_1
I1018 10:13:03.499361  7444 net.cpp:434] mbox_priorbox_1 <- conv4_3_norm_mbox_priorbox_1
I1018 10:13:03.499361  7444 net.cpp:434] mbox_priorbox_1 <- fc7_mbox_priorbox_1
I1018 10:13:03.500360  7444 net.cpp:434] mbox_priorbox_1 <- conv6_2_mbox_priorbox_1
I1018 10:13:03.500360  7444 net.cpp:434] mbox_priorbox_1 <- conv7_2_mbox_priorbox_1
I1018 10:13:03.500360  7444 net.cpp:434] mbox_priorbox_1 <- conv8_2_mbox_priorbox_1
I1018 10:13:03.500360  7444 net.cpp:434] mbox_priorbox_1 <- pool6_mbox_priorbox_1
I1018 10:13:03.501360  7444 net.cpp:408] mbox_priorbox_1 -> mbox_priorbox_1
I1018 10:13:03.501360  7444 net.cpp:150] Setting up mbox_priorbox_1
I1018 10:13:03.501360  7444 net.cpp:157] Top shape: 1 2 49128 (98256)
I1018 10:13:03.501360  7444 net.cpp:165] Memory required for data: 3121608352
I1018 10:13:03.501360  7444 layer_factory.hpp:77] Creating layer mbox_loss_1
I1018 10:13:03.502362  7444 net.cpp:100] Creating Layer mbox_loss_1
I1018 10:13:03.502362  7444 net.cpp:434] mbox_loss_1 <- mbox_loc_1
I1018 10:13:03.502362  7444 net.cpp:434] mbox_loss_1 <- mbox_conf_1
I1018 10:13:03.502362  7444 net.cpp:434] mbox_loss_1 <- mbox_priorbox_1
…
}
layer {
  name: "data"
  type: "AnnotatedData"
  top: "data"
  top: "label"
  include {
    phase: TEST
  }
  transform_param {
    mean_value: 104
    mean_value: 117
    mean_value: 123
    resize_param {
      prob: 1
      resize_mode: WARP
      height: 256
      width: 384
      interp_mode: LINEAR
    }
  }
  data_param {
    source: "E:/tyang/Pedestrian/Data_0922/val_lmdb"
    batch_size: 32
    backend: LMDB
  }
  annotated_data_param {
    batch_sampler {
    }
    label_map_file: "E:/tyang/Pedestrian/labelmap_VehicleFull.prototxt"
  }
}
layer {
  name: "conv1"
  type: "Convolution"
  bottom: "data"
  top: "conv1"
  convolution_param {
    num_output: 64
    pad: 1
    kernel_size: 3
    stride: 2
    weight_filler {
      type: "xavier"
    }
  }
}
layer {
  name: "relu_conv1"
  type: "ReLU"
  bottom: "conv1"
  top: "conv1"
}
layer {
  name: "pool1"
  type: "Pooling"
  bottom: "conv1"
  top: "pool1"
  pooling_param {
    pool: MAX
    kernel_size: 3
    stride: 2
  }
}
layer {
  name: "conv1_bn"
  type: "BatchNorm"
  bottom: "pool1"
  top: "pool1"
  include {
    phase: TEST
  }
  batch_norm_param {
    use_global_stats: true
    moving_average_fraction: 0.95
  }
}
layer {
  name: "fire2/squeeze1x1"
  type: "Convolution"
  bottom: "pool1"
  top: "fire2/squeeze1x1"
  convolution_param {
    num_output: 16
    kernel_size: 1
    weight_filler {
      type: "xavier"
    }
  }
}
layer {
  name: "fire2/relu_squeeze1x1"
  type: "ReLU"
  bottom: "fire2/squeeze1x1"
  top: "fire2/squeeze1x1"
}
layer {
  name: "fire2/expand1x1"
  type: "Convolution"
  bottom: "fire2/squeeze1x1"
  top: "fire2/expand1x1"
  convolution_param {
    num_output: 64
    kernel_size: 1
    weight_filler {
      type: "xavier"
    }
  }
}
layer {
  name: "fire2/relu_expand1x1"
  type: "ReLU"
  bottom: "fire2/expand1x1"
  top: "fire2/expand1x1"
}
layer {
  name: "fire2/expand3x3"
  type: "Convolution"
  bottom: "fire2/squeeze1x1"
  top: "fire2/expand3x3"
  convolution_param {
    num_output: 64
    pad: 1
    kernel_size: 3
    weight_filler {
      type: "xavier"
    }
  }
}
layer {
  name: "fire2/relu_expand3x3"
  type: "ReLU"
  bottom: "fire2/expand3x3"
  top: "fire2/expand3x3"
}
layer {
  name: "fire2/concat"
  type: "Concat"
  bottom: "fire2/expand1x1"
  bottom: "fire2/expand3x3"
  top: "fire2/concat"
}
layer {
  name: "fire2/concat_bn"
  type: "BatchNorm"
  bottom: "fire2/concat"
  top: "fire2/concat"
  include {
    phase: TEST
  }
  batch_norm_param {
    use_global_stats: true
    moving_average_fraction: 0.95
  }
}
layer {
  name: "fire3/squeeze1x1"
  type: "Convolution"
  bottom: "fire2/concat"
  top: "fire3/squeeze1x1"
  convolution_param {
    num_output: 16
    kernel_size: 1
    weight_filler {
      type: "xavier"
    }
  }
}
layer {
  name: "fire3/relu_squeeze1x1"
  type: "ReLU"
  bottom: "fire3/squeeze1x1"
  top: "fire3/squeeze1x1"
}
layer {
  name: "fire3/expand1x1"
  type: "Convolution"
  bottom: "fire3/squeeze1x1"
  top: "fire3/expand1x1"
  convolution_param {
    num_output: 64
    kernel_size: 1
    weight_filler {
      type: "xavier"
    }
  }
}
layer {
  name: "fire3/relu_expand1x1"
  type: "ReLU"
  bottom: "fire3/expand1x1"
  top: "fire3/expand1x1"
}
layer {
  name: "fire3/expand3x3"
  type: "Convolution"
  bottom: "fire3/squeeze1x1"
  top: "fire3/expand3x3"
  convolution_param {
    num_output: 64
    pad: 1
    kernel_size: 3
    weight_filler {
      type: "xavier"
    }
  }
}
layer {
  name: "fire3/relu_expand3x3"
  type: "ReLU"
  bottom: "fire3/expand3x3"
  top: "fire3/expand3x3"
}
layer {
  name: "fire3/concat"
  type: "Concat"
  bottom: "fire3/expand1x1"
  bottom: "fire3/expand3x3"
  top: "fire3/concat"
}
layer {
  name: "pool3"
  type: "Pooling"
  bottom: "fire3/concat"
  top: "pool3"
  pooling_param {
    pool: MAX
    kernel_size: 2
    stride: 2
  }
}
layer {
  name: "fire3/concat_bn"
  type: "BatchNorm"
  bottom: "pool3"
  top: "pool3"
  include {
    phase: TEST
  }
  batch_norm_param {
    use_global_stats: true
    moving_average_fraction: 0.95
  }
}
layer {
  name: "fire4/squeeze1x1"
  type: "Convolution"
  bottom: "pool3"
  top: "fire4/squeeze1x1"
  convolution_param {
    num_output: 32
    kernel_size: 1
    weight_filler {
      type: "xavier"
    }
  }
}
layer {
  name: "fire4/relu_squeeze1x1"
  type: "ReLU"
  bottom: "fire4/squeeze1x1"
  top: "fire4/squeeze1x1"
}
layer {
  name: "fire4/expand1x1"
  type: "Convolution"
  bottom: "fire4/squeeze1x1"
  top: "fire4/expand1x1"
  convolution_param {
    num_output: 128
    kernel_size: 1
    weight_filler {
      type: "xavier"
    }
  }
}
layer {
  name: "fire4/relu_expand1x1"
  type: "ReLU"
  bottom: "fire4/expand1x1"
  top: "fire4/expand1x1"
}
layer {
  name: "fire4/expand3x3"
  type: "Convolution"
  bottom: "fire4/squeeze1x1"
  top: "fire4/expand3x3"
  convolution_param {
    num_output: 128
    pad: 1
    kernel_size: 3
    weight_filler {
      type: "xavier"
    }
  }
}
layer {
  name: "fire4/relu_expand3x3"
  type: "ReLU"
  bottom: "fire4/expand3x3"
  top: "fire4/expand3x3"
}
layer {
  name: "fire4/concat"
  type: "Concat"
  bottom: "fire4/expand1x1"
  bottom: "fire4/expand3x3"
  top: "fire4/concat"
}
layer {
  name: "fire4/concat_bn"
  type: "BatchNorm"
  bottom: "fire4/concat"
  top: "fire4/concat"
  include {
    phase: TEST
  }
  batch_norm_param {
    use_global_stats: true
    moving_average_fraction: 0.95
  }
}
layer {
  name: "fire5/squeeze1x1"
  type: "Convolution"
  bottom: "fire4/concat"
  top: "fire5/squeeze1x1"
  convolution_param {
    num_output: 32
    kernel_size: 1
    weight_filler {
      type: "xavier"
    }
  }
}
layer {
  name: "fire5/relu_squeeze1x1"
  type: "ReLU"
  bottom: "fire5/squeeze1x1"
  top: "fire5/squeeze1x1"
}
layer {
  name: "fire5/expand1x1"
  type: "Convolution"
  bottom: "fire5/squeeze1x1"
  top: "fire5/expand1x1"
  convolution_param {
    num_output: 128
    kernel_size: 1
    weight_filler {
      type: "xavier"
    }
  }
}
layer {
  name: "fire5/relu_expand1x1"
  type: "ReLU"
  bottom: "fire5/expand1x1"
  top: "fire5/expand1x1"
}
layer {
  name: "fire5/expand3x3"
  type: "Convolution"
  bottom: "fire5/squeeze1x1"
  top: "fire5/expand3x3"
  convolution_param {
    num_output: 128
    pad: 1
    kernel_size: 3
    weight_filler {
      type: "xavier"
    }
  }
}
layer {
  name: "fire5/relu_expand3x3"
  type: "ReLU"
  bottom: "fire5/expand3x3"
  top: "fire5/expand3x3"
}
layer {
  name: "fire5/concat"
  type: "Concat"
  bottom: "fire5/expand1x1"
  bottom: "fire5/expand3x3"
  top: "fire5/concat"
}
layer {
  name: "pool5"
  type: "Pooling"
  bottom: "fire5/concat"
  top: "pool5"
  pooling_param {
    pool: MAX
    kernel_size: 2
    stride: 2
  }
}
layer {
  name: "fire5/concat_bn"
  type: "BatchNorm"
  bottom: "pool5"
  top: "pool5"
  include {
    phase: TEST
  }
  batch_norm_param {
    use_global_stats: true
    moving_average_fraction: 0.95
  }
}
layer {
  name: "fire6/squeeze1x1"
  type: "Convolution"
  bottom: "pool5"
  top: "fire6/squeeze1x1"
  convolution_param {
    num_output: 48
    kernel_size: 1
    weight_filler {
      type: "xavier"
    }
  }
}
layer {
  name: "fire6/relu_squeeze1x1"
  type: "ReLU"
  bottom: "fire6/squeeze1x1"
  top: "fire6/squeeze1x1"
}
layer {
  name: "fire6/expand1x1"
  type: "Convolution"
  bottom: "fire6/squeeze1x1"
  top: "fire6/expand1x1"
  convolution_param {
    num_output: 192
    kernel_size: 1
    weight_filler {
      type: "xavier"
    }
  }
}
layer {
  name: "fire6/relu_expand1x1"
  type: "ReLU"
  bottom: "fire6/expand1x1"
  top: "fire6/expand1x1"
}
layer {
  name: "fire6/expand3x3"
  type: "Convolution"
  bottom: "fire6/squeeze1x1"
  top: "fire6/expand3x3"
  convolution_param {
    num_output: 192
    pad: 1
    kernel_size: 3
    weight_filler {
      type: "xavier"
    }
  }
}
layer {
  name: "fire6/relu_expand3x3"
  type: "ReLU"
  bottom: "fire6/expand3x3"
  top: "fire6/expand3x3"
}
layer {
  name: "fire6/concat"
  type: "Concat"
  bottom: "fire6/expand1x1"
  bottom: "fire6/expand3x3"
  top: "fire6/concat"
}
layer {
  name: "fire6/concat_bn"
  type: "BatchNorm"
  bottom: "fire6/concat"
  top: "fire6/concat"
  include {
    phase: TEST
  }
  batch_norm_param {
    use_global_stats: true
    moving_average_fraction: 0.95
  }
}
layer {
  name: "fire7/squeeze1x1"
  type: "Convolution"
  bottom: "fire6/concat"
  top: "fire7/squeeze1x1"
  convolution_param {
    num_output: 48
    kernel_size: 1
    weight_filler {
      type: "xavier"
    }
  }
}
…
I1018 10:13:04.507418  7444 net.cpp:150] Setting up conv4_3_norm_mbox_loc_perm_1
I1018 10:13:04.507418  7444 net.cpp:157] Top shape: 32 32 48 24 (1179648)
I1018 10:13:04.508419  7444 net.cpp:165] Memory required for data: 2991915072
I1018 10:13:04.508419  7444 layer_factory.hpp:77] Creating layer conv4_3_norm_mbox_loc_flat_1
I1018 10:13:04.508419  7444 net.cpp:100] Creating Layer conv4_3_norm_mbox_loc_flat_1
I1018 10:13:04.508419  7444 net.cpp:434] conv4_3_norm_mbox_loc_flat_1 <- conv4_3_norm_mbox_loc_perm_1
I1018 10:13:04.509418  7444 net.cpp:408] conv4_3_norm_mbox_loc_flat_1 -> conv4_3_norm_mbox_loc_flat_1
I1018 10:13:04.509418  7444 net.cpp:150] Setting up conv4_3_norm_mbox_loc_flat_1
I1018 10:13:04.509418  7444 net.cpp:157] Top shape: 32 36864 (1179648)
I1018 10:13:04.509418  7444 net.cpp:165] Memory required for data: 2996633664
I1018 10:13:04.510418  7444 layer_factory.hpp:77] Creating layer conv4_3_norm_mbox_conf_0
I1018 10:13:04.510418  7444 net.cpp:100] Creating Layer conv4_3_norm_mbox_conf_0
I1018 10:13:04.510418  7444 net.cpp:434] conv4_3_norm_mbox_conf_0 <- conv4_3_norm_1_conv4_3_norm_1_0_split_1
I1018 10:13:04.510418  7444 net.cpp:408] conv4_3_norm_mbox_conf_0 -> conv4_3_norm_mbox_conf_0
I1018 10:13:04.512418  7444 net.cpp:150] Setting up conv4_3_norm_mbox_conf_0
I1018 10:13:04.512418  7444 net.cpp:157] Top shape: 32 64 32 48 (3145728)
I1018 10:13:04.513418  7444 net.cpp:165] Memory required for data: 3009216576
I1018 10:13:04.513418  7444 layer_factory.hpp:77] Creating layer conv4_3_norm_mbox_conf_0_relu
I1018 10:13:04.513418  7444 net.cpp:100] Creating Layer conv4_3_norm_mbox_conf_0_relu
I1018 10:13:04.513418  7444 net.cpp:434] conv4_3_norm_mbox_conf_0_relu <- conv4_3_norm_mbox_conf_0
I1018 10:13:04.514418  7444 net.cpp:395] conv4_3_norm_mbox_conf_0_relu -> conv4_3_norm_mbox_conf_0 (in-place)
I1018 10:13:04.514418  7444 net.cpp:150] Setting up conv4_3_norm_mbox_conf_0_relu
I1018 10:13:04.514418  7444 net.cpp:157] Top shape: 32 64 32 48 (3145728)
I1018 10:13:04.514418  7444 net.cpp:165] Memory required for data: 3021799488
I1018 10:13:04.515419  7444 layer_factory.hpp:77] Creating layer conv4_3_norm_mbox_conf_0_bn
I1018 10:13:04.515419  7444 net.cpp:100] Creating Layer conv4_3_norm_mbox_conf_0_bn
I1018 10:13:04.515419  7444 net.cpp:434] conv4_3_norm_mbox_conf_0_bn <- conv4_3_norm_mbox_conf_0
I1018 10:13:04.516419  7444 net.cpp:395] conv4_3_norm_mbox_conf_0_bn -> conv4_3_norm_mbox_conf_0 (in-place)
I1018 10:13:04.516419  7444 net.cpp:150] Setting up conv4_3_norm_mbox_conf_0_bn
I1018 10:13:04.516419  7444 net.cpp:157] Top shape: 32 64 32 48 (3145728)
I1018 10:13:04.517419  7444 net.cpp:165] Memory required for data: 3034382400
I1018 10:13:04.517419  7444 layer_factory.hpp:77] Creating layer conv4_3_norm_mbox_conf_2
I1018 10:13:04.517419  7444 net.cpp:100] Creating Layer conv4_3_norm_mbox_conf_2
I1018 10:13:04.517419  7444 net.cpp:434] conv4_3_norm_mbox_conf_2 <- conv4_3_norm_mbox_conf_0
I1018 10:13:04.518419  7444 net.cpp:408] conv4_3_norm_mbox_conf_2 -> conv4_3_norm_mbox_conf_2
I1018 10:13:04.519419  7444 net.cpp:150] Setting up conv4_3_norm_mbox_conf_2
I1018 10:13:04.520419  7444 net.cpp:157] Top shape: 32 64 32 48 (3145728)
I1018 10:13:04.520419  7444 net.cpp:165] Memory required for data: 3046965312
I1018 10:13:04.520419  7444 layer_factory.hpp:77] Creating layer conv4_3_norm_mbox_conf_2_relu
I1018 10:13:04.520419  7444 net.cpp:100] Creating Layer conv4_3_norm_mbox_conf_2_relu
I1018 10:13:04.520419  7444 net.cpp:434] conv4_3_norm_mbox_conf_2_relu <- conv4_3_norm_mbox_conf_2
I1018 10:13:04.521420  7444 net.cpp:395] conv4_3_norm_mbox_conf_2_relu -> conv4_3_norm_mbox_conf_2 (in-place)
I1018 10:13:04.521420  7444 net.cpp:150] Setting up conv4_3_norm_mbox_conf_2_relu
I1018 10:13:04.522419  7444 net.cpp:157] Top shape: 32 64 32 48 (3145728)
I1018 10:13:04.522419  7444 net.cpp:165] Memory required for data: 3059548224
I1018 10:13:04.522419  7444 layer_factory.hpp:77] Creating layer conv4_3_norm_mbox_conf_2_bn
I1018 10:13:04.522419  7444 net.cpp:100] Creating Layer conv4_3_norm_mbox_conf_2_bn
I1018 10:13:04.523419  7444 net.cpp:434] conv4_3_norm_mbox_conf_2_bn <- conv4_3_norm_mbox_conf_2
I1018 10:13:04.523419  7444 net.cpp:395] conv4_3_norm_mbox_conf_2_bn -> conv4_3_norm_mbox_conf_2 (in-place)
I1018 10:13:04.523419  7444 net.cpp:150] Setting up conv4_3_norm_mbox_conf_2_bn
I1018 10:13:04.523419  7444 net.cpp:157] Top shape: 32 64 32 48 (3145728)
I1018 10:13:04.524420  7444 net.cpp:165] Memory required for data: 3072131136
I1018 10:13:04.524420  7444 layer_factory.hpp:77] Creating layer conv4_3_norm_mbox_conf_3
I1018 10:13:04.524420  7444 net.cpp:100] Creating Layer conv4_3_norm_mbox_conf_3
I1018 10:13:04.525419  7444 net.cpp:434] conv4_3_norm_mbox_conf_3 <- conv4_3_norm_mbox_conf_2
I1018 10:13:04.525419  7444 net.cpp:408] conv4_3_norm_mbox_conf_3 -> conv4_3_norm_mbox_conf_3
I1018 10:13:04.526419  7444 net.cpp:150] Setting up conv4_3_norm_mbox_conf_3
I1018 10:13:04.527420  7444 net.cpp:157] Top shape: 32 12 32 48 (589824)
I1018 10:13:04.527420  7444 net.cpp:165] Memory required for data: 3074490432
I1018 10:13:04.527420  7444 layer_factory.hpp:77] Creating layer conv4_3_norm_mbox_conf_perm_1
I1018 10:13:04.528419  7444 net.cpp:100] Creating Layer conv4_3_norm_mbox_conf_perm_1
I1018 10:13:04.528419  7444 net.cpp:434] conv4_3_norm_mbox_conf_perm_1 <- conv4_3_norm_mbox_conf_3
I1018 10:13:04.528419  7444 net.cpp:408] conv4_3_norm_mbox_conf_perm_1 -> conv4_3_norm_mbox_conf_perm_1
I1018 10:13:04.528419  7444 net.cpp:150] Setting up conv4_3_norm_mbox_conf_perm_1
I1018 10:13:04.529419  7444 net.cpp:157] Top shape: 32 32 48 12 (589824)
I1018 10:13:04.529419  7444 net.cpp:165] Memory required for data: 3076849728
I1018 10:13:04.529419  7444 layer_factory.hpp:77] Creating layer conv4_3_norm_mbox_conf_flat_1
I1018 10:13:04.529419  7444 net.cpp:100] Creating Layer conv4_3_norm_mbox_conf_flat_1
I1018 10:13:04.529419  7444 net.cpp:434] conv4_3_norm_mbox_conf_flat_1 <- conv4_3_norm_mbox_conf_perm_1
I1018 10:13:04.530419  7444 net.cpp:408] conv4_3_norm_mbox_conf_flat_1 -> conv4_3_norm_mbox_conf_flat_1
I1018 10:13:04.530419  7444 net.cpp:150] Setting up conv4_3_norm_mbox_conf_flat_1
I1018 10:13:04.530419  7444 net.cpp:157] Top shape: 32 18432 (589824)
I1018 10:13:04.530419  7444 net.cpp:165] Memory required for data: 3079209024
I1018 10:13:04.531419  7444 layer_factory.hpp:77] Creating layer conv4_3_norm_mbox_priorbox_1
I1018 10:13:04.531419  7444 net.cpp:100] Creating Layer conv4_3_norm_mbox_priorbox_1
I1018 10:13:04.531419  7444 net.cpp:434] conv4_3_norm_mbox_priorbox_1 <- conv4_3_norm_1_conv4_3_norm_1_0_split_2
I1018 10:13:04.531419  7444 net.cpp:434] conv4_3_norm_mbox_priorbox_1 <- data_data_0_split_1
I1018 10:13:04.532419  7444 net.cpp:408] conv4_3_norm_mbox_priorbox_1 -> conv4_3_norm_mbox_priorbox_1
I1018 10:13:04.532419  7444 net.cpp:150] Setting up conv4_3_norm_mbox_priorbox_1
I1018 10:13:04.532419  7444 net.cpp:157] Top shape: 1 2 36864 (73728)
I1018 10:13:04.532419  7444 net.cpp:165] Memory required for data: 3079503936
I1018 10:13:04.533419  7444 layer_factory.hpp:77] Creating layer fc7_mbox_loc_1
I1018 10:13:04.533419  7444 net.cpp:100] Creating Layer fc7_mbox_loc_1
I1018 10:13:04.533419  7444 net.cpp:434] fc7_mbox_loc_1 <- fire9/concat_fire9/concat_bn_0_split_1
I1018 10:13:04.533419  7444 net.cpp:408] fc7_mbox_loc_1 -> fc7_mbox_loc_1
I1018 10:13:04.535420  7444 net.cpp:150] Setting up fc7_mbox_loc_1
I1018 10:13:04.536420  7444 net.cpp:157] Top shape: 32 24 16 24 (294912)
I1018 10:13:04.536420  7444 net.cpp:165] Memory required for data: 3080683584
I1018 10:13:04.536420  7444 layer_factory.hpp:77] Creating layer fc7_mbox_loc_perm_1
I1018 10:13:04.536420  7444 net.cpp:100] Creating Layer fc7_mbox_loc_perm_1
I1018 10:13:04.537420  7444 net.cpp:434] fc7_mbox_loc_perm_1 <- fc7_mbox_loc_1
I1018 10:13:04.537420  7444 net.cpp:408] fc7_mbox_loc_perm_1 -> fc7_mbox_loc_perm_1
I1018 10:13:04.538420  7444 net.cpp:150] Setting up fc7_mbox_loc_perm_1
I1018 10:13:04.538420  7444 net.cpp:157] Top shape: 32 16 24 24 (294912)
I1018 10:13:04.538420  7444 net.cpp:165] Memory required for data: 3081863232
I1018 10:13:04.538420  7444 layer_factory.hpp:77] Creating layer fc7_mbox_loc_flat_1
I1018 10:13:04.538420  7444 net.cpp:100] Creating Layer fc7_mbox_loc_flat_1
I1018 10:13:04.539420  7444 net.cpp:434] fc7_mbox_loc_flat_1 <- fc7_mbox_loc_perm_1
I1018 10:13:04.539420  7444 net.cpp:408] fc7_mbox_loc_flat_1 -> fc7_mbox_loc_flat_1
I1018 10:13:04.539420  7444 net.cpp:150] Setting up fc7_mbox_loc_flat_1
I1018 10:13:04.539420  7444 net.cpp:157] Top shape: 32 9216 (294912)
I1018 10:13:04.539420  7444 net.cpp:165] Memory required for data: 3083042880
I1018 10:13:04.540421  7444 layer_factory.hpp:77] Creating layer fc7_mbox_conf_0
I1018 10:13:04.540421  7444 net.cpp:100] Creating Layer fc7_mbox_conf_0
I1018 10:13:04.540421  7444 net.cpp:434] fc7_mbox_conf_0 <- fire9/concat_fire9/concat_bn_0_split_2
I1018 10:13:04.540421  7444 net.cpp:408] fc7_mbox_conf_0 -> fc7_mbox_conf_0
I1018 10:13:04.542420  7444 net.cpp:150] Setting up fc7_mbox_conf_0
I1018 10:13:04.542420  7444 net.cpp:157] Top shape: 32 64 16 24 (786432)
I1018 10:13:04.543421  7444 net.cpp:165] Memory required for data: 3086188608
I1018 10:13:04.543421  7444 layer_factory.hpp:77] Creating layer fc7_mbox_conf_0_relu
I1018 10:13:04.543421  7444 net.cpp:100] Creating Layer fc7_mbox_conf_0_relu
I1018 10:13:04.543421  7444 net.cpp:434] fc7_mbox_conf_0_relu <- fc7_mbox_conf_0
I1018 10:13:04.543421  7444 net.cpp:395] fc7_mbox_conf_0_relu -> fc7_mbox_conf_0 (in-place)
I1018 10:13:04.544420  7444 net.cpp:150] Setting up fc7_mbox_conf_0_relu
I1018 10:13:04.544420  7444 net.cpp:157] Top shape: 32 64 16 24 (786432)
I1018 10:13:04.545420  7444 net.cpp:165] Memory required for data: 3089334336
I1018 10:13:04.545420  7444 layer_factory.hpp:77] Creating layer fc7_mbox_conf_0_bn
I1018 10:13:04.545420  7444 net.cpp:100] Creating Layer fc7_mbox_conf_0_bn
I1018 10:13:04.545420  7444 net.cpp:434] fc7_mbox_conf_0_bn <- fc7_mbox_conf_0
I1018 10:13:04.546420  7444 net.cpp:395] fc7_mbox_conf_0_bn -> fc7_mbox_conf_0 (in-place)
I1018 10:13:04.546420  7444 net.cpp:150] Setting up fc7_mbox_conf_0_bn
I1018 10:13:04.546420  7444 net.cpp:157] Top shape: 32 64 16 24 (786432)
I1018 10:13:04.547420  7444 net.cpp:165] Memory required for data: 3092480064
I1018 10:13:04.547420  7444 layer_factory.hpp:77] Creating layer fc7_mbox_conf_2
I1018 10:13:04.547420  7444 net.cpp:100] Creating Layer fc7_mbox_conf_2
I1018 10:13:04.547420  7444 net.cpp:434] fc7_mbox_conf_2 <- fc7_mbox_conf_0
I1018 10:13:04.547420  7444 net.cpp:408] fc7_mbox_conf_2 -> fc7_mbox_conf_2
I1018 10:13:04.549420  7444 net.cpp:150] Setting up fc7_mbox_conf_2
I1018 10:13:04.549420  7444 net.cpp:157] Top shape: 32 64 16 24 (786432)
I1018 10:13:04.550420  7444 net.cpp:165] Memory required for data: 3095625792
I1018 10:13:04.550420  7444 layer_factory.hpp:77] Creating layer fc7_mbox_conf_2_relu
I1018 10:13:04.550420  7444 net.cpp:100] Creating Layer fc7_mbox_conf_2_relu
I1018 10:13:04.551421  7444 net.cpp:434] fc7_mbox_conf_2_relu <- fc7_mbox_conf_2
I1018 10:13:04.551421  7444 net.cpp:395] fc7_mbox_conf_2_relu -> fc7_mbox_conf_2 (in-place)
I1018 10:13:04.551421  7444 net.cpp:150] Setting up fc7_mbox_conf_2_relu
I1018 10:13:04.552422  7444 net.cpp:157] Top shape: 32 64 16 24 (786432)
I1018 10:13:04.552422  7444 net.cpp:165] Memory required for data: 3098771520
I1018 10:13:04.552422  7444 layer_factory.hpp:77] Creating layer fc7_mbox_conf_2_bn
I1018 10:13:04.552422  7444 net.cpp:100] Creating Layer fc7_mbox_conf_2_bn
I1018 10:13:04.553421  7444 net.cpp:434] fc7_mbox_conf_2_bn <- fc7_mbox_conf_2
I1018 10:13:04.553421  7444 net.cpp:395] fc7_mbox_conf_2_bn -> fc7_mbox_conf_2 (in-place)
I1018 10:13:04.553421  7444 net.cpp:150] Setting up fc7_mbox_conf_2_bn
I1018 10:13:04.554421  7444 net.cpp:157] Top shape: 32 64 16 24 (786432)
I1018 10:13:04.554421  7444 net.cpp:165] Memory required for data: 3101917248
I1018 10:13:04.554421  7444 layer_factory.hpp:77] Creating layer fc7_mbox_conf_3
I1018 10:13:04.554421  7444 net.cpp:100] Creating Layer fc7_mbox_conf_3
I1018 10:13:04.555421  7444 net.cpp:434] fc7_mbox_conf_3 <- fc7_mbox_conf_2
I1018 10:13:04.555421  7444 net.cpp:408] fc7_mbox_conf_3 -> fc7_mbox_conf_3
I1018 10:13:04.556421  7444 net.cpp:150] Setting up fc7_mbox_conf_3
I1018 10:13:04.557421  7444 net.cpp:157] Top shape: 32 12 16 24 (147456)
I1018 10:13:04.557421  7444 net.cpp:165] Memory required for data: 3102507072
I1018 10:13:04.557421  7444 layer_factory.hpp:77] Creating layer fc7_mbox_conf_perm_1
I1018 10:13:04.557421  7444 net.cpp:100] Creating Layer fc7_mbox_conf_perm_1
I1018 10:13:04.557421  7444 net.cpp:434] fc7_mbox_conf_perm_1 <- fc7_mbox_conf_3
I1018 10:13:04.558421  7444 net.cpp:408] fc7_mbox_conf_perm_1 -> fc7_mbox_conf_perm_1
I1018 10:13:04.558421  7444 net.cpp:150] Setting up fc7_mbox_conf_perm_1
I1018 10:13:04.558421  7444 net.cpp:157] Top shape: 32 16 24 12 (147456)
I1018 10:13:04.559422  7444 net.cpp:165] Memory required for data: 3103096896
I1018 10:13:04.559422  7444 layer_factory.hpp:77] Creating layer fc7_mbox_conf_flat_1
I1018 10:13:04.559422  7444 net.cpp:100] Creating Layer fc7_mbox_conf_flat_1
I1018 10:13:04.559422  7444 net.cpp:434] fc7_mbox_conf_flat_1 <- fc7_mbox_conf_perm_1
I1018 10:13:04.559422  7444 net.cpp:408] fc7_mbox_conf_flat_1 -> fc7_mbox_conf_flat_1
I1018 10:13:04.560421  7444 net.cpp:150] Setting up fc7_mbox_conf_flat_1
I1018 10:13:04.560421  7444 net.cpp:157] Top shape: 32 4608 (147456)
I1018 10:13:04.560421  7444 net.cpp:165] Memory required for data: 3103686720
I1018 10:13:04.560421  7444 layer_factory.hpp:77] Creating layer fc7_mbox_priorbox_1
I1018 10:13:04.560421  7444 net.cpp:100] Creating Layer fc7_mbox_priorbox_1
I1018 10:13:04.561421  7444 net.cpp:434] fc7_mbox_priorbox_1 <- fire9/concat_fire9/concat_bn_0_split_3
I1018 10:13:04.561421  7444 net.cpp:434] fc7_mbox_priorbox_1 <- data_data_0_split_2
I1018 10:13:04.561421  7444 net.cpp:408] fc7_mbox_priorbox_1 -> fc7_mbox_priorbox_1
I1018 10:13:04.561421  7444 net.cpp:150] Setting up fc7_mbox_priorbox_1
I1018 10:13:04.562422  7444 net.cpp:157] Top shape: 1 2 9216 (18432)
I1018 10:13:04.562422  7444 net.cpp:165] Memory required for data: 3103760448
I1018 10:13:04.562422  7444 layer_factory.hpp:77] Creating layer conv6_2_mbox_loc_1
I1018 10:13:04.563421  7444 net.cpp:100] Creating Layer conv6_2_mbox_loc_1
I1018 10:13:04.563421  7444 net.cpp:434] conv6_2_mbox_loc_1 <- conv6_2_conv6_2_bn_0_split_1
I1018 10:13:04.563421  7444 net.cpp:408] conv6_2_mbox_loc_1 -> conv6_2_mbox_loc_1
I1018 10:13:04.565421  7444 net.cpp:150] Setting up conv6_2_mbox_loc_1
I1018 10:13:04.566421  7444 net.cpp:157] Top shape: 32 24 8 12 (73728)
I1018 10:13:04.566421  7444 net.cpp:165] Memory required for data: 3104055360
I1018 10:13:04.566421  7444 layer_factory.hpp:77] Creating layer conv6_2_mbox_loc_perm_1
I1018 10:13:04.566421  7444 net.cpp:100] Creating Layer conv6_2_mbox_loc_perm_1
I1018 10:13:04.566421  7444 net.cpp:434] conv6_2_mbox_loc_perm_1 <- conv6_2_mbox_loc_1
I1018 10:13:04.567421  7444 net.cpp:408] conv6_2_mbox_loc_perm_1 -> conv6_2_mbox_loc_perm_1
I1018 10:13:04.567421  7444 net.cpp:150] Setting up conv6_2_mbox_loc_perm_1
I1018 10:13:04.567421  7444 net.cpp:157] Top shape: 32 8 12 24 (73728)
I1018 10:13:04.567421  7444 net.cpp:165] Memory required for data: 3104350272
I1018 10:13:04.568421  7444 layer_factory.hpp:77] Creating layer conv6_2_mbox_loc_flat_1
I1018 10:13:04.568421  7444 net.cpp:100] Creating Layer conv6_2_mbox_loc_flat_1
I1018 10:13:04.568421  7444 net.cpp:434] conv6_2_mbox_loc_flat_1 <- conv6_2_mbox_loc_perm_1
I1018 10:13:04.568421  7444 net.cpp:408] conv6_2_mbox_loc_flat_1 -> conv6_2_mbox_loc_flat_1
I1018 10:13:04.569422  7444 net.cpp:150] Setting up conv6_2_mbox_loc_flat_1
I1018 10:13:04.569422  7444 net.cpp:157] Top shape: 32 2304 (73728)
I1018 10:13:04.569422  7444 net.cpp:165] Memory required for data: 3104645184
I1018 10:13:04.569422  7444 layer_factory.hpp:77] Creating layer conv6_2_mbox_conf_0
I1018 10:13:04.570422  7444 net.cpp:100] Creating Layer conv6_2_mbox_conf_0
I1018 10:13:04.570422  7444 net.cpp:434] conv6_2_mbox_conf_0 <- conv6_2_conv6_2_bn_0_split_2
I1018 10:13:04.570422  7444 net.cpp:408] conv6_2_mbox_conf_0 -> conv6_2_mbox_conf_0
I1018 10:13:04.572422  7444 net.cpp:150] Setting up conv6_2_mbox_conf_0
I1018 10:13:04.572422  7444 net.cpp:157] Top shape: 32 64 8 12 (196608)
I1018 10:13:04.572422  7444 net.cpp:165] Memory required for data: 3105431616
I1018 10:13:04.572422  7444 layer_factory.hpp:77] Creating layer conv6_2_mbox_conf_0_relu
I1018 10:13:04.572422  7444 net.cpp:100] Creating Layer conv6_2_mbox_conf_0_relu
I1018 10:13:04.573422  7444 net.cpp:434] conv6_2_mbox_conf_0_relu <- conv6_2_mbox_conf_0
I1018 10:13:04.573422  7444 net.cpp:395] conv6_2_mbox_conf_0_relu -> conv6_2_mbox_conf_0 (in-place)
I1018 10:13:04.574422  7444 net.cpp:150] Setting up conv6_2_mbox_conf_0_relu
I1018 10:13:04.574422  7444 net.cpp:157] Top shape: 32 64 8 12 (196608)
I1018 10:13:04.574422  7444 net.cpp:165] Memory required for data: 3106218048
I1018 10:13:04.574422  7444 layer_factory.hpp:77] Creating layer conv6_2_mbox_conf_0_bn
I1018 10:13:04.575423  7444 net.cpp:100] Creating Layer conv6_2_mbox_conf_0_bn
I1018 10:13:04.575423  7444 net.cpp:434] conv6_2_mbox_conf_0_bn <- conv6_2_mbox_conf_0
I1018 10:13:04.575423  7444 net.cpp:395] conv6_2_mbox_conf_0_bn -> conv6_2_mbox_conf_0 (in-place)
I1018 10:13:04.576422  7444 net.cpp:150] Setting up conv6_2_mbox_conf_0_bn
I1018 10:13:04.576422  7444 net.cpp:157] Top shape: 32 64 8 12 (196608)
I1018 10:13:04.576422  7444 net.cpp:165] Memory required for data: 3107004480
I1018 10:13:04.576422  7444 layer_factory.hpp:77] Creating layer conv6_2_mbox_conf_2
I1018 10:13:04.576422  7444 net.cpp:100] Creating Layer conv6_2_mbox_conf_2
I1018 10:13:04.577422  7444 net.cpp:434] conv6_2_mbox_conf_2 <- conv6_2_mbox_conf_0
I1018 10:13:04.577422  7444 net.cpp:408] conv6_2_mbox_conf_2 -> conv6_2_mbox_conf_2
I1018 10:13:04.579422  7444 net.cpp:150] Setting up conv6_2_mbox_conf_2
I1018 10:13:04.579422  7444 net.cpp:157] Top shape: 32 64 8 12 (196608)
I1018 10:13:04.580422  7444 net.cpp:165] Memory required for data: 3107790912
I1018 10:13:04.580422  7444 layer_factory.hpp:77] Creating layer conv6_2_mbox_conf_2_relu
I1018 10:13:04.580422  7444 net.cpp:100] Creating Layer conv6_2_mbox_conf_2_relu
I1018 10:13:04.580422  7444 net.cpp:434] conv6_2_mbox_conf_2_relu <- conv6_2_mbox_conf_2
I1018 10:13:04.580422  7444 net.cpp:395] conv6_2_mbox_conf_2_relu -> conv6_2_mbox_conf_2 (in-place)
I1018 10:13:04.581423  7444 net.cpp:150] Setting up conv6_2_mbox_conf_2_relu
I1018 10:13:04.581423  7444 net.cpp:157] Top shape: 32 64 8 12 (196608)
I1018 10:13:04.581423  7444 net.cpp:165] Memory required for data: 3108577344
I1018 10:13:04.582422  7444 layer_factory.hpp:77] Creating layer conv6_2_mbox_conf_2_bn
I1018 10:13:04.582422  7444 net.cpp:100] Creating Layer conv6_2_mbox_conf_2_bn
I1018 10:13:04.582422  7444 net.cpp:434] conv6_2_mbox_conf_2_bn <- conv6_2_mbox_conf_2
I1018 10:13:04.582422  7444 net.cpp:395] conv6_2_mbox_conf_2_bn -> conv6_2_mbox_conf_2 (in-place)
I1018 10:13:04.583422  7444 net.cpp:150] Setting up conv6_2_mbox_conf_2_bn
I1018 10:13:04.583422  7444 net.cpp:157] Top shape: 32 64 8 12 (196608)
I1018 10:13:04.583422  7444 net.cpp:165] Memory required for data: 3109363776
I1018 10:13:04.584422  7444 layer_factory.hpp:77] Creating layer conv6_2_mbox_conf_3
I1018 10:13:04.584422  7444 net.cpp:100] Creating Layer conv6_2_mbox_conf_3
I1018 10:13:04.584422  7444 net.cpp:434] conv6_2_mbox_conf_3 <- conv6_2_mbox_conf_2
I1018 10:13:04.584422  7444 net.cpp:408] conv6_2_mbox_conf_3 -> conv6_2_mbox_conf_3
I1018 10:13:04.586423  7444 net.cpp:150] Setting up conv6_2_mbox_conf_3
I1018 10:13:04.586423  7444 net.cpp:157] Top shape: 32 12 8 12 (36864)
I1018 10:13:04.586423  7444 net.cpp:165] Memory required for data: 3109511232
I1018 10:13:04.586423  7444 layer_factory.hpp:77] Creating layer conv6_2_mbox_conf_perm_1
I1018 10:13:04.586423  7444 net.cpp:100] Creating Layer conv6_2_mbox_conf_perm_1
I1018 10:13:04.587424  7444 net.cpp:434] conv6_2_mbox_conf_perm_1 <- conv6_2_mbox_conf_3
I1018 10:13:04.587424  7444 net.cpp:408] conv6_2_mbox_conf_perm_1 -> conv6_2_mbox_conf_perm_1
I1018 10:13:04.587424  7444 net.cpp:150] Setting up conv6_2_mbox_conf_perm_1
I1018 10:13:04.587424  7444 net.cpp:157] Top shape: 32 8 12 12 (36864)
I1018 10:13:04.588423  7444 net.cpp:165] Memory required for data: 3109658688
I1018 10:13:04.588423  7444 layer_factory.hpp:77] Creating layer conv6_2_mbox_conf_flat_1
I1018 10:13:04.588423  7444 net.cpp:100] Creating Layer conv6_2_mbox_conf_flat_1
I1018 10:13:04.588423  7444 net.cpp:434] conv6_2_mbox_conf_flat_1 <- conv6_2_mbox_conf_perm_1
I1018 10:13:04.589423  7444 net.cpp:408] conv6_2_mbox_conf_flat_1 -> conv6_2_mbox_conf_flat_1
I1018 10:13:04.589423  7444 net.cpp:150] Setting up conv6_2_mbox_conf_flat_1
I1018 10:13:04.589423  7444 net.cpp:157] Top shape: 32 1152 (36864)
I1018 10:13:04.589423  7444 net.cpp:165] Memory required for data: 3109806144
I1018 10:13:04.590423  7444 layer_factory.hpp:77] Creating layer conv6_2_mbox_priorbox_1
I1018 10:13:04.590423  7444 net.cpp:100] Creating Layer conv6_2_mbox_priorbox_1
I1018 10:13:04.590423  7444 net.cpp:434] conv6_2_mbox_priorbox_1 <- conv6_2_conv6_2_bn_0_split_3
I1018 10:13:04.590423  7444 net.cpp:434] conv6_2_mbox_priorbox_1 <- data_data_0_split_3
I1018 10:13:04.590423  7444 net.cpp:408] conv6_2_mbox_priorbox_1 -> conv6_2_mbox_priorbox_1
I1018 10:13:04.591423  7444 net.cpp:150] Setting up conv6_2_mbox_priorbox_1
I1018 10:13:04.591423  7444 net.cpp:157] Top shape: 1 2 2304 (4608)
I1018 10:13:04.591423  7444 net.cpp:165] Memory required for data: 3109824576
I1018 10:13:04.591423  7444 layer_factory.hpp:77] Creating layer conv7_2_mbox_loc_1
I1018 10:13:04.592423  7444 net.cpp:100] Creating Layer conv7_2_mbox_loc_1
I1018 10:13:04.592423  7444 net.cpp:434] conv7_2_mbox_loc_1 <- conv7_2_conv7_2_bn_0_split_1
I1018 10:13:04.592423  7444 net.cpp:408] conv7_2_mbox_loc_1 -> conv7_2_mbox_loc_1
I1018 10:13:04.594424  7444 net.cpp:150] Setting up conv7_2_mbox_loc_1
I1018 10:13:04.594424  7444 net.cpp:157] Top shape: 32 24 4 6 (18432)
I1018 10:13:04.594424  7444 net.cpp:165] Memory required for data: 3109898304
I1018 10:13:04.595423  7444 layer_factory.hpp:77] Creating layer conv7_2_mbox_loc_perm_1
I1018 10:13:04.595423  7444 net.cpp:100] Creating Layer conv7_2_mbox_loc_perm_1
I1018 10:13:04.595423  7444 net.cpp:434] conv7_2_mbox_loc_perm_1 <- conv7_2_mbox_loc_1
I1018 10:13:04.595423  7444 net.cpp:408] conv7_2_mbox_loc_perm_1 -> conv7_2_mbox_loc_perm_1
I1018 10:13:04.596423  7444 net.cpp:150] Setting up conv7_2_mbox_loc_perm_1
I1018 10:13:04.596423  7444 net.cpp:157] Top shape: 32 4 6 24 (18432)
I1018 10:13:04.596423  7444 net.cpp:165] Memory required for data: 3109972032
I1018 10:13:04.596423  7444 layer_factory.hpp:77] Creating layer conv7_2_mbox_loc_flat_1
I1018 10:13:04.596423  7444 net.cpp:100] Creating Layer conv7_2_mbox_loc_flat_1
I1018 10:13:04.597424  7444 net.cpp:434] conv7_2_mbox_loc_flat_1 <- conv7_2_mbox_loc_perm_1
I1018 10:13:04.597424  7444 net.cpp:408] conv7_2_mbox_loc_flat_1 -> conv7_2_mbox_loc_flat_1
I1018 10:13:04.597424  7444 net.cpp:150] Setting up conv7_2_mbox_loc_flat_1
I1018 10:13:04.598423  7444 net.cpp:157] Top shape: 32 576 (18432)
I1018 10:13:04.598423  7444 net.cpp:165] Memory required for data: 3110045760
I1018 10:13:04.598423  7444 layer_factory.hpp:77] Creating layer conv7_2_mbox_conf_0
I1018 10:13:04.598423  7444 net.cpp:100] Creating Layer conv7_2_mbox_conf_0
I1018 10:13:04.598423  7444 net.cpp:434] conv7_2_mbox_conf_0 <- conv7_2_conv7_2_bn_0_split_2
I1018 10:13:04.599423  7444 net.cpp:408] conv7_2_mbox_conf_0 -> conv7_2_mbox_conf_0
I1018 10:13:04.600423  7444 net.cpp:150] Setting up conv7_2_mbox_conf_0
I1018 10:13:04.600423  7444 net.cpp:157] Top shape: 32 64 4 6 (49152)
I1018 10:13:04.601423  7444 net.cpp:165] Memory required for data: 3110242368
I1018 10:13:04.601423  7444 layer_factory.hpp:77] Creating layer conv7_2_mbox_conf_0_relu
I1018 10:13:04.601423  7444 net.cpp:100] Creating Layer conv7_2_mbox_conf_0_relu
I1018 10:13:04.601423  7444 net.cpp:434] conv7_2_mbox_conf_0_relu <- conv7_2_mbox_conf_0
I1018 10:13:04.602423  7444 net.cpp:395] conv7_2_mbox_conf_0_relu -> conv7_2_mbox_conf_0 (in-place)
I1018 10:13:04.602423  7444 net.cpp:150] Setting up conv7_2_mbox_conf_0_relu
I1018 10:13:04.602423  7444 net.cpp:157] Top shape: 32 64 4 6 (49152)
I1018 10:13:04.603423  7444 net.cpp:165] Memory required for data: 3110438976
I1018 10:13:04.603423  7444 layer_factory.hpp:77] Creating layer conv7_2_mbox_conf_0_bn
I1018 10:13:04.603423  7444 net.cpp:100] Creating Layer conv7_2_mbox_conf_0_bn
I1018 10:13:04.603423  7444 net.cpp:434] conv7_2_mbox_conf_0_bn <- conv7_2_mbox_conf_0
I1018 10:13:04.604424  7444 net.cpp:395] conv7_2_mbox_conf_0_bn -> conv7_2_mbox_conf_0 (in-place)
I1018 10:13:04.604424  7444 net.cpp:150] Setting up conv7_2_mbox_conf_0_bn
I1018 10:13:04.604424  7444 net.cpp:157] Top shape: 32 64 4 6 (49152)
I1018 10:13:04.605424  7444 net.cpp:165] Memory required for data: 3110635584
I1018 10:13:04.605424  7444 layer_factory.hpp:77] Creating layer conv7_2_mbox_conf_2
I1018 10:13:04.605424  7444 net.cpp:100] Creating Layer conv7_2_mbox_conf_2
I1018 10:13:04.605424  7444 net.cpp:434] conv7_2_mbox_conf_2 <- conv7_2_mbox_conf_0
I1018 10:13:04.605424  7444 net.cpp:408] conv7_2_mbox_conf_2 -> conv7_2_mbox_conf_2
I1018 10:13:04.607424  7444 net.cpp:150] Setting up conv7_2_mbox_conf_2
I1018 10:13:04.607424  7444 net.cpp:157] Top shape: 32 64 4 6 (49152)
I1018 10:13:04.608424  7444 net.cpp:165] Memory required for data: 3110832192
I1018 10:13:04.608424  7444 layer_factory.hpp:77] Creating layer conv7_2_mbox_conf_2_relu
I1018 10:13:04.608424  7444 net.cpp:100] Creating Layer conv7_2_mbox_conf_2_relu
I1018 10:13:04.608424  7444 net.cpp:434] conv7_2_mbox_conf_2_relu <- conv7_2_mbox_conf_2
I1018 10:13:04.609424  7444 net.cpp:395] conv7_2_mbox_conf_2_relu -> conv7_2_mbox_conf_2 (in-place)
I1018 10:13:04.609424  7444 net.cpp:150] Setting up conv7_2_mbox_conf_2_relu
I1018 10:13:04.609424  7444 net.cpp:157] Top shape: 32 64 4 6 (49152)
I1018 10:13:04.610424  7444 net.cpp:165] Memory required for data: 3111028800
I1018 10:13:04.610424  7444 layer_factory.hpp:77] Creating layer conv7_2_mbox_conf_2_bn
I1018 10:13:04.610424  7444 net.cpp:100] Creating Layer conv7_2_mbox_conf_2_bn
I1018 10:13:04.610424  7444 net.cpp:434] conv7_2_mbox_conf_2_bn <- conv7_2_mbox_conf_2
I1018 10:13:04.611424  7444 net.cpp:395] conv7_2_mbox_conf_2_bn -> conv7_2_mbox_conf_2 (in-place)
I1018 10:13:04.611424  7444 net.cpp:150] Setting up conv7_2_mbox_conf_2_bn
I1018 10:13:04.611424  7444 net.cpp:157] Top shape: 32 64 4 6 (49152)
I1018 10:13:04.612424  7444 net.cpp:165] Memory required for data: 3111225408
I1018 10:13:04.612424  7444 layer_factory.hpp:77] Creating layer conv7_2_mbox_conf_3
I1018 10:13:04.612424  7444 net.cpp:100] Creating Layer conv7_2_mbox_conf_3
I1018 10:13:04.612424  7444 net.cpp:434] conv7_2_mbox_conf_3 <- conv7_2_mbox_conf_2
I1018 10:13:04.613425  7444 net.cpp:408] conv7_2_mbox_conf_3 -> conv7_2_mbox_conf_3
I1018 10:13:04.614424  7444 net.cpp:150] Setting up conv7_2_mbox_conf_3
I1018 10:13:04.614424  7444 net.cpp:157] Top shape: 32 12 4 6 (9216)
I1018 10:13:04.615424  7444 net.cpp:165] Memory required for data: 3111262272
I1018 10:13:04.615424  7444 layer_factory.hpp:77] Creating layer conv7_2_mbox_conf_perm_1
I1018 10:13:04.615424  7444 net.cpp:100] Creating Layer conv7_2_mbox_conf_perm_1
I1018 10:13:04.615424  7444 net.cpp:434] conv7_2_mbox_conf_perm_1 <- conv7_2_mbox_conf_3
I1018 10:13:04.616425  7444 net.cpp:408] conv7_2_mbox_conf_perm_1 -> conv7_2_mbox_conf_perm_1
I1018 10:13:04.616425  7444 net.cpp:150] Setting up conv7_2_mbox_conf_perm_1
I1018 10:13:04.616425  7444 net.cpp:157] Top shape: 32 4 6 12 (9216)
I1018 10:13:04.616425  7444 net.cpp:165] Memory required for data: 3111299136
I1018 10:13:04.617424  7444 layer_factory.hpp:77] Creating layer conv7_2_mbox_conf_flat_1
I1018 10:13:04.617424  7444 net.cpp:100] Creating Layer conv7_2_mbox_conf_flat_1
I1018 10:13:04.617424  7444 net.cpp:434] conv7_2_mbox_conf_flat_1 <- conv7_2_mbox_conf_perm_1
I1018 10:13:04.617424  7444 net.cpp:408] conv7_2_mbox_conf_flat_1 -> conv7_2_mbox_conf_flat_1
I1018 10:13:04.618424  7444 net.cpp:150] Setting up conv7_2_mbox_conf_flat_1
I1018 10:13:04.618424  7444 net.cpp:157] Top shape: 32 288 (9216)
I1018 10:13:04.618424  7444 net.cpp:165] Memory required for data: 3111336000
I1018 10:13:04.618424  7444 layer_factory.hpp:77] Creating layer conv7_2_mbox_priorbox_1
I1018 10:13:04.619424  7444 net.cpp:100] Creating Layer conv7_2_mbox_priorbox_1
I1018 10:13:04.619424  7444 net.cpp:434] conv7_2_mbox_priorbox_1 <- conv7_2_conv7_2_bn_0_split_3
I1018 10:13:04.619424  7444 net.cpp:434] conv7_2_mbox_priorbox_1 <- data_data_0_split_4
I1018 10:13:04.619424  7444 net.cpp:408] conv7_2_mbox_priorbox_1 -> conv7_2_mbox_priorbox_1
I1018 10:13:04.619424  7444 net.cpp:150] Setting up conv7_2_mbox_priorbox_1
I1018 10:13:04.620424  7444 net.cpp:157] Top shape: 1 2 576 (1152)
I1018 10:13:04.620424  7444 net.cpp:165] Memory required for data: 3111340608
I1018 10:13:04.620424  7444 layer_factory.hpp:77] Creating layer conv8_2_mbox_loc_1
I1018 10:13:04.620424  7444 net.cpp:100] Creating Layer conv8_2_mbox_loc_1
I1018 10:13:04.621425  7444 net.cpp:434] conv8_2_mbox_loc_1 <- conv8_2_conv8_2_bn_0_split_1
I1018 10:13:04.621425  7444 net.cpp:408] conv8_2_mbox_loc_1 -> conv8_2_mbox_loc_1
I1018 10:13:04.622426  7444 net.cpp:150] Setting up conv8_2_mbox_loc_1
I1018 10:13:04.623425  7444 net.cpp:157] Top shape: 32 24 2 3 (4608)
I1018 10:13:04.623425  7444 net.cpp:165] Memory required for data: 3111359040
I1018 10:13:04.623425  7444 layer_factory.hpp:77] Creating layer conv8_2_mbox_loc_perm_1
I1018 10:13:04.624425  7444 net.cpp:100] Creating Layer conv8_2_mbox_loc_perm_1
I1018 10:13:04.624425  7444 net.cpp:434] conv8_2_mbox_loc_perm_1 <- conv8_2_mbox_loc_1
I1018 10:13:04.624425  7444 net.cpp:408] conv8_2_mbox_loc_perm_1 -> conv8_2_mbox_loc_perm_1
I1018 10:13:04.624425  7444 net.cpp:150] Setting up conv8_2_mbox_loc_perm_1
I1018 10:13:04.625425  7444 net.cpp:157] Top shape: 32 2 3 24 (4608)
I1018 10:13:04.625425  7444 net.cpp:165] Memory required for data: 3111377472
I1018 10:13:04.625425  7444 layer_factory.hpp:77] Creating layer conv8_2_mbox_loc_flat_1
I1018 10:13:04.625425  7444 net.cpp:100] Creating Layer conv8_2_mbox_loc_flat_1
I1018 10:13:04.626425  7444 net.cpp:434] conv8_2_mbox_loc_flat_1 <- conv8_2_mbox_loc_perm_1
I1018 10:13:04.626425  7444 net.cpp:408] conv8_2_mbox_loc_flat_1 -> conv8_2_mbox_loc_flat_1
I1018 10:13:04.626425  7444 net.cpp:150] Setting up conv8_2_mbox_loc_flat_1
I1018 10:13:04.626425  7444 net.cpp:157] Top shape: 32 144 (4608)
I1018 10:13:04.627425  7444 net.cpp:165] Memory required for data: 3111395904
I1018 10:13:04.627425  7444 layer_factory.hpp:77] Creating layer conv8_2_mbox_conf_0
I1018 10:13:04.627425  7444 net.cpp:100] Creating Layer conv8_2_mbox_conf_0
I1018 10:13:04.627425  7444 net.cpp:434] conv8_2_mbox_conf_0 <- conv8_2_conv8_2_bn_0_split_2
I1018 10:13:04.627425  7444 net.cpp:408] conv8_2_mbox_conf_0 -> conv8_2_mbox_conf_0
I1018 10:13:04.629426  7444 net.cpp:150] Setting up conv8_2_mbox_conf_0
I1018 10:13:04.629426  7444 net.cpp:157] Top shape: 32 64 2 3 (12288)
I1018 10:13:04.630425  7444 net.cpp:165] Memory required for data: 3111445056
I1018 10:13:04.630425  7444 layer_factory.hpp:77] Creating layer conv8_2_mbox_conf_0_relu
I1018 10:13:04.630425  7444 net.cpp:100] Creating Layer conv8_2_mbox_conf_0_relu
I1018 10:13:04.630425  7444 net.cpp:434] conv8_2_mbox_conf_0_relu <- conv8_2_mbox_conf_0
I1018 10:13:04.631425  7444 net.cpp:395] conv8_2_mbox_conf_0_relu -> conv8_2_mbox_conf_0 (in-place)
I1018 10:13:04.631425  7444 net.cpp:150] Setting up conv8_2_mbox_conf_0_relu
I1018 10:13:04.631425  7444 net.cpp:157] Top shape: 32 64 2 3 (12288)
I1018 10:13:04.632426  7444 net.cpp:165] Memory required for data: 3111494208
I1018 10:13:04.632426  7444 layer_factory.hpp:77] Creating layer conv8_2_mbox_conf_0_bn
I1018 10:13:04.632426  7444 net.cpp:100] Creating Layer conv8_2_mbox_conf_0_bn
I1018 10:13:04.632426  7444 net.cpp:434] conv8_2_mbox_conf_0_bn <- conv8_2_mbox_conf_0
I1018 10:13:04.633425  7444 net.cpp:395] conv8_2_mbox_conf_0_bn -> conv8_2_mbox_conf_0 (in-place)
I1018 10:13:04.633425  7444 net.cpp:150] Setting up conv8_2_mbox_conf_0_bn
I1018 10:13:04.633425  7444 net.cpp:157] Top shape: 32 64 2 3 (12288)
I1018 10:13:04.634425  7444 net.cpp:165] Memory required for data: 3111543360
I1018 10:13:04.634425  7444 layer_factory.hpp:77] Creating layer conv8_2_mbox_conf_2
I1018 10:13:04.634425  7444 net.cpp:100] Creating Layer conv8_2_mbox_conf_2
I1018 10:13:04.634425  7444 net.cpp:434] conv8_2_mbox_conf_2 <- conv8_2_mbox_conf_0
I1018 10:13:04.635426  7444 net.cpp:408] conv8_2_mbox_conf_2 -> conv8_2_mbox_conf_2
I1018 10:13:04.636425  7444 net.cpp:150] Setting up conv8_2_mbox_conf_2
I1018 10:13:04.636425  7444 net.cpp:157] Top shape: 32 64 2 3 (12288)
I1018 10:13:04.637425  7444 net.cpp:165] Memory required for data: 3111592512
I1018 10:13:04.637425  7444 layer_factory.hpp:77] Creating layer conv8_2_mbox_conf_2_relu
I1018 10:13:04.637425  7444 net.cpp:100] Creating Layer conv8_2_mbox_conf_2_relu
I1018 10:13:04.637425  7444 net.cpp:434] conv8_2_mbox_conf_2_relu <- conv8_2_mbox_conf_2
I1018 10:13:04.638425  7444 net.cpp:395] conv8_2_mbox_conf_2_relu -> conv8_2_mbox_conf_2 (in-place)
I1018 10:13:04.638425  7444 net.cpp:150] Setting up conv8_2_mbox_conf_2_relu
I1018 10:13:04.639426  7444 net.cpp:157] Top shape: 32 64 2 3 (12288)
I1018 10:13:04.639426  7444 net.cpp:165] Memory required for data: 3111641664
I1018 10:13:04.639426  7444 layer_factory.hpp:77] Creating layer conv8_2_mbox_conf_2_bn
I1018 10:13:04.639426  7444 net.cpp:100] Creating Layer conv8_2_mbox_conf_2_bn
I1018 10:13:04.640426  7444 net.cpp:434] conv8_2_mbox_conf_2_bn <- conv8_2_mbox_conf_2
I1018 10:13:04.640426  7444 net.cpp:395] conv8_2_mbox_conf_2_bn -> conv8_2_mbox_conf_2 (in-place)
I1018 10:13:04.640426  7444 net.cpp:150] Setting up conv8_2_mbox_conf_2_bn
I1018 10:13:04.640426  7444 net.cpp:157] Top shape: 32 64 2 3 (12288)
I1018 10:13:04.641427  7444 net.cpp:165] Memory required for data: 3111690816
I1018 10:13:04.641427  7444 layer_factory.hpp:77] Creating layer conv8_2_mbox_conf_3
I1018 10:13:04.641427  7444 net.cpp:100] Creating Layer conv8_2_mbox_conf_3
I1018 10:13:04.641427  7444 net.cpp:434] conv8_2_mbox_conf_3 <- conv8_2_mbox_conf_2
I1018 10:13:04.642426  7444 net.cpp:408] conv8_2_mbox_conf_3 -> conv8_2_mbox_conf_3
I1018 10:13:04.643426  7444 net.cpp:150] Setting up conv8_2_mbox_conf_3
I1018 10:13:04.643426  7444 net.cpp:157] Top shape: 32 12 2 3 (2304)
I1018 10:13:04.644426  7444 net.cpp:165] Memory required for data: 3111700032
I1018 10:13:04.644426  7444 layer_factory.hpp:77] Creating layer conv8_2_mbox_conf_perm_1
I1018 10:13:04.644426  7444 net.cpp:100] Creating Layer conv8_2_mbox_conf_perm_1
I1018 10:13:04.644426  7444 net.cpp:434] conv8_2_mbox_conf_perm_1 <- conv8_2_mbox_conf_3
I1018 10:13:04.645426  7444 net.cpp:408] conv8_2_mbox_conf_perm_1 -> conv8_2_mbox_conf_perm_1
I1018 10:13:04.645426  7444 net.cpp:150] Setting up conv8_2_mbox_conf_perm_1
I1018 10:13:04.645426  7444 net.cpp:157] Top shape: 32 2 3 12 (2304)
I1018 10:13:04.646426  7444 net.cpp:165] Memory required for data: 3111709248
I1018 10:13:04.646426  7444 layer_factory.hpp:77] Creating layer conv8_2_mbox_conf_flat_1
I1018 10:13:04.646426  7444 net.cpp:100] Creating Layer conv8_2_mbox_conf_flat_1
I1018 10:13:04.646426  7444 net.cpp:434] conv8_2_mbox_conf_flat_1 <- conv8_2_mbox_conf_perm_1
I1018 10:13:04.646426  7444 net.cpp:408] conv8_2_mbox_conf_flat_1 -> conv8_2_mbox_conf_flat_1
I1018 10:13:04.647426  7444 net.cpp:150] Setting up conv8_2_mbox_conf_flat_1
I1018 10:13:04.647426  7444 net.cpp:157] Top shape: 32 72 (2304)
I1018 10:13:04.647426  7444 net.cpp:165] Memory required for data: 3111718464
I1018 10:13:04.647426  7444 layer_factory.hpp:77] Creating layer conv8_2_mbox_priorbox_1
I1018 10:13:04.648427  7444 net.cpp:100] Creating Layer conv8_2_mbox_priorbox_1
I1018 10:13:04.648427  7444 net.cpp:434] conv8_2_mbox_priorbox_1 <- conv8_2_conv8_2_bn_0_split_3
I1018 10:13:04.648427  7444 net.cpp:434] conv8_2_mbox_priorbox_1 <- data_data_0_split_5
I1018 10:13:04.648427  7444 net.cpp:408] conv8_2_mbox_priorbox_1 -> conv8_2_mbox_priorbox_1
I1018 10:13:04.654426  7444 net.cpp:150] Setting up conv8_2_mbox_priorbox_1
I1018 10:13:04.654426  7444 net.cpp:157] Top shape: 1 2 144 (288)
I1018 10:13:04.655426  7444 net.cpp:165] Memory required for data: 3111719616
I1018 10:13:04.655426  7444 layer_factory.hpp:77] Creating layer pool6_mbox_loc_1
I1018 10:13:04.655426  7444 net.cpp:100] Creating Layer pool6_mbox_loc_1
I1018 10:13:04.656427  7444 net.cpp:434] pool6_mbox_loc_1 <- pool6_pool6_0_split_0
I1018 10:13:04.656427  7444 net.cpp:408] pool6_mbox_loc_1 -> pool6_mbox_loc_1
I1018 10:13:04.658427  7444 net.cpp:150] Setting up pool6_mbox_loc_1
I1018 10:13:04.659427  7444 net.cpp:157] Top shape: 32 24 1 1 (768)
I1018 10:13:04.659427  7444 net.cpp:165] Memory required for data: 3111722688
I1018 10:13:04.659427  7444 layer_factory.hpp:77] Creating layer pool6_mbox_loc_perm_1
I1018 10:13:04.659427  7444 net.cpp:100] Creating Layer pool6_mbox_loc_perm_1
I1018 10:13:04.659427  7444 net.cpp:434] pool6_mbox_loc_perm_1 <- pool6_mbox_loc_1
I1018 10:13:04.660428  7444 net.cpp:408] pool6_mbox_loc_perm_1 -> pool6_mbox_loc_perm_1
I1018 10:13:04.660428  7444 net.cpp:150] Setting up pool6_mbox_loc_perm_1
I1018 10:13:04.660428  7444 net.cpp:157] Top shape: 32 1 1 24 (768)
I1018 10:13:04.661427  7444 net.cpp:165] Memory required for data: 3111725760
I1018 10:13:04.661427  7444 layer_factory.hpp:77] Creating layer pool6_mbox_loc_flat_1
I1018 10:13:04.661427  7444 net.cpp:100] Creating Layer pool6_mbox_loc_flat_1
I1018 10:13:04.661427  7444 net.cpp:434] pool6_mbox_loc_flat_1 <- pool6_mbox_loc_perm_1
I1018 10:13:04.661427  7444 net.cpp:408] pool6_mbox_loc_flat_1 -> pool6_mbox_loc_flat_1
I1018 10:13:04.662427  7444 net.cpp:150] Setting up pool6_mbox_loc_flat_1
I1018 10:13:04.662427  7444 net.cpp:157] Top shape: 32 24 (768)
I1018 10:13:04.662427  7444 net.cpp:165] Memory required for data: 3111728832
I1018 10:13:04.662427  7444 layer_factory.hpp:77] Creating layer pool6_mbox_conf_0
I1018 10:13:04.663427  7444 net.cpp:100] Creating Layer pool6_mbox_conf_0
I1018 10:13:04.663427  7444 net.cpp:434] pool6_mbox_conf_0 <- pool6_pool6_0_split_1
I1018 10:13:04.663427  7444 net.cpp:408] pool6_mbox_conf_0 -> pool6_mbox_conf_0
I1018 10:13:04.665427  7444 net.cpp:150] Setting up pool6_mbox_conf_0
I1018 10:13:04.665427  7444 net.cpp:157] Top shape: 32 64 1 1 (2048)
I1018 10:13:04.665427  7444 net.cpp:165] Memory required for data: 3111737024
I1018 10:13:04.665427  7444 layer_factory.hpp:77] Creating layer pool6_mbox_conf_0_relu
I1018 10:13:04.666427  7444 net.cpp:100] Creating Layer pool6_mbox_conf_0_relu
I1018 10:13:04.666427  7444 net.cpp:434] pool6_mbox_conf_0_relu <- pool6_mbox_conf_0
I1018 10:13:04.666427  7444 net.cpp:395] pool6_mbox_conf_0_relu -> pool6_mbox_conf_0 (in-place)
I1018 10:13:04.667428  7444 net.cpp:150] Setting up pool6_mbox_conf_0_relu
I1018 10:13:04.667428  7444 net.cpp:157] Top shape: 32 64 1 1 (2048)
I1018 10:13:04.667428  7444 net.cpp:165] Memory required for data: 3111745216
I1018 10:13:04.667428  7444 layer_factory.hpp:77] Creating layer pool6_mbox_conf_0_bn
I1018 10:13:04.667428  7444 net.cpp:100] Creating Layer pool6_mbox_conf_0_bn
I1018 10:13:04.668427  7444 net.cpp:434] pool6_mbox_conf_0_bn <- pool6_mbox_conf_0
I1018 10:13:04.668427  7444 net.cpp:395] pool6_mbox_conf_0_bn -> pool6_mbox_conf_0 (in-place)
I1018 10:13:04.668427  7444 net.cpp:150] Setting up pool6_mbox_conf_0_bn
I1018 10:13:04.669427  7444 net.cpp:157] Top shape: 32 64 1 1 (2048)
I1018 10:13:04.669427  7444 net.cpp:165] Memory required for data: 3111753408
I1018 10:13:04.669427  7444 layer_factory.hpp:77] Creating layer pool6_mbox_conf_2
I1018 10:13:04.670428  7444 net.cpp:100] Creating Layer pool6_mbox_conf_2
I1018 10:13:04.670428  7444 net.cpp:434] pool6_mbox_conf_2 <- pool6_mbox_conf_0
I1018 10:13:04.670428  7444 net.cpp:408] pool6_mbox_conf_2 -> pool6_mbox_conf_2
I1018 10:13:04.672427  7444 net.cpp:150] Setting up pool6_mbox_conf_2
I1018 10:13:04.672427  7444 net.cpp:157] Top shape: 32 64 1 1 (2048)
I1018 10:13:04.672427  7444 net.cpp:165] Memory required for data: 3111761600
I1018 10:13:04.673427  7444 layer_factory.hpp:77] Creating layer pool6_mbox_conf_2_relu
I1018 10:13:04.673427  7444 net.cpp:100] Creating Layer pool6_mbox_conf_2_relu
I1018 10:13:04.673427  7444 net.cpp:434] pool6_mbox_conf_2_relu <- pool6_mbox_conf_2
I1018 10:13:04.673427  7444 net.cpp:395] pool6_mbox_conf_2_relu -> pool6_mbox_conf_2 (in-place)
I1018 10:13:04.674428  7444 net.cpp:150] Setting up pool6_mbox_conf_2_relu
I1018 10:13:04.674428  7444 net.cpp:157] Top shape: 32 64 1 1 (2048)
I1018 10:13:04.674428  7444 net.cpp:165] Memory required for data: 3111769792
I1018 10:13:04.674428  7444 layer_factory.hpp:77] Creating layer pool6_mbox_conf_2_bn
I1018 10:13:04.675428  7444 net.cpp:100] Creating Layer pool6_mbox_conf_2_bn
I1018 10:13:04.675428  7444 net.cpp:434] pool6_mbox_conf_2_bn <- pool6_mbox_conf_2
I1018 10:13:04.675428  7444 net.cpp:395] pool6_mbox_conf_2_bn -> pool6_mbox_conf_2 (in-place)
I1018 10:13:04.676429  7444 net.cpp:150] Setting up pool6_mbox_conf_2_bn
I1018 10:13:04.676429  7444 net.cpp:157] Top shape: 32 64 1 1 (2048)
I1018 10:13:04.676429  7444 net.cpp:165] Memory required for data: 3111777984
I1018 10:13:04.676429  7444 layer_factory.hpp:77] Creating layer pool6_mbox_conf_3
I1018 10:13:04.676429  7444 net.cpp:100] Creating Layer pool6_mbox_conf_3
I1018 10:13:04.677428  7444 net.cpp:434] pool6_mbox_conf_3 <- pool6_mbox_conf_2
I1018 10:13:04.677428  7444 net.cpp:408] pool6_mbox_conf_3 -> pool6_mbox_conf_3
I1018 10:13:04.678428  7444 net.cpp:150] Setting up pool6_mbox_conf_3
I1018 10:13:04.679428  7444 net.cpp:157] Top shape: 32 12 1 1 (384)
I1018 10:13:04.679428  7444 net.cpp:165] Memory required for data: 3111779520
I1018 10:13:04.679428  7444 layer_factory.hpp:77] Creating layer pool6_mbox_conf_perm_1
I1018 10:13:04.679428  7444 net.cpp:100] Creating Layer pool6_mbox_conf_perm_1
I1018 10:13:04.680428  7444 net.cpp:434] pool6_mbox_conf_perm_1 <- pool6_mbox_conf_3
I1018 10:13:04.680428  7444 net.cpp:408] pool6_mbox_conf_perm_1 -> pool6_mbox_conf_perm_1
I1018 10:13:04.680428  7444 net.cpp:150] Setting up pool6_mbox_conf_perm_1
I1018 10:13:04.680428  7444 net.cpp:157] Top shape: 32 1 1 12 (384)
I1018 10:13:04.681428  7444 net.cpp:165] Memory required for data: 3111781056
I1018 10:13:04.681428  7444 layer_factory.hpp:77] Creating layer pool6_mbox_conf_flat_1
I1018 10:13:04.681428  7444 net.cpp:100] Creating Layer pool6_mbox_conf_flat_1
I1018 10:13:04.681428  7444 net.cpp:434] pool6_mbox_conf_flat_1 <- pool6_mbox_conf_perm_1
I1018 10:13:04.681428  7444 net.cpp:408] pool6_mbox_conf_flat_1 -> pool6_mbox_conf_flat_1
I1018 10:13:04.682428  7444 net.cpp:150] Setting up pool6_mbox_conf_flat_1
I1018 10:13:04.682428  7444 net.cpp:157] Top shape: 32 12 (384)
I1018 10:13:04.682428  7444 net.cpp:165] Memory required for data: 3111782592
I1018 10:13:04.682428  7444 layer_factory.hpp:77] Creating layer pool6_mbox_priorbox_1
I1018 10:13:04.683429  7444 net.cpp:100] Creating Layer pool6_mbox_priorbox_1
I1018 10:13:04.683429  7444 net.cpp:434] pool6_mbox_priorbox_1 <- pool6_pool6_0_split_2
I1018 10:13:04.683429  7444 net.cpp:434] pool6_mbox_priorbox_1 <- data_data_0_split_6
I1018 10:13:04.683429  7444 net.cpp:408] pool6_mbox_priorbox_1 -> pool6_mbox_priorbox_1
I1018 10:13:04.684428  7444 net.cpp:150] Setting up pool6_mbox_priorbox_1
I1018 10:13:04.684428  7444 net.cpp:157] Top shape: 1 2 24 (48)
I1018 10:13:04.684428  7444 net.cpp:165] Memory required for data: 3111782784
I1018 10:13:04.684428  7444 layer_factory.hpp:77] Creating layer mbox_loc_1
I1018 10:13:04.684428  7444 net.cpp:100] Creating Layer mbox_loc_1
I1018 10:13:04.685428  7444 net.cpp:434] mbox_loc_1 <- conv4_3_norm_mbox_loc_flat_1
I1018 10:13:04.685428  7444 net.cpp:434] mbox_loc_1 <- fc7_mbox_loc_flat_1
I1018 10:13:04.685428  7444 net.cpp:434] mbox_loc_1 <- conv6_2_mbox_loc_flat_1
I1018 10:13:04.685428  7444 net.cpp:434] mbox_loc_1 <- conv7_2_mbox_loc_flat_1
I1018 10:13:04.686429  7444 net.cpp:434] mbox_loc_1 <- conv8_2_mbox_loc_flat_1
I1018 10:13:04.686429  7444 net.cpp:434] mbox_loc_1 <- pool6_mbox_loc_flat_1
I1018 10:13:04.686429  7444 net.cpp:408] mbox_loc_1 -> mbox_loc_1
I1018 10:13:04.686429  7444 net.cpp:150] Setting up mbox_loc_1
I1018 10:13:04.686429  7444 net.cpp:157] Top shape: 32 49128 (1572096)
I1018 10:13:04.687428  7444 net.cpp:165] Memory required for data: 3118071168
I1018 10:13:04.687428  7444 layer_factory.hpp:77] Creating layer mbox_conf_1
I1018 10:13:04.687428  7444 net.cpp:100] Creating Layer mbox_conf_1
I1018 10:13:04.687428  7444 net.cpp:434] mbox_conf_1 <- conv4_3_norm_mbox_conf_flat_1
I1018 10:13:04.688428  7444 net.cpp:434] mbox_conf_1 <- fc7_mbox_conf_flat_1
I1018 10:13:04.688428  7444 net.cpp:434] mbox_conf_1 <- conv6_2_mbox_conf_flat_1
I1018 10:13:04.688428  7444 net.cpp:434] mbox_conf_1 <- conv7_2_mbox_conf_flat_1
I1018 10:13:04.688428  7444 net.cpp:434] mbox_conf_1 <- conv8_2_mbox_conf_flat_1
I1018 10:13:04.688428  7444 net.cpp:434] mbox_conf_1 <- pool6_mbox_conf_flat_1
I1018 10:13:04.689429  7444 net.cpp:408] mbox_conf_1 -> mbox_conf_1
I1018 10:13:04.689429  7444 net.cpp:150] Setting up mbox_conf_1
I1018 10:13:04.689429  7444 net.cpp:157] Top shape: 32 24564 (786048)
I1018 10:13:04.689429  7444 net.cpp:165] Memory required for data: 3121215360
I1018 10:13:04.689429  7444 layer_factory.hpp:77] Creating layer mbox_priorbox_1
I1018 10:13:04.690428  7444 net.cpp:100] Creating Layer mbox_priorbox_1
I1018 10:13:04.690428  7444 net.cpp:434] mbox_priorbox_1 <- conv4_3_norm_mbox_priorbox_1
I1018 10:13:04.690428  7444 net.cpp:434] mbox_priorbox_1 <- fc7_mbox_priorbox_1
I1018 10:13:04.690428  7444 net.cpp:434] mbox_priorbox_1 <- conv6_2_mbox_priorbox_1
I1018 10:13:04.691429  7444 net.cpp:434] mbox_priorbox_1 <- conv7_2_mbox_priorbox_1
I1018 10:13:04.691429  7444 net.cpp:434] mbox_priorbox_1 <- conv8_2_mbox_priorbox_1
I1018 10:13:04.692430  7444 net.cpp:434] mbox_priorbox_1 <- pool6_mbox_priorbox_1
I1018 10:13:04.692430  7444 net.cpp:408] mbox_priorbox_1 -> mbox_priorbox_1
I1018 10:13:04.692430  7444 net.cpp:150] Setting up mbox_priorbox_1
I1018 10:13:04.692430  7444 net.cpp:157] Top shape: 1 2 49128 (98256)
I1018 10:13:04.692430  7444 net.cpp:165] Memory required for data: 3121608384
I1018 10:13:04.693429  7444 layer_factory.hpp:77] Creating layer mbox_conf_reshape_1
I1018 10:13:04.693429  7444 net.cpp:100] Creating Layer mbox_conf_reshape_1
I1018 10:13:04.693429  7444 net.cpp:434] mbox_conf_reshape_1 <- mbox_conf_1
I1018 10:13:04.693429  7444 net.cpp:408] mbox_conf_reshape_1 -> mbox_conf_reshape_1
I1018 10:13:04.694429  7444 net.cpp:150] Setting up mbox_conf_reshape_1
I1018 10:13:04.694429  7444 net.cpp:157] Top shape: 32 12282 2 (786048)
I1018 10:13:04.694429  7444 net.cpp:165] Memory required for data: 3124752576
I1018 10:13:04.694429  7444 layer_factory.hpp:77] Creating layer mbox_conf_softmax_1
I1018 10:13:04.694429  7444 net.cpp:100] Creating Layer mbox_conf_softmax_1
I1018 10:13:04.695430  7444 net.cpp:434] mbox_conf_softmax_1 <- mbox_conf_reshape_1
I1018 10:13:04.695430  7444 net.cpp:408] mbox_conf_softmax_1 -> mbox_conf_softmax_1
I1018 10:13:04.695430  7444 net.cpp:150] Setting up mbox_conf_softmax_1
I1018 10:13:04.696429  7444 net.cpp:157] Top shape: 32 12282 2 (786048)
I1018 10:13:04.696429  7444 net.cpp:165] Memory required for data: 3127896768
I1018 10:13:04.696429  7444 layer_factory.hpp:77] Creating layer mbox_conf_flatten_1
I1018 10:13:04.696429  7444 net.cpp:100] Creating Layer mbox_conf_flatten_1
I1018 10:13:04.697429  7444 net.cpp:434] mbox_conf_flatten_1 <- mbox_conf_softmax_1
I1018 10:13:04.697429  7444 net.cpp:408] mbox_conf_flatten_1 -> mbox_conf_flatten_1
I1018 10:13:04.697429  7444 net.cpp:150] Setting up mbox_conf_flatten_1
I1018 10:13:04.697429  7444 net.cpp:157] Top shape: 32 24564 (786048)
I1018 10:13:04.697429  7444 net.cpp:165] Memory required for data: 3131040960
I1018 10:13:04.698429  7444 layer_factory.hpp:77] Creating layer detection_out
I1018 10:13:04.698429  7444 net.cpp:100] Creating Layer detection_out
I1018 10:13:04.698429  7444 net.cpp:434] detection_out <- mbox_loc_1
I1018 10:13:04.698429  7444 net.cpp:434] detection_out <- mbox_conf_flatten_1
I1018 10:13:04.699429  7444 net.cpp:434] detection_out <- mbox_priorbox_1
I1018 10:13:04.699429  7444 net.cpp:408] detection_out -> detection_out
I1018 10:13:04.699429  7444 net.cpp:150] Setting up detection_out
I1018 10:13:04.699429  7444 net.cpp:157] Top shape: 1 1 1 7 (7)
I1018 10:13:04.700429  7444 net.cpp:165] Memory required for data: 3131040988
I1018 10:13:04.700429  7444 layer_factory.hpp:77] Creating layer detection_eval
I1018 10:13:04.700429  7444 net.cpp:100] Creating Layer detection_eval
I1018 10:13:04.700429  7444 net.cpp:434] detection_eval <- detection_out
I1018 10:13:04.701429  7444 net.cpp:434] detection_eval <- label
I1018 10:13:04.701429  7444 net.cpp:408] detection_eval -> detection_eval
I1018 10:13:04.701429  7444 net.cpp:150] Setting up detection_eval
I1018 10:13:04.701429  7444 net.cpp:157] Top shape: 1 1 2 5 (10)
I1018 10:13:04.701429  7444 net.cpp:165] Memory required for data: 3131041028
I1018 10:13:04.702430  7444 net.cpp:228] detection_eval does not need backward computation.
I1018 10:13:04.702430  7444 net.cpp:228] detection_out does not need backward computation.
I1018 10:13:04.702430  7444 net.cpp:228] mbox_conf_flatten_1 does not need backward computation.
I1018 10:13:04.702430  7444 net.cpp:228] mbox_conf_softmax_1 does not need backward computation.
…
