…
        min_scale: 0.3
        max_scale: 1
        min_aspect_ratio: 0.5
        max_aspect_ratio: 2
      }
      sample_constraint {
        min_jaccard_overlap: 0.9
      }
      max_sample: 1
      max_trials: 50
    }
    batch_sampler {
      sampler {
        min_scale: 0.3
        max_scale: 1
        min_aspect_ratio: 0.5
        max_aspect_ratio: 2
      }
      sample_constraint {
        max_jaccard_overlap: 1
      }
      max_sample: 1
      max_trials: 50
    }
    label_map_file: "M:/yhzheng/Pedestrian/labelmap_VehicleFull.prototxt"
  }
}
layer {
  name: "conv1"
  type: "Convolution"
  bottom: "data"
  top: "conv1"
  convolution_param {
    num_output: 64
    pad: 1
    kernel_size: 3
    stride: 2
    weight_filler {
      type: "xavier"
    }
  }
}
layer {
  name: "relu_conv1"
  type: "ReLU"
  bottom: "conv1"
  top: "conv1"
}
layer {
  name: "pool1"
  type: "Pooling"
  bottom: "conv1"
  top: "pool1"
  pooling_param {
    pool: MAX
    kernel_size: 3
    stride: 2
  }
}
layer {
  name: "conv1_bn"
  type: "BatchNorm"
  bottom: "pool1"
  top: "pool1"
  include {
    phase: TRAIN
  }
  batch_norm_param {
    use_global_stats: false
    moving_average_fraction: 0.95
  }
}
layer {
  name: "fire2/squeeze1x1"
  type: "Convolution"
  bottom: "pool1"
  top: "fire2/squeeze1x1"
  convolution_param {
    num_output: 16
    kernel_size: 1
    weight_filler {
      type: "xavier"
    }
  }
}
layer {
  name: "fire2/relu_squeeze1x1"
  type: "ReLU"
  bottom: "fire2/squeeze1x1"
  top: "fire2/squeeze1x1"
}
layer {
  name: "fire2/expand1x1"
  type: "Convolution"
  bottom: "fire2/squeeze1x1"
  top: "fire2/expand1x1"
  convolution_param {
    num_output: 64
    kernel_size: 1
    weight_filler {
      type: "xavier"
    }
  }
}
layer {
  name: "fire2/relu_expand1x1"
  type: "ReLU"
  bottom: "fire2/expand1x1"
  top: "fire2/expand1x1"
}
layer {
  name: "fire2/expand3x3"
  type: "Convolution"
  bottom: "fire2/squeeze1x1"
  top: "fire2/expand3x3"
  convolution_param {
    num_output: 64
    pad: 1
    kernel_size: 3
    weight_filler {
      type: "xavier"
    }
  }
}
layer {
  name: "fire2/relu_expand3x3"
  type: "ReLU"
  bottom: "fire2/expand3x3"
  top: "fire2/expand3x3"
}
layer {
  name: "fire2/concat"
  type: "Concat"
  bottom: "fire2/expand1x1"
  bottom: "fire2/expand3x3"
  top: "fire2/concat"
}
layer {
  name: "fire2/concat_bn"
  type: "BatchNorm"
  bottom: "fire2/concat"
  top: "fire2/concat"
  include {
    phase: TRAIN
  }
  batch_norm_param {
    use_global_stats: false
    moving_average_fraction: 0.95
  }
}
layer {
  name: "fire3/squeeze1x1"
  type: "Convolution"
  bottom: "fire2/concat"
  top: "fire3/squeeze1x1"
  convolution_param {
    num_output: 16
    kernel_size: 1
    weight_filler {
      type: "xavier"
    }
  }
}
layer {
  name: "fire3/relu_squeeze1x1"
  type: "ReLU"
  bottom: "fire3/squeeze1x1"
  top: "fire3/squeeze1x1"
}
layer {
  name: "fire3/expand1x1"
  type: "Convolution"
  bottom: "fire3/squeeze1x1"
  top: "fire3/expand1x1"
  convolution_param {
    num_output: 64
    kernel_size: 1
    weight_filler {
      type: "xavier"
    }
  }
}
layer {
  name: "fire3/relu_expand1x1"
  type: "ReLU"
  bottom: "fire3/expand1x1"
  top: "fire3/expand1x1"
}
layer {
  name: "fire3/expand3x3"
  type: "Convolution"
  bottom: "fire3/squeeze1x1"
  top: "fire3/expand3x3"
  convolution_param {
    num_output: 64
    pad: 1
    kernel_size: 3
    weight_filler {
      type: "xavier"
    }
  }
}
layer {
  name: "fire3/relu_expand3x3"
  type: "ReLU"
  bottom: "fire3/expand3x3"
  top: "fire3/expand3x3"
}
layer {
  name: "fire3/concat"
  type: "Concat"
  bottom: "fire3/expand1x1"
  bottom: "fire3/expand3x3"
  top: "fire3/concat"
}
layer {
  name: "pool3"
  type: "Pooling"
  bottom: "fire3/concat"
  top: "pool3"
  pooling_param {
    pool: MAX
    kernel_size: 2
    stride: 2
  }
}
layer {
  name: "fire3/concat_bn"
  type: "BatchNorm"
  bottom: "pool3"
  top: "pool3"
  include {
    phase: TRAIN
  }
  batch_norm_param {
    use_global_stats: false
    moving_average_fraction: 0.95
  }
}
layer {
  name: "fire4/squeeze1x1"
  type: "Convolution"
  bottom: "pool3"
  top: "fire4/squeeze1x1"
  convolution_param {
    num_output: 32
    kernel_size: 1
    weight_filler {
      type: "xavier"
    }
  }
}
layer {
  name: "fire4/relu_squeeze1x1"
  type: "ReLU"
  bottom: "fire4/squeeze1x1"
  top: "fire4/squeeze1x1"
}
layer {
  name: "fire4/expand1x1"
  type: "Convolution"
  bottom: "fire4/squeeze1x1"
  top: "fire4/expand1x1"
  convolution_param {
    num_output: 128
    kernel_size: 1
    weight_filler {
      type: "xavier"
    }
  }
}
layer {
  name: "fire4/relu_expand1x1"
  type: "ReLU"
  bottom: "fire4/expand1x1"
  top: "fire4/expand1x1"
}
layer {
  name: "fire4/expand3x3"
  type: "Convolution"
  bottom: "fire4/squeeze1x1"
  top: "fire4/expand3x3"
  convolution_param {
    num_output: 128
    pad: 1
    kernel_size: 3
    weight_filler {
      type: "xavier"
    }
  }
}
layer {
  name: "fire4/relu_expand3x3"
  type: "ReLU"
  bottom: "fire4/expand3x3"
  top: "fire4/expand3x3"
}
layer {
  name: "fire4/concat"
  type: "Concat"
  bottom: "fire4/expand1x1"
  bottom: "fire4/expand3x3"
  top: "fire4/concat"
}
layer {
  name: "fire4/concat_bn"
  type: "BatchNorm"
  bottom: "fire4/concat"
  top: "fire4/concat"
  include {
    phase: TRAIN
  }
  batch_norm_param {
    use_global_stats: false
    moving_average_fraction: 0.95
  }
}
layer {
  name: "fire5/squeeze1x1"
  type: "Convolution"
  bottom: "fire4/concat"
  top: "fire5/squeeze1x1"
  convolution_param {
    num_output: 32
    kernel_size: 1
    weight_filler {
      type: "xavier"
    }
  }
}
layer {
  name: "fire5/relu_squeeze1x1"
  type: "ReLU"
  bottom: "fire5/squeeze1x1"
  top: "fire5/squeeze1x1"
}
layer {
  name: "fire5/expand1x1"
  type: "Convolution"
  bottom: "fire5/squeeze1x1"
  top: "fire5/expand1x1"
  convolution_param {
    num_output: 128
    kernel_size: 1
    weight_filler {
      type: "xavier"
    }
  }
}
layer {
  name: "fire5/relu_expand1x1"
  type: "ReLU"
  bottom: "fire5/expand1x1"
  top: "fire5/expand1x1"
}
layer {
  name: "fire5/expand3x3"
  type: "Convolution"
  bottom: "fire5/squeeze1x1"
  top: "fire5/expand3x3"
  convolution_param {
    num_output: 128
    pad: 1
    kernel_size: 3
    weight_filler {
      type: "xavier"
    }
  }
}
layer {
  name: "fire5/relu_expand3x3"
  type: "ReLU"
  bottom: "fire5/expand3x3"
  top: "fire5/expand3x3"
}
layer {
  name: "fire5/concat"
  type: "Concat"
  bottom: "fire5/expand1x1"
  bottom: "fire5/expand3x3"
  top: "fire5/concat"
}
layer {
  name: "pool5"
  type: "Pooling"
  bottom: "fire5/concat"
  top: "pool5"
  pooling_param {
    pool: MAX
    kernel_size: 2
    stride: 2
  }
}
layer {
  name: "fire5/concat_bn"
  type: "BatchNorm"
  bottom: "pool5"
  top: "pool5"
  include {
    phase: TRAIN
  }
  batch_norm_param {
    use_global_stats: false
    moving_average_fraction: 0.95
  }
}
layer {
  name: "fire6/squeeze1x1"
  type: "Convolution"
  bottom: "pool5"
  top: "fire6/squeeze1x1"
  convolution_param {
    num_output: 48
    kernel_size: 1
    weight_filler {
      type: "xavier"
    }
  }
}
layer {
  name: "fire6/relu_squeeze1x1"
  type: "ReLU"
  bottom: "fire6/squeeze1x1"
  top: "fire6/squeeze1x1"
}
layer {
  name: "fire6/expand1x1"
  type: "Convolution"
  bottom: "fire6/squeeze1x1"
  top: "fire6/expand1x1"
  convolution_param {
    num_output: 192
    kernel_size: 1
    weight_filler {
      type: "xavier"
    }
  }
}
layer {
  name: "fire6/relu_expand1x1"
  type: "ReLU"
  bottom: "fire6/expand1x1"
  top: "fire6/expand1x1"
}
layer {
  name: "fire6/expand3x3"
  type: "Convolution"
  bottom: "fire6/squeeze1x1"
  top: "fire6/expand3x3"
  convolution_param {
    num_output: 192
    pad: 1
    kernel_size: 3
    weight_filler {
      type: "xavier"
    }
  }
}
layer {
  name: "fire6/relu_expand3x3"
  type: "ReLU"
  bottom: "fire6/expand3x3"
  top: "fire6/expand3x3"
}
layer {
  name: "fire6/concat"
  type: "Concat"
  bottom: "fire6/expand1x1"
  bottom: "fire6/expand3x3"
  top: "fire6/concat"
}
layer {
  name: "fire6/concat_bn"
  type: "BatchNorm"
  bottom: "fire6/concat"
  top: "fire6/concat"
  include {
    phase: TRAIN
  }
  batch_norm_param {
    use_global_stats: false
    moving_average_fraction: 0.95
  }
}
layer {
  name: "fire7/squeeze1x1"
  type: "Convolution"
  bottom: "fire6/concat"
  top: "fire7/squeeze1x1"
  convolution_param {
    num_output: 48
    kernel_size: 1
    weight_filler {
      type: "xavier"
    }
  }
}
layer {
  name: "fire7/relu_squeeze1x1"
  type: "ReLU"
  bottom: "fire7/squeeze1x1"
  top: "fire7/squeeze1x1"
}
layer {
  name: "fire7/expand1x1"
  type: "Convolution"
  bottom: "fire7/squeeze1x1"
  top: "fire7/expand1x1"
  convolution_param {
    num_output: 192
    kernel_size: 1
    weight_filler {
      type: "xavier"
    }
  }
}
layer {
  name: "fire7/relu_expand1x1"
  type: "ReLU"
  bottom: "fire7/expand1x1"
  top: "fire7/expand1x1"
}
layer {
  name: "fire7/expand3x3"
  type: "Convolution"
  bottom: "fire7/squeeze1x1"
  top: "fire7/expand3x3"
  convolution_param {
    num_output: 192
    pad: 1
    kernel_size: 3
    weight_filler {
      type: "xavier"
    }
  }
}
layer {
  name: "fire7/relu_expand3x3"
  type: "ReLU"
  bottom: "fire7/expand3x3"
  top: "fire7/expand3x3"
}
layer {
  name: "fire7/concat"
  type: "Concat"
  bottom: "fire7/expand1x1"
  bottom: "fire7/expand3x3"
  top: "fire7/concat"
}
layer {
  name: "fire7/concat_bn"
  type: "BatchNorm"
  bottom: "fire7/concat"
  top: "fire7/concat"
  include {
    phase: TRAIN
  }
  batch_norm_param {
    use_global_stats: false
    moving_average_fraction: 0.95
  }
}
layer {
  name: "fire8/squeeze1x1"
  type: "Convolution"
  bottom: "fire7/concat"
  top: "fire8/squeeze1x1"
  convolution_param {
    num_output: 64
    kernel_size: 1
    weight_filler {
      type: "xavier"
    }
  }
}
layer {
  name: "fire8/relu_squeeze1x1"
  type: "ReLU"
  bottom: "fire8/squeeze1x1"
  top: "fire8/squeeze1x1"
}
layer {
  name: "fire8/expand1x1"
  type: "Convolution"
  bottom: "fire8/squeeze1x1"
  top: "fire8/expand1x1"
  convolution_param {
    num_output: 256
    kernel_size: 1
    weight_filler {
      type: "xavier"
    }
  }
}
layer {
  name: "fire8/relu_expand1x1"
  type: "ReLU"
  bottom: "fire8/expand1x1"
  top: "fire8/expand1x1"
}
layer {
  name: "fire8/expand3x3"
  type: "Convolution"
  bottom: "fire8/squeeze1x1"
  top: "fire8/expand3x3"
  convolution_param {
    num_output: 256
    pad: 1
    kernel_size: 3
    weight_filler {
      type: "xavier"
    }
  }
}
layer {
  name: "fire8/relu_expand3x3"
  type: "ReLU"
  bottom: "fire8/expand3x3"
  top: "fire8/expand3x3"
}
layer {
  name: "fire8/concat"
  type: "Concat"
  bottom: "fire8/expand1x1"
  bottom: "fire8/expand3x3"
  top: "fire8/concat"
}
layer {
  name: "fire8/concat_bn"
  type: "BatchNorm"
  bottom: "fire8/concat"
  top: "fire8/concat"
  include {
    phase: TRAIN
  }
  batch_norm_param {
    use_global_stats: false
    moving_average_fraction: 0.95
  }
}
layer {
  name: "fire9/squeeze1x1"
  type: "Convolution"
  bottom: "fire8/concat"
  top: "fire9/squeeze1x1"
  convolution_param {
    num_output: 64
    kernel_size: 1
    weight_filler {
      type: "xavier"
    }
  }
}
layer {
  name: "fire9/relu_squeeze1x1"
  type: "ReLU"
  bottom: "fire9/squeeze1x1"
  top: "fire9/squeeze1x1"
}
layer {
  name: "fire9/expand1x1"
  type: "Convolution"
  bottom: "fire9/squeeze1x1"
  top: "fire9/expand1x1"
  convolution_param {
    num_output: 256
    kernel_size: 1
    weight_filler {
      type: "xavier"
    }
  }
}
layer {
  name: "fire9/relu_expand1x1"
  type: "ReLU"
  bottom: "fire9/expand1x1"
  top: "fire9/expand1x1"
}
layer {
  name: "fire9/expand3x3"
  type: "Convolution"
  bottom: "fire9/squeeze1x1"
  top: "fire9/expand3x3"
  convolution_param {
    num_output: 256
    pad: 1
    kernel_size: 3
    weight_filler {
      type: "xavier"
    }
  }
}
layer {
  name: "fire9/relu_expand3x3"
  type: "ReLU"
  bottom: "fire9/expand3x3"
  top: "fire9/expand3x3"
}
layer {
  name: "fire9/concat"
  type: "Concat"
  bottom: "fire9/expand1x1"
  bottom: "fire9/expand3x3"
  top: "fire9/concat"
}
layer {
  name: "fire9/concat_bn"
  type: "BatchNorm"
  bottom: "fire9/concat"
  top: "fire9/concat"
  include {
    phase: TRAIN
  }
  batch_norm_param {
    use_global_stats: false
    moving_average_fraction: 0.95
  }
}
layer {
  name: "conv6_1"
  type: "Convolution"
  bottom: "fire9/concat"
  top: "conv6_1"
  param {
    lr_mult: 1
    decay_mult: 1
  }
  param {
    lr_mult: 2
    decay_mult: 0
  }
  convolution_param {
    num_output: 256
    pad: 0
    kernel_size: 1
    stride: 1
    weight_filler {
      type: "xavier"
    }
    bias_filler {
      type: "constant"
      value: 0
    }
  }
}
layer {
  name: "conv6_1_relu"
  type: "ReLU"
  bottom: "conv6_1"
  top: "conv6_1"
}
layer {
  name: "conv6_1_bn"
  type: "BatchNorm"
  bottom: "conv6_1"
  top: "conv6_1"
  include {
    phase: TRAIN
  }
  batch_norm_param {
    use_global_stats: false
    moving_average_fraction: 0.95
  }
}
layer {
  name: "conv6_2"
  type: "Convolution"
  bottom: "conv6_1"
  top: "conv6_2"
  param {
    lr_mult: 1
    decay_mult: 1
  }
  param {
    lr_mult: 2
    decay_mult: 0
  }
  convolution_param {
    num_output: 512
    pad: 1
    kernel_size: 3
    stride: 2
    weight_filler {
      type: "xavier"
    }
    bias_filler {
      type: "constant"
      value: 0
    }
  }
}
layer {
  name: "conv6_2_relu"
  type: "ReLU"
  bottom: "conv6_2"
  top: "conv6_2"
}
layer {
  name: "conv6_2_bn"
  type: "BatchNorm"
  bottom: "conv6_2"
  top: "conv6_2"
  include {
    phase: TRAIN
  }
  batch_norm_param {
    use_global_stats: false
    moving_average_fraction: 0.95
  }
}
layer {
  name: "conv7_1"
  type: "Convolution"
  bottom: "conv6_2"
  top: "conv7_1"
  param {
    lr_mult: 1
    decay_mult: 1
  }
  param {
    lr_mult: 2
    decay_mult: 0
  }
  convolution_param {
    num_output: 128
    pad: 0
    kernel_size: 1
    stride: 1
    weight_filler {
      type: "xavier"
    }
    bias_filler {
      type: "constant"
      value: 0
    }
  }
}
layer {
  name: "conv7_1_relu"
  type: "ReLU"
  bottom: "conv7_1"
  top: "conv7_1"
}
layer {
  name: "conv7_1_bn"
  type: "BatchNorm"
  bottom: "conv7_1"
  top: "conv7_1"
  include {
    phase: TRAIN
  }
  batch_norm_param {
    use_global_stats: false
    moving_average_fraction: 0.95
  }
}
layer {
  name: "conv7_2"
  type: "Convolution"
  bottom: "conv7_1"
  top: "conv7_2"
  param {
    lr_mult: 1
    decay_mult: 1
  }
  param {
    lr_mult: 2
    decay_mult: 0
  }
  convolution_param {
    num_output: 256
    pad: 1
    kernel_size: 3
    stride: 2
    weight_filler {
      type: "xavier"
    }
    bias_filler {
      type: "constant"
      value: 0
    }
  }
}
layer {
  name: "conv7_2_relu"
  type: "ReLU"
  bottom: "conv7_2"
  top: "conv7_2"
}
layer {
  name: "conv7_2_bn"
  type: "BatchNorm"
  bottom: "conv7_2"
  top: "conv7_2"
  include {
    phase: TRAIN
  }
  batch_norm_param {
    use_global_stats: false
    moving_average_fraction: 0.95
  }
}
layer {
  name: "conv8_1"
  type: "Convolution"
  bottom: "conv7_2"
  top: "conv8_1"
  param {
    lr_mult: 1
    decay_mult: 1
  }
  param {
    lr_mult: 2
    decay_mult: 0
  }
  convolution_param {
    num_output: 128
    pad: 0
    kernel_size: 1
    stride: 1
    weight_filler {
      type: "xavier"
    }
    bias_filler {
      type: "constant"
      value: 0
    }
  }
}
layer {
  name: "conv8_1_relu"
  type: "ReLU"
  bottom: "conv8_1"
  top: "conv8_1"
}
layer {
  name: "conv8_1_bn"
  type: "BatchNorm"
  bottom: "conv8_1"
  top: "conv8_1"
  include {
    phase: TRAIN
  }
  batch_norm_param {
    use_global_stats: false
    moving_average_fraction: 0.95
  }
}
layer {
  name: "conv8_2"
  type: "Convolution"
  bottom: "conv8_1"
  top: "conv8_2"
  param {
    lr_mult: 1
    decay_mult: 1
  }
  param {
    lr_mult: 2
    decay_mult: 0
  }
  convolution_param {
    num_output: 256
    pad: 1
    kernel_size: 3
    stride: 2
    weight_filler {
      type: "xavier"
    }
    bias_filler {
      type: "constant"
      value: 0
    }
  }
}
layer {
  name: "conv8_2_relu"
  type: "ReLU"
  bottom: "conv8_2"
  top: "conv8_2"
}
layer {
  name: "conv8_2_bn"
  type: "BatchNorm"
  bottom: "conv8_2"
  top: "conv8_2"
  include {
    phase: TRAIN
  }
  batch_norm_param {
    use_global_stats: false
    moving_average_fraction: 0.95
  }
}
layer {
  name: "pool6"
  type: "Pooling"
  bottom: "conv8_2"
  top: "pool6"
  pooling_param {
    pool: AVE
    global_pooling: true
  }
}
layer {
  name: "conv4_3_norm_1"
  type: "Normalize"
  bottom: "fire5/concat"
  top: "conv4_3_norm_1"
  norm_param {
    across_spatial: false
    scale_filler {
      type: "constant"
      value: 20
    }
    channel_shared: false
  }
}
layer {
  name: "conv4_3_norm_mbox_loc_1"
  type: "Convolution"
  bottom: "conv4_3_norm_1"
  top: "conv4_3_norm_mbox_loc_1"
  param {
    lr_mult: 1
    decay_mult: 1
  }
  param {
    lr_mult: 2
    decay_mult: 0
  }
  convolution_param {
    num_output: 24
    pad: 1
    kernel_size: 3
    stride: 1
    weight_filler {
      type: "xavier"
    }
    bias_filler {
      type: "constant"
      value: 0
    }
  }
}
layer {
  name: "conv4_3_norm_mbox_loc_perm_1"
  type: "Permute"
  bottom: "conv4_3_norm_mbox_loc_1"
  top: "conv4_3_norm_mbox_loc_perm_1"
  permute_param {
    order: 0
    order: 2
    order: 3
    order: 1
  }
}
layer {
  name: "conv4_3_norm_mbox_loc_flat_1"
  type: "Flatten"
  bottom: "conv4_3_norm_mbox_loc_perm_1"
  top: "conv4_3_norm_mbox_loc_flat_1"
  flatten_param {
    axis: 1
  }
}
layer {
  name: "conv4_3_norm_mbox_conf_0"
  type: "Convolution"
  bottom: "conv4_3_norm_1"
  top: "conv4_3_norm_mbox_conf_0"
  param {
    lr_mult: 2
    decay_mult: 1
  }
  param {
    lr_mult: 2
    decay_mult: 0
  }
  convolution_param {
    num_output: 64
    pad: 0
    kernel_size: 1
    stride: 1
    weight_filler {
      type: "xavier"
    }
    bias_filler {
      type: "constant"
      value: 0
    }
  }
}
layer {
  name: "conv4_3_norm_mbox_conf_0_relu"
  type: "ReLU"
  bottom: "conv4_3_norm_mbox_conf_0"
  top: "conv4_3_norm_mbox_conf_0"
}
layer {
  name: "conv4_3_norm_mbox_conf_0_bn"
  type: "BatchNorm"
  bottom: "conv4_3_norm_mbox_conf_0"
  top: "conv4_3_norm_mbox_conf_0"
  include {
    phase: TRAIN
  }
  batch_norm_param {
    use_global_stats: false
    moving_average_fraction: 0.95
  }
}
layer {
  name: "conv4_3_norm_mbox_conf_2"
  type: "Convolution"
  bottom: "conv4_3_norm_mbox_conf_0"
  top: "conv4_3_norm_mbox_conf_2"
  param {
    lr_mult: 2
    decay_mult: 1
  }
  param {
    lr_mult: 2
    decay_mult: 0
  }
  convolution_param {
    num_output: 64
    pad: 1
    kernel_size: 3
    stride: 1
    weight_filler {
      type: "xavier"
    }
    bias_filler {
      type: "constant"
      value: 0
    }
  }
}
layer {
  name: "conv4_3_norm_mbox_conf_2_relu"
  type: "ReLU"
  bottom: "conv4_3_norm_mbox_conf_2"
  top: "conv4_3_norm_mbox_conf_2"
}
layer {
  name: "conv4_3_norm_mbox_conf_2_bn"
  type: "BatchNorm"
  bottom: "conv4_3_norm_mbox_conf_2"
  top: "conv4_3_norm_mbox_conf_2"
  include {
    phase: TRAIN
  }
  batch_norm_param {
    use_global_stats: false
    moving_average_fraction: 0.95
  }
}
layer {
  name: "conv4_3_norm_mbox_conf_3"
  type: "Convolution"
  bottom: "conv4_3_norm_mbox_conf_2"
  top: "conv4_3_norm_mbox_conf_3"
  param {
    lr_mult: 2
    decay_mult: 1
  }
  param {
    lr_mult: 2
    decay_mult: 0
  }
  convolution_param {
    num_output: 12
    pad: 1
    kernel_size: 3
    stride: 1
    weight_filler {
      type: "xavier"
    }
    bias_filler {
      type: "constant"
      value: 0
    }
  }
}
layer {
  name: "conv4_3_norm_mbox_conf_perm_1"
  type: "Permute"
  bottom: "conv4_3_norm_mbox_conf_3"
  top: "conv4_3_norm_mbox_conf_perm_1"
  permute_param {
    order: 0
    order: 2
    order: 3
    order: 1
  }
}
layer {
  name: "conv4_3_norm_mbox_conf_flat_1"
  type: "Flatten"
  bottom: "conv4_3_norm_mbox_conf_perm_1"
  top: "conv4_3_norm_mbox_conf_flat_1"
  flatten_param {
    axis: 1
  }
}
layer {
  name: "conv4_3_norm_mbox_priorbox_1"
  type: "PriorBox"
  bottom: "conv4_3_norm_1"
  bottom: "data"
  top: "conv4_3_norm_mbox_priorbox_1"
  prior_box_param {
    min_size: 25
    max_size: 51
    aspect_ratio: 0.25
    aspect_ratio: 0.5
    aspect_ratio: 0.75
    aspect_ratio: 1.25
    flip: false
    clip: true
    variance: 0.1
    variance: 0.1
    variance: 0.2
    variance: 0.2
  }
}
layer {
  name: "fc7_mbox_loc_1"
  type: "Convolution"
  bottom: "fire9/concat"
  top: "fc7_mbox_loc_1"
  param {
    lr_mult: 1
    decay_mult: 1
  }
  param {
    lr_mult: 2
    decay_mult: 0
  }
  convolution_param {
    num_output: 24
    pad: 1
    kernel_size: 3
    stride: 1
    weight_filler {
      type: "xavier"
    }
    bias_filler {
      type: "constant"
      value: 0
    }
  }
}
layer {
  name: "fc7_mbox_loc_perm_1"
  type: "Permute"
  bottom: "fc7_mbox_loc_1"
  top: "fc7_mbox_loc_perm_1"
  permute_param {
    order: 0
    order: 2
    order: 3
    order: 1
  }
}
layer {
  name: "fc7_mbox_loc_flat_1"
  type: "Flatten"
  bottom: "fc7_mbox_loc_perm_1"
  top: "fc7_mbox_loc_flat_1"
  flatten_param {
    axis: 1
  }
}
layer {
  name: "fc7_mbox_conf_0"
  type: "Convolution"
  bottom: "fire9/concat"
  top: "fc7_mbox_conf_0"
  param {
    lr_mult: 1
    decay_mult: 1
  }
  param {
    lr_mult: 2
    decay_mult: 0
  }
  convolution_param {
    num_output: 64
    pad: 0
    kernel_size: 1
    stride: 1
    weight_filler {
      type: "xavier"
    }
    bias_filler {
      type: "constant"
      value: 0
    }
  }
}
layer {
  name: "fc7_mbox_conf_0_relu"
  type: "ReLU"
  bottom: "fc7_mbox_conf_0"
  top: "fc7_mbox_conf_0"
}
layer {
  name: "fc7_mbox_conf_0_bn"
  type: "BatchNorm"
  bottom: "fc7_mbox_conf_0"
  top: "fc7_mbox_conf_0"
  include {
    phase: TRAIN
  }
  batch_norm_param {
    use_global_stats: false
    moving_average_fraction: 0.95
  }
}
layer {
  name: "fc7_mbox_conf_2"
  type: "Convolution"
  bottom: "fc7_mbox_conf_0"
  top: "fc7_mbox_conf_2"
  param {
    lr_mult: 1
    decay_mult: 1
  }
  param {
    lr_mult: 2
    decay_mult: 0
  }
  convolution_param {
    num_output: 64
    pad: 1
    kernel_size: 3
    stride: 1
    weight_filler {
      type: "xavier"
    }
    bias_filler {
      type: "constant"
      value: 0
    }
  }
}
layer {
  name: "fc7_mbox_conf_2_relu"
  type: "ReLU"
  bottom: "fc7_mbox_conf_2"
  top: "fc7_mbox_conf_2"
}
layer {
  name: "fc7_mbox_conf_2_bn"
  type: "BatchNorm"
  bottom: "fc7_mbox_conf_2"
  top: "fc7_mbox_conf_2"
  include {
    phase: TRAIN
  }
  batch_norm_param {
    use_global_stats: false
    moving_average_fraction: 0.95
  }
}
layer {
  name: "fc7_mbox_conf_3"
  type: "Convolution"
  bottom: "fc7_mbox_conf_2"
  top: "fc7_mbox_conf_3"
  param {
    lr_mult: 1
    decay_mult: 1
  }
  param {
    lr_mult: 2
    decay_mult: 0
  }
  convolution_param {
    num_output: 12
    pad: 1
    kernel_size: 3
    stride: 1
    weight_filler {
      type: "xavier"
    }
    bias_filler {
      type: "constant"
      value: 0
    }
  }
}
layer {
  name: "fc7_mbox_conf_perm_1"
  type: "Permute"
  bottom: "fc7_mbox_conf_3"
  top: "fc7_mbox_conf_perm_1"
  permute_param {
    order: 0
    order: 2
    order: 3
    order: 1
  }
}
layer {
  name: "fc7_mbox_conf_flat_1"
  type: "Flatten"
  bottom: "fc7_mbox_conf_perm_1"
  top: "fc7_mbox_conf_flat_1"
  flatten_param {
    axis: 1
  }
}
layer {
  name: "fc7_mbox_priorbox_1"
  type: "PriorBox"
  bottom: "fire9/concat"
  bottom: "data"
  top: "fc7_mbox_priorbox_1"
  prior_box_param {
    min_size: 51
    max_size: 97
    aspect_ratio: 0.25
    aspect_ratio: 0.5
    aspect_ratio: 0.75
    aspect_ratio: 1.25
    flip: false
    clip: true
    variance: 0.1
    variance: 0.1
    variance: 0.2
    variance: 0.2
  }
}
layer {
  name: "conv6_2_mbox_loc_1"
  type: "Convolution"
  bottom: "conv6_2"
  top: "conv6_2_mbox_loc_1"
  param {
    lr_mult: 1
    decay_mult: 1
  }
  param {
    lr_mult: 2
    decay_mult: 0
  }
  convolution_param {
    num_output: 24
    pad: 1
    kernel_size: 3
    stride: 1
    weight_filler {
      type: "xavier"
    }
    bias_filler {
      type: "constant"
      value: 0
    }
  }
}
layer {
  name: "conv6_2_mbox_loc_perm_1"
  type: "Permute"
  bottom: "conv6_2_mbox_loc_1"
  top: "conv6_2_mbox_loc_perm_1"
  permute_param {
    order: 0
    order: 2
    order: 3
    order: 1
  }
}
layer {
  name: "conv6_2_mbox_loc_flat_1"
  type: "Flatten"
  bottom: "conv6_2_mbox_loc_perm_1"
  top: "conv6_2_mbox_loc_flat_1"
  flatten_param {
    axis: 1
  }
}
layer {
  name: "conv6_2_mbox_conf_0"
  type: "Convolution"
  bottom: "conv6_2"
  top: "conv6_2_mbox_conf_0"
  param {
    lr_mult: 1
    decay_mult: 1
  }
  param {
    lr_mult: 2
    decay_mult: 0
  }
  convolution_param {
    num_output: 64
    pad: 0
    kernel_size: 1
    stride: 1
    weight_filler {
      type: "xavier"
    }
    bias_filler {
      type: "constant"
      value: 0
    }
  }
}
layer {
  name: "conv6_2_mbox_conf_0_relu"
  type: "ReLU"
  bottom: "conv6_2_mbox_conf_0"
  top: "conv6_2_mbox_conf_0"
}
layer {
  name: "conv6_2_mbox_conf_0_bn"
  type: "BatchNorm"
  bottom: "conv6_2_mbox_conf_0"
  top: "conv6_2_mbox_conf_0"
  include {
    phase: TRAIN
  }
  batch_norm_param {
    use_global_stats: false
    moving_average_fraction: 0.95
  }
}
layer {
  name: "conv6_2_mbox_conf_2"
  type: "Convolution"
  bottom: "conv6_2_mbox_conf_0"
  top: "conv6_2_mbox_conf_2"
  param {
    lr_mult: 1
    decay_mult: 1
  }
  param {
    lr_mult: 2
    decay_mult: 0
  }
  convolution_param {
    num_output: 64
    pad: 1
    kernel_size: 3
    stride: 1
    weight_filler {
      type: "xavier"
    }
    bias_filler {
      type: "constant"
      value: 0
    }
  }
}
layer {
  name: "conv6_2_mbox_conf_2_relu"
  type: "ReLU"
  bottom: "conv6_2_mbox_conf_2"
  top: "conv6_2_mbox_conf_2"
}
layer {
  name: "conv6_2_mbox_conf_2_bn"
  type: "BatchNorm"
  bottom: "conv6_2_mbox_conf_2"
  top: "conv6_2_mbox_conf_2"
  include {
    phase: TRAIN
  }
  batch_norm_param {
    use_global_stats: false
    moving_average_fraction: 0.95
  }
}
layer {
  name: "conv6_2_mbox_conf_3"
  type: "Convolution"
  bottom: "conv6_2_mbox_conf_2"
  top: "conv6_2_mbox_conf_3"
  param {
    lr_mult: 1
    decay_mult: 1
  }
  param {
    lr_mult: 2
    decay_mult: 0
  }
  convolution_param {
    num_output: 12
    pad: 1
    kernel_size: 3
    stride: 1
    weight_filler {
      type: "xavier"
    }
    bias_filler {
      type: "constant"
      value: 0
    }
  }
}
layer {
  name: "conv6_2_mbox_conf_perm_1"
  type: "Permute"
  bottom: "conv6_2_mbox_conf_3"
  top: "conv6_2_mbox_conf_perm_1"
  permute_param {
    order: 0
    order: 2
    order: 3
    order: 1
  }
}
layer {
  name: "conv6_2_mbox_conf_flat_1"
  type: "Flatten"
  bottom: "conv6_2_mbox_conf_perm_1"
  top: "conv6_2_mbox_conf_flat_1"
  flatten_param {
    axis: 1
  }
}
layer {
  name: "conv6_2_mbox_priorbox_1"
  type: "PriorBox"
  bottom: "conv6_2"
  bottom: "data"
  top: "conv6_2_mbox_priorbox_1"
  prior_box_param {
    min_size: 97
    max_size: 138
    aspect_ratio: 0.25
    aspect_ratio: 0.5
    aspect_ratio: 0.75
    aspect_ratio: 1.25
    flip: false
    clip: true
    variance: 0.1
    variance: 0.1
    variance: 0.2
    variance: 0.2
  }
}
layer {
  name: "conv7_2_mbox_loc_1"
  type: "Convolution"
  bottom: "conv7_2"
  top: "conv7_2_mbox_loc_1"
  param {
    lr_mult: 1
    decay_mult: 1
  }
  param {
    lr_mult: 2
    decay_mult: 0
  }
  convolution_param {
    num_output: 24
    pad: 1
    kernel_size: 3
    stride: 1
    weight_filler {
      type: "xavier"
    }
    bias_filler {
      type: "constant"
      value: 0
    }
  }
}
layer {
  name: "conv7_2_mbox_loc_perm_1"
  type: "Permute"
  bottom: "conv7_2_mbox_loc_1"
  top: "conv7_2_mbox_loc_perm_1"
  permute_param {
    order: 0
    order: 2
    order: 3
    order: 1
  }
}
layer {
  name: "conv7_2_mbox_loc_flat_1"
  type: "Flatten"
  bottom: "conv7_2_mbox_loc_perm_1"
  top: "conv7_2_mbox_loc_flat_1"
  flatten_param {
    axis: 1
 
I0925 19:23:47.435802 11544 layer_factory.hpp:77] Creating layer data
I0925 19:23:47.436802 11544 common.cpp:42] System entropy source not available, using fallback algorithm to generate seed instead.
I0925 19:23:47.436802 11544 net.cpp:100] Creating Layer data
I0925 19:23:47.436802 11544 net.cpp:408] data -> data
I0925 19:23:47.436802 11544 net.cpp:408] data -> label
I0925 19:23:47.436802 10680 common.cpp:42] System entropy source not available, using fallback algorithm to generate seed instead.
I0925 19:23:47.437803 10680 db_lmdb.cpp:51] Opened lmdb M:/yhzheng/Pedestrian/Data_0825/train_lmdb
I0925 19:23:47.489805 11544 annotated_data_layer.cpp:62] output data size: 32,3,256,384
I0925 19:23:47.688817 11544 net.cpp:150] Setting up data
I0925 19:23:47.688817 11544 net.cpp:157] Top shape: 32 3 256 384 (9437184)
I0925 19:23:47.688817 11544 net.cpp:157] Top shape: 1 1 6 8 (48)
I0925 19:23:47.689817  6492 common.cpp:42] System entropy source not available, using fallback algorithm to generate seed instead.
I0925 19:23:47.689817 11544 net.cpp:165] Memory required for data: 37748928
I0925 19:23:47.689817 11544 layer_factory.hpp:77] Creating layer data_data_0_split
I0925 19:23:47.689817 11544 net.cpp:100] Creating Layer data_data_0_split
I0925 19:23:47.689817 11544 net.cpp:434] data_data_0_split <- data
I0925 19:23:47.690817 11544 net.cpp:408] data_data_0_split -> data_data_0_split_0
I0925 19:23:47.690817 11544 net.cpp:408] data_data_0_split -> data_data_0_split_1
I0925 19:23:47.690817 11544 net.cpp:408] data_data_0_split -> data_data_0_split_2
I0925 19:23:47.690817 11544 net.cpp:408] data_data_0_split -> data_data_0_split_3
I0925 19:23:47.691817 11544 net.cpp:408] data_data_0_split -> data_data_0_split_4
I0925 19:23:47.691817 11544 net.cpp:408] data_data_0_split -> data_data_0_split_5
I0925 19:23:47.691817 11544 net.cpp:408] data_data_0_split -> data_data_0_split_6
I0925 19:23:47.691817 11544 net.cpp:150] Setting up data_data_0_split
I0925 19:23:47.692817 11544 net.cpp:157] Top shape: 32 3 256 384 (9437184)
I0925 19:23:47.692817 11544 net.cpp:157] Top shape: 32 3 256 384 (9437184)
I0925 19:23:47.692817 11544 net.cpp:157] Top shape: 32 3 256 384 (9437184)
I0925 19:23:47.692817 11544 net.cpp:157] Top shape: 32 3 256 384 (9437184)
I0925 19:23:47.692817 11544 net.cpp:157] Top shape: 32 3 256 384 (9437184)
I0925 19:23:47.693817 11544 net.cpp:157] Top shape: 32 3 256 384 (9437184)
I0925 19:23:47.693817 11544 net.cpp:157] Top shape: 32 3 256 384 (9437184)
I0925 19:23:47.693817 11544 net.cpp:165] Memory required for data: 301990080
I0925 19:23:47.693817 11544 layer_factory.hpp:77] Creating layer conv1
I0925 19:23:47.693817 11544 net.cpp:100] Creating Layer conv1
I0925 19:23:47.693817 11544 net.cpp:434] conv1 <- data_data_0_split_0
I0925 19:23:47.694818 11544 net.cpp:408] conv1 -> conv1
I0925 19:23:47.910830 11544 net.cpp:150] Setting up conv1
I0925 19:23:47.911829 11544 net.cpp:157] Top shape: 32 64 128 192 (50331648)
I0925 19:23:47.911829 11544 net.cpp:165] Memory required for data: 503316672
I0925 19:23:47.911829 11544 layer_factory.hpp:77] Creating layer relu_conv1
I0925 19:23:47.911829 11544 net.cpp:100] Creating Layer relu_conv1
I0925 19:23:47.911829 11544 net.cpp:434] relu_conv1 <- conv1
I0925 19:23:47.911829 11544 net.cpp:395] relu_conv1 -> conv1 (in-place)
I0925 19:23:47.912829 11544 net.cpp:150] Setting up relu_conv1
I0925 19:23:47.912829 11544 net.cpp:157] Top shape: 32 64 128 192 (50331648)
I0925 19:23:47.912829 11544 net.cpp:165] Memory required for data: 704643264
I0925 19:23:47.912829 11544 layer_factory.hpp:77] Creating layer pool1
I0925 19:23:47.913830 11544 net.cpp:100] Creating Layer pool1
I0925 19:23:47.913830 11544 net.cpp:434] pool1 <- conv1
I0925 19:23:47.913830 11544 net.cpp:408] pool1 -> pool1
I0925 19:23:47.913830 11544 net.cpp:150] Setting up pool1
I0925 19:23:47.913830 11544 net.cpp:157] Top shape: 32 64 64 96 (12582912)
I0925 19:23:47.913830 11544 net.cpp:165] Memory required for data: 754974912
I0925 19:23:47.914829 11544 layer_factory.hpp:77] Creating layer conv1_bn
I0925 19:23:47.914829 11544 net.cpp:100] Creating Layer conv1_bn
I0925 19:23:47.914829 11544 net.cpp:434] conv1_bn <- pool1
I0925 19:23:47.914829 11544 net.cpp:395] conv1_bn -> pool1 (in-place)
I0925 19:23:47.915829 11544 net.cpp:150] Setting up conv1_bn
I0925 19:23:47.915829 11544 net.cpp:157] Top shape: 32 64 64 96 (12582912)
I0925 19:23:47.915829 11544 net.cpp:165] Memory required for data: 805306560
I0925 19:23:47.915829 11544 layer_factory.hpp:77] Creating layer fire2/squeeze1x1
I0925 19:23:47.916831 11544 net.cpp:100] Creating Layer fire2/squeeze1x1
I0925 19:23:47.916831 11544 net.cpp:434] fire2/squeeze1x1 <- pool1
I0925 19:23:47.916831 11544 net.cpp:408] fire2/squeeze1x1 -> fire2/squeeze1x1
I0925 19:23:47.918830 11544 net.cpp:150] Setting up fire2/squeeze1x1
I0925 19:23:47.918830 11544 net.cpp:157] Top shape: 32 16 64 96 (3145728)
I0925 19:23:47.918830 11544 net.cpp:165] Memory required for data: 817889472
I0925 19:23:47.918830 11544 layer_factory.hpp:77] Creating layer fire2/relu_squeeze1x1
I0925 19:23:47.919831 11544 net.cpp:100] Creating Layer fire2/relu_squeeze1x1
I0925 19:23:47.919831 11544 net.cpp:434] fire2/relu_squeeze1x1 <- fire2/squeeze1x1
I0925 19:23:47.919831 11544 net.cpp:395] fire2/relu_squeeze1x1 -> fire2/squeeze1x1 (in-place)
I0925 19:23:47.919831 11544 net.cpp:150] Setting up fire2/relu_squeeze1x1
I0925 19:23:47.920830 11544 net.cpp:157] Top shape: 32 16 64 96 (3145728)
I0925 19:23:47.920830 11544 net.cpp:165] Memory required for data: 830472384
I0925 19:23:47.920830 11544 layer_factory.hpp:77] Creating layer fire2/squeeze1x1_fire2/relu_squeeze1x1_0_split
I0925 19:23:47.920830 11544 net.cpp:100] Creating Layer fire2/squeeze1x1_fire2/relu_squeeze1x1_0_split
I0925 19:23:47.920830 11544 net.cpp:434] fire2/squeeze1x1_fire2/relu_squeeze1x1_0_split <- fire2/squeeze1x1
I0925 19:23:47.921830 11544 net.cpp:408] fire2/squeeze1x1_fire2/relu_squeeze1x1_0_split -> fire2/squeeze1x1_fire2/relu_squeeze1x1_0_split_0
I0925 19:23:47.921830 11544 net.cpp:408] fire2/squeeze1x1_fire2/relu_squeeze1x1_0_split -> fire2/squeeze1x1_fire2/relu_squeeze1x1_0_split_1
I0925 19:23:47.921830 11544 net.cpp:150] Setting up fire2/squeeze1x1_fire2/relu_squeeze1x1_0_split
I0925 19:23:47.922830 11544 net.cpp:157] Top shape: 32 16 64 96 (3145728)
I0925 19:23:47.922830 11544 net.cpp:157] Top shape: 32 16 64 96 (3145728)
I0925 19:23:47.922830 11544 net.cpp:165] Memory required for data: 855638208
I0925 19:23:47.922830 11544 layer_factory.hpp:77] Creating layer fire2/expand1x1
I0925 19:23:47.922830 11544 net.cpp:100] Creating Layer fire2/expand1x1
I0925 19:23:47.922830 11544 net.cpp:434] fire2/expand1x1 <- fire2/squeeze1x1_fire2/relu_squeeze1x1_0_split_0
I0925 19:23:47.923830 11544 net.cpp:408] fire2/expand1x1 -> fire2/expand1x1
I0925 19:23:47.925830 11544 net.cpp:150] Setting up fire2/expand1x1
I0925 19:23:47.925830 11544 net.cpp:157] Top shape: 32 64 64 96 (12582912)
I0925 19:23:47.925830 11544 net.cpp:165] Memory required for data: 905969856
I0925 19:23:47.925830 11544 layer_factory.hpp:77] Creating layer fire2/relu_expand1x1
I0925 19:23:47.926831 11544 net.cpp:100] Creating Layer fire2/relu_expand1x1
I0925 19:23:47.926831 11544 net.cpp:434] fire2/relu_expand1x1 <- fire2/expand1x1
I0925 19:23:47.926831 11544 net.cpp:395] fire2/relu_expand1x1 -> fire2/expand1x1 (in-place)
I0925 19:23:47.926831 11544 net.cpp:150] Setting up fire2/relu_expand1x1
I0925 19:23:47.927830 11544 net.cpp:157] Top shape: 32 64 64 96 (12582912)
I0925 19:23:47.927830 11544 net.cpp:165] Memory required for data: 956301504
I0925 19:23:47.927830 11544 layer_factory.hpp:77] Creating layer fire2/expand3x3
I0925 19:23:47.927830 11544 net.cpp:100] Creating Layer fire2/expand3x3
I0925 19:23:47.927830 11544 net.cpp:434] fire2/expand3x3 <- fire2/squeeze1x1_fire2/relu_squeeze1x1_0_split_1
I0925 19:23:47.928830 11544 net.cpp:408] fire2/expand3x3 -> fire2/expand3x3
I0925 19:23:47.930830 11544 net.cpp:150] Setting up fire2/expand3x3
I0925 19:23:47.930830 11544 net.cpp:157] Top shape: 32 64 64 96 (12582912)
I0925 19:23:47.930830 11544 net.cpp:165] Memory required for data: 1006633152
I0925 19:23:47.930830 11544 layer_factory.hpp:77] Creating layer fire2/relu_expand3x3
I0925 19:23:47.930830 11544 net.cpp:100] Creating Layer fire2/relu_expand3x3
I0925 19:23:47.931830 11544 net.cpp:434] fire2/relu_expand3x3 <- fire2/expand3x3
I0925 19:23:47.931830 11544 net.cpp:395] fire2/relu_expand3x3 -> fire2/expand3x3 (in-place)
I0925 19:23:47.931830 11544 net.cpp:150] Setting up fire2/relu_expand3x3
I0925 19:23:47.932831 11544 net.cpp:157] Top shape: 32 64 64 96 (12582912)
I0925 19:23:47.932831 11544 net.cpp:165] Memory required for data: 1056964800
I0925 19:23:47.932831 11544 layer_factory.hpp:77] Creating layer fire2/concat
I0925 19:23:47.932831 11544 net.cpp:100] Creating Layer fire2/concat
I0925 19:23:47.932831 11544 net.cpp:434] fire2/concat <- fire2/expand1x1
I0925 19:23:47.932831 11544 net.cpp:434] fire2/concat <- fire2/expand3x3
I0925 19:23:47.933830 11544 net.cpp:408] fire2/concat -> fire2/concat
I0925 19:23:47.933830 11544 net.cpp:150] Setting up fire2/concat
I0925 19:23:47.933830 11544 net.cpp:157] Top shape: 32 128 64 96 (25165824)
I0925 19:23:47.933830 11544 net.cpp:165] Memory required for data: 1157628096
I0925 19:23:47.933830 11544 layer_factory.hpp:77] Creating layer fire2/concat_bn
I0925 19:23:47.933830 11544 net.cpp:100] Creating Layer fire2/concat_bn
I0925 19:23:47.934831 11544 net.cpp:434] fire2/concat_bn <- fire2/concat
I0925 19:23:47.934831 11544 net.cpp:395] fire2/concat_bn -> fire2/concat (in-place)
I0925 19:23:47.934831 11544 net.cpp:150] Setting up fire2/concat_bn
I0925 19:23:47.934831 11544 net.cpp:157] Top shape: 32 128 64 96 (25165824)
I0925 19:23:47.935832 11544 net.cpp:165] Memory required for data: 1258291392
I0925 19:23:47.935832 11544 layer_factory.hpp:77] Creating layer fire3/squeeze1x1
I0925 19:23:47.935832 11544 net.cpp:100] Creating Layer fire3/squeeze1x1
I0925 19:23:47.935832 11544 net.cpp:434] fire3/squeeze1x1 <- fire2/concat
I0925 19:23:47.935832 11544 net.cpp:408] fire3/squeeze1x1 -> fire3/squeeze1x1
I0925 19:23:47.937831 11544 net.cpp:150] Setting up fire3/squeeze1x1
I0925 19:23:47.937831 11544 net.cpp:157] Top shape: 32 16 64 96 (3145728)
I0925 19:23:47.937831 11544 net.cpp:165] Memory required for data: 1270874304
I0925 19:23:47.937831 11544 layer_factory.hpp:77] Creating layer fire3/relu_squeeze1x1
I0925 19:23:47.938832 11544 net.cpp:100] Creating Layer fire3/relu_squeeze1x1
I0925 19:23:47.938832 11544 net.cpp:434] fire3/relu_squeeze1x1 <- fire3/squeeze1x1
I0925 19:23:47.938832 11544 net.cpp:395] fire3/relu_squeeze1x1 -> fire3/squeeze1x1 (in-place)
I0925 19:23:47.938832 11544 net.cpp:150] Setting up fire3/relu_squeeze1x1
I0925 19:23:47.939831 11544 net.cpp:157] Top shape: 32 16 64 96 (3145728)
I0925 19:23:47.939831 11544 net.cpp:165] Memory required for data: 1283457216
I0925 19:23:47.939831 11544 layer_factory.hpp:77] Creating layer fire3/squeeze1x1_fire3/relu_squeeze1x1_0_split
I0925 19:23:47.939831 11544 net.cpp:100] Creating Layer fire3/squeeze1x1_fire3/relu_squeeze1x1_0_split
I0925 19:23:47.939831 11544 net.cpp:434] fire3/squeeze1x1_fire3/relu_squeeze1x1_0_split <- fire3/squeeze1x1
I0925 19:23:47.940831 11544 net.cpp:408] fire3/squeeze1x1_fire3/relu_squeeze1x1_0_split -> fire3/squeeze1x1_fire3/relu_squeeze1x1_0_split_0
I0925 19:23:47.940831 11544 net.cpp:408] fire3/squeeze1x1_fire3/relu_squeeze1x1_0_split -> fire3/squeeze1x1_fire3/relu_squeeze1x1_0_split_1
I0925 19:23:47.940831 11544 net.cpp:150] Setting up fire3/squeeze1x1_fire3/relu_squeeze1x1_0_split
I0925 19:23:47.940831 11544 net.cpp:157] Top shape: 32 16 64 96 (3145728)
I0925 19:23:47.941831 11544 net.cpp:157] Top shape: 32 16 64 96 (3145728)
I0925 19:23:47.941831 11544 net.cpp:165] Memory required for data: 1308623040
I0925 19:23:47.941831 11544 layer_factory.hpp:77] Creating layer fire3/expand1x1
I0925 19:23:47.941831 11544 net.cpp:100] Creating Layer fire3/expand1x1
I0925 19:23:47.941831 11544 net.cpp:434] fire3/expand1x1 <- fire3/squeeze1x1_fire3/relu_squeeze1x1_0_split_0
I0925 19:23:47.942831 11544 net.cpp:408] fire3/expand1x1 -> fire3/expand1x1
I0925 19:23:47.943831 11544 net.cpp:150] Setting up fire3/expand1x1
I0925 19:23:47.943831 11544 net.cpp:157] Top shape: 32 64 64 96 (12582912)
I0925 19:23:47.944831 11544 net.cpp:165] Memory required for data: 1358954688
I0925 19:23:47.944831 11544 layer_factory.hpp:77] Creating layer fire3/relu_expand1x1
I0925 19:23:47.944831 11544 net.cpp:100] Creating Layer fire3/relu_expand1x1
I0925 19:23:47.944831 11544 net.cpp:434] fire3/relu_expand1x1 <- fire3/expand1x1
I0925 19:23:47.944831 11544 net.cpp:395] fire3/relu_expand1x1 -> fire3/expand1x1 (in-place)
I0925 19:23:47.945832 11544 net.cpp:150] Setting up fire3/relu_expand1x1
I0925 19:23:47.945832 11544 net.cpp:157] Top shape: 32 64 64 96 (12582912)
I0925 19:23:47.945832 11544 net.cpp:165] Memory required for data: 1409286336
I0925 19:23:47.945832 11544 layer_factory.hpp:77] Creating layer fire3/expand3x3
I0925 19:23:47.946831 11544 net.cpp:100] Creating Layer fire3/expand3x3
I0925 19:23:47.946831 11544 net.cpp:434] fire3/expand3x3 <- fire3/squeeze1x1_fire3/relu_squeeze1x1_0_split_1
I0925 19:23:47.946831 11544 net.cpp:408] fire3/expand3x3 -> fire3/expand3x3
I0925 19:23:47.947831 11544 net.cpp:150] Setting up fire3/expand3x3
I0925 19:23:47.948832 11544 net.cpp:157] Top shape: 32 64 64 96 (12582912)
I0925 19:23:47.948832 11544 net.cpp:165] Memory required for data: 1459617984
I0925 19:23:47.948832 11544 layer_factory.hpp:77] Creating layer fire3/relu_expand3x3
I0925 19:23:47.948832 11544 net.cpp:100] Creating Layer fire3/relu_expand3x3
I0925 19:23:47.948832 11544 net.cpp:434] fire3/relu_expand3x3 <- fire3/expand3x3
I0925 19:23:47.949831 11544 net.cpp:395] fire3/relu_expand3x3 -> fire3/expand3x3 (in-place)
I0925 19:23:47.949831 11544 net.cpp:150] Setting up fire3/relu_expand3x3
I0925 19:23:47.949831 11544 net.cpp:157] Top shape: 32 64 64 96 (12582912)
I0925 19:23:47.950831 11544 net.cpp:165] Memory required for data: 1509949632
I0925 19:23:47.950831 11544 layer_factory.hpp:77] Creating layer fire3/concat
I0925 19:23:47.950831 11544 net.cpp:100] Creating Layer fire3/concat
I0925 19:23:47.950831 11544 net.cpp:434] fire3/concat <- fire3/expand1x1
I0925 19:23:47.950831 11544 net.cpp:434] fire3/concat <- fire3/expand3x3
I0925 19:23:47.950831 11544 net.cpp:408] fire3/concat -> fire3/concat
I0925 19:23:47.951833 11544 net.cpp:150] Setting up fire3/concat
I0925 19:23:47.951833 11544 net.cpp:157] Top shape: 32 128 64 96 (25165824)
I0925 19:23:47.951833 11544 net.cpp:165] Memory required for data: 1610612928
I0925 19:23:47.951833 11544 layer_factory.hpp:77] Creating layer pool3
I0925 19:23:47.951833 11544 net.cpp:100] Creating Layer pool3
I0925 19:23:47.952832 11544 net.cpp:434] pool3 <- fire3/concat
I0925 19:23:47.952832 11544 net.cpp:408] pool3 -> pool3
I0925 19:23:47.952832 11544 net.cpp:150] Setting up pool3
I0925 19:23:47.952832 11544 net.cpp:157] Top shape: 32 128 32 48 (6291456)
I0925 19:23:47.952832 11544 net.cpp:165] Memory required for data: 1635778752
I0925 19:23:47.952832 11544 layer_factory.hpp:77] Creating layer fire3/concat_bn
I0925 19:23:47.953832 11544 net.cpp:100] Creating Layer fire3/concat_bn
I0925 19:23:47.953832 11544 net.cpp:434] fire3/concat_bn <- pool3
I0925 19:23:47.953832 11544 net.cpp:395] fire3/concat_bn -> pool3 (in-place)
I0925 19:23:47.953832 11544 net.cpp:150] Setting up fire3/concat_bn
I0925 19:23:47.954833 11544 net.cpp:157] Top shape: 32 128 32 48 (6291456)
I0925 19:23:47.954833 11544 net.cpp:165] Memory required for data: 1660944576
I0925 19:23:47.954833 11544 layer_factory.hpp:77] Creating layer fire4/squeeze1x1
I0925 19:23:47.954833 11544 net.cpp:100] Creating Layer fire4/squeeze1x1
I0925 19:23:47.954833 11544 net.cpp:434] fire4/squeeze1x1 <- pool3
I0925 19:23:47.954833 11544 net.cpp:408] fire4/squeeze1x1 -> fire4/squeeze1x1
I0925 19:23:47.956832 11544 net.cpp:150] Setting up fire4/squeeze1x1
I0925 19:23:47.956832 11544 net.cpp:157] Top shape: 32 32 32 48 (1572864)
I0925 19:23:47.956832 11544 net.cpp:165] Memory required for data: 1667236032
I0925 19:23:47.956832 11544 layer_factory.hpp:77] Creating layer fire4/relu_squeeze1x1
I0925 19:23:47.957832 11544 net.cpp:100] Creating Layer fire4/relu_squeeze1x1
I0925 19:23:47.957832 11544 net.cpp:434] fire4/relu_squeeze1x1 <- fire4/squeeze1x1
I0925 19:23:47.957832 11544 net.cpp:395] fire4/relu_squeeze1x1 -> fire4/squeeze1x1 (in-place)
I0925 19:23:47.958832 11544 net.cpp:150] Setting up fire4/relu_squeeze1x1
I0925 19:23:47.958832 11544 net.cpp:157] Top shape: 32 32 32 48 (1572864)
I0925 19:23:47.958832 11544 net.cpp:165] Memory required for data: 1673527488
I0925 19:23:47.958832 11544 layer_factory.hpp:77] Creating layer fire4/squeeze1x1_fire4/relu_squeeze1x1_0_split
I0925 19:23:47.958832 11544 net.cpp:100] Creating Layer fire4/squeeze1x1_fire4/relu_squeeze1x1_0_split
I0925 19:23:47.959832 11544 net.cpp:434] fire4/squeeze1x1_fire4/relu_squeeze1x1_0_split <- fire4/squeeze1x1
I0925 19:23:47.959832 11544 net.cpp:408] fire4/squeeze1x1_fire4/relu_squeeze1x1_0_split -> fire4/squeeze1x1_fire4/relu_squeeze1x1_0_split_0
I0925 19:23:47.959832 11544 net.cpp:408] fire4/squeeze1x1_fire4/relu_squeeze1x1_0_split -> fire4/squeeze1x1_fire4/relu_squeeze1x1_0_split_1
I0925 19:23:47.959832 11544 net.cpp:150] Setting up fire4/squeeze1x1_fire4/relu_squeeze1x1_0_split
I0925 19:23:47.960832 11544 net.cpp:157] Top shape: 32 32 32 48 (1572864)
I0925 19:23:47.960832 11544 net.cpp:157] Top shape: 32 32 32 48 (1572864)
I0925 19:23:47.960832 11544 net.cpp:165] Memory required for data: 1686110400
I0925 19:23:47.960832 11544 layer_factory.hpp:77] Creating layer fire4/expand1x1
I0925 19:23:47.960832 11544 net.cpp:100] Creating Layer fire4/expand1x1
I0925 19:23:47.960832 11544 net.cpp:434] fire4/expand1x1 <- fire4/squeeze1x1_fire4/relu_squeeze1x1_0_split_0
I0925 19:23:47.961833 11544 net.cpp:408] fire4/expand1x1 -> fire4/expand1x1
I0925 19:23:47.962832 11544 net.cpp:150] Setting up fire4/expand1x1
I0925 19:23:47.962832 11544 net.cpp:157] Top shape: 32 128 32 48 (6291456)
I0925 19:23:47.962832 11544 net.cpp:165] Memory required for data: 1711276224
I0925 19:23:47.963832 11544 layer_factory.hpp:77] Creating layer fire4/relu_expand1x1
I0925 19:23:47.963832 11544 net.cpp:100] Creating Layer fire4/relu_expand1x1
I0925 19:23:47.963832 11544 net.cpp:434] fire4/relu_expand1x1 <- fire4/expand1x1
I0925 19:23:47.963832 11544 net.cpp:395] fire4/relu_expand1x1 -> fire4/expand1x1 (in-place)
I0925 19:23:47.964833 11544 net.cpp:150] Setting up fire4/relu_expand1x1
I0925 19:23:47.964833 11544 net.cpp:157] Top shape: 32 128 32 48 (6291456)
I0925 19:23:47.964833 11544 net.cpp:165] Memory required for data: 1736442048
I0925 19:23:47.964833 11544 layer_factory.hpp:77] Creating layer fire4/expand3x3
I0925 19:23:47.964833 11544 net.cpp:100] Creating Layer fire4/expand3x3
I0925 19:23:47.965832 11544 net.cpp:434] fire4/expand3x3 <- fire4/squeeze1x1_fire4/relu_squeeze1x1_0_split_1
I0925 19:23:47.965832 11544 net.cpp:408] fire4/expand3x3 -> fire4/expand3x3
I0925 19:23:47.967833 11544 net.cpp:150] Setting up fire4/expand3x3
I0925 19:23:47.967833 11544 net.cpp:157] Top shape: 32 128 32 48 (6291456)
I0925 19:23:47.967833 11544 net.cpp:165] Memory required for data: 1761607872
I0925 19:23:47.968833 11544 layer_factory.hpp:77] Creating layer fire4/relu_expand3x3
I0925 19:23:47.968833 11544 net.cpp:100] Creating Layer fire4/relu_expand3x3
I0925 19:23:47.968833 11544 net.cpp:434] fire4/relu_expand3x3 <- fire4/expand3x3
I0925 19:23:47.968833 11544 net.cpp:395] fire4/relu_expand3x3 -> fire4/expand3x3 (in-place)
I0925 19:23:47.969833 11544 net.cpp:150] Setting up fire4/relu_expand3x3
I0925 19:23:47.969833 11544 net.cpp:157] Top shape: 32 128 32 48 (6291456)
I0925 19:23:47.969833 11544 net.cpp:165] Memory required for data: 1786773696
I0925 19:23:47.969833 11544 layer_factory.hpp:77] Creating layer fire4/concat
I0925 19:23:47.970834 11544 net.cpp:100] Creating Layer fire4/concat
I0925 19:23:47.970834 11544 net.cpp:434] fire4/concat <- fire4/expand1x1
I0925 19:23:47.970834 11544 net.cpp:434] fire4/concat <- fire4/expand3x3
I0925 19:23:47.970834 11544 net.cpp:408] fire4/concat -> fire4/concat
I0925 19:23:47.970834 11544 net.cpp:150] Setting up fire4/concat
I0925 19:23:47.970834 11544 net.cpp:157] Top shape: 32 256 32 48 (12582912)
I0925 19:23:47.971833 11544 net.cpp:165] Memory required for data: 1837105344
I0925 19:23:47.971833 11544 layer_factory.hpp:77] Creating layer fire4/concat_bn
I0925 19:23:47.971833 11544 net.cpp:100] Creating Layer fire4/concat_bn
I0925 19:23:47.971833 11544 net.cpp:434] fire4/concat_bn <- fire4/concat
I0925 19:23:47.971833 11544 net.cpp:395] fire4/concat_bn -> fire4/concat (in-place)
I0925 19:23:47.972833 11544 net.cpp:150] Setting up fire4/concat_bn
I0925 19:23:47.972833 11544 net.cpp:157] Top shape: 32 256 32 48 (12582912)
I0925 19:23:47.972833 11544 net.cpp:165] Memory required for data: 1887436992
I0925 19:23:47.972833 11544 layer_factory.hpp:77] Creating layer fire5/squeeze1x1
I0925 19:23:47.973834 11544 net.cpp:100] Creating Layer fire5/squeeze1x1
I0925 19:23:47.973834 11544 net.cpp:434] fire5/squeeze1x1 <- fire4/concat
I0925 19:23:47.973834 11544 net.cpp:408] fire5/squeeze1x1 -> fire5/squeeze1x1
I0925 19:23:47.974833 11544 net.cpp:150] Setting up fire5/squeeze1x1
I0925 19:23:47.975833 11544 net.cpp:157] Top shape: 32 32 32 48 (1572864)
I0925 19:23:47.975833 11544 net.cpp:165] Memory required for data: 1893728448
I0925 19:23:47.975833 11544 layer_factory.hpp:77] Creating layer fire5/relu_squeeze1x1
I0925 19:23:47.975833 11544 net.cpp:100] Creating Layer fire5/relu_squeeze1x1
I0925 19:23:47.975833 11544 net.cpp:434] fire5/relu_squeeze1x1 <- fire5/squeeze1x1
I0925 19:23:47.976833 11544 net.cpp:395] fire5/relu_squeeze1x1 -> fire5/squeeze1x1 (in-place)
I0925 19:23:47.976833 11544 net.cpp:150] Setting up fire5/relu_squeeze1x1
I0925 19:23:47.976833 11544 net.cpp:157] Top shape: 32 32 32 48 (1572864)
I0925 19:23:47.977833 11544 net.cpp:165] Memory required for data: 1900019904
I0925 19:23:47.977833 11544 layer_factory.hpp:77] Creating layer fire5/squeeze1x1_fire5/relu_squeeze1x1_0_split
I0925 19:23:47.977833 11544 net.cpp:100] Creating Layer fire5/squeeze1x1_fire5/relu_squeeze1x1_0_split
I0925 19:23:47.977833 11544 net.cpp:434] fire5/squeeze1x1_fire5/relu_squeeze1x1_0_split <- fire5/squeeze1x1
I0925 19:23:47.977833 11544 net.cpp:408] fire5/squeeze1x1_fire5/relu_squeeze1x1_0_split -> fire5/squeeze1x1_fire5/relu_squeeze1x1_0_split_0
I0925 19:23:47.978833 11544 net.cpp:408] fire5/squeeze1x1_fire5/relu_squeeze1x1_0_split -> fire5/squeeze1x1_fire5/relu_squeeze1x1_0_split_1
I0925 19:23:47.978833 11544 net.cpp:150] Setting up fire5/squeeze1x1_fire5/relu_squeeze1x1_0_split
I0925 19:23:47.978833 11544 net.cpp:157] Top shape: 32 32 32 48 (1572864)
I0925 19:23:47.978833 11544 net.cpp:157] Top shape: 32 32 32 48 (1572864)
I0925 19:23:47.979833 11544 net.cpp:165] Memory required for data: 1912602816
I0925 19:23:47.979833 11544 layer_factory.hpp:77] Creating layer fire5/expand1x1
I0925 19:23:47.979833 11544 net.cpp:100] Creating Layer fire5/expand1x1
I0925 19:23:47.979833 11544 net.cpp:434] fire5/expand1x1 <- fire5/squeeze1x1_fire5/relu_squeeze1x1_0_split_0
I0925 19:23:47.979833 11544 net.cpp:408] fire5/expand1x1 -> fire5/expand1x1
I0925 19:23:47.981833 11544 net.cpp:150] Setting up fire5/expand1x1
I0925 19:23:47.981833 11544 net.cpp:157] Top shape: 32 128 32 48 (6291456)
I0925 19:23:47.981833 11544 net.cpp:165] Memory required for data: 1937768640
I0925 19:23:47.981833 11544 layer_factory.hpp:77] Creating layer fire5/relu_expand1x1
I0925 19:23:47.982833 11544 net.cpp:100] Creating Layer fire5/relu_expand1x1
I0925 19:23:47.982833 11544 net.cpp:434] fire5/relu_expand1x1 <- fire5/expand1x1
I0925 19:23:47.982833 11544 net.cpp:395] fire5/relu_expand1x1 -> fire5/expand1x1 (in-place)
I0925 19:23:47.982833 11544 net.cpp:150] Setting up fire5/relu_expand1x1
I0925 19:23:47.983834 11544 net.cpp:157] Top shape: 32 128 32 48 (6291456)
I0925 19:23:47.983834 11544 net.cpp:165] Memory required for data: 1962934464
I0925 19:23:47.983834 11544 layer_factory.hpp:77] Creating layer fire5/expand3x3
I0925 19:23:47.983834 11544 net.cpp:100] Creating Layer fire5/expand3x3
I0925 19:23:47.983834 11544 net.cpp:434] fire5/expand3x3 <- fire5/squeeze1x1_fire5/relu_squeeze1x1_0_split_1
I0925 19:23:47.984833 11544 net.cpp:408] fire5/expand3x3 -> fire5/expand3x3
I0925 19:23:47.986835 11544 net.cpp:150] Setting up fire5/expand3x3
I0925 19:23:47.986835 11544 net.cpp:157] Top shape: 32 128 32 48 (6291456)
I0925 19:23:47.986835 11544 net.cpp:165] Memory required for data: 1988100288
I0925 19:23:47.986835 11544 layer_factory.hpp:77] Creating layer fire5/relu_expand3x3
I0925 19:23:47.986835 11544 net.cpp:100] Creating Layer fire5/relu_expand3x3
I0925 19:23:47.987834 11544 net.cpp:434] fire5/relu_expand3x3 <- fire5/expand3x3
I0925 19:23:47.987834 11544 net.cpp:395] fire5/relu_expand3x3 -> fire5/expand3x3 (in-place)
I0925 19:23:47.987834 11544 net.cpp:150] Setting up fire5/relu_expand3x3
I0925 19:23:47.987834 11544 net.cpp:157] Top shape: 32 128 32 48 (6291456)
I0925 19:23:47.988834 11544 net.cpp:165] Memory required for data: 2013266112
I0925 19:23:47.988834 11544 layer_factory.hpp:77] Creating layer fire5/concat
I0925 19:23:47.988834 11544 net.cpp:100] Creating Layer fire5/concat
I0925 19:23:47.988834 11544 net.cpp:434] fire5/concat <- fire5/expand1x1
I0925 19:23:47.988834 11544 net.cpp:434] fire5/concat <- fire5/expand3x3
I0925 19:23:47.989835 11544 net.cpp:408] fire5/concat -> fire5/concat
I0925 19:23:47.989835 11544 net.cpp:150] Setting up fire5/concat
I0925 19:23:47.989835 11544 net.cpp:157] Top shape: 32 256 32 48 (12582912)
I0925 19:23:47.989835 11544 net.cpp:165] Memory required for data: 2063597760
I0925 19:23:47.989835 11544 layer_factory.hpp:77] Creating layer fire5/concat_fire5/concat_0_split
I0925 19:23:47.990834 11544 net.cpp:100] Creating Layer fire5/concat_fire5/concat_0_split
I0925 19:23:47.990834 11544 net.cpp:434] fire5/concat_fire5/concat_0_split <- fire5/concat
I0925 19:23:47.990834 11544 net.cpp:408] fire5/concat_fire5/concat_0_split -> fire5/concat_fire5/concat_0_split_0
I0925 19:23:47.990834 11544 net.cpp:408] fire5/concat_fire5/concat_0_split -> fire5/concat_fire5/concat_0_split_1
I0925 19:23:47.991834 11544 net.cpp:150] Setting up fire5/concat_fire5/concat_0_split
I0925 19:23:47.991834 11544 net.cpp:157] Top shape: 32 256 32 48 (12582912)
I0925 19:23:47.991834 11544 net.cpp:157] Top shape: 32 256 32 48 (12582912)
I0925 19:23:47.991834 11544 net.cpp:165] Memory required for data: 2164261056
I0925 19:23:47.991834 11544 layer_factory.hpp:77] Creating layer pool5
I0925 19:23:47.992835 11544 net.cpp:100] Creating Layer pool5
I0925 19:23:47.992835 11544 net.cpp:434] pool5 <- fire5/concat_fire5/concat_0_split_0
I0925 19:23:47.992835 11544 net.cpp:408] pool5 -> pool5
I0925 19:23:47.992835 11544 net.cpp:150] Setting up pool5
I0925 19:23:47.992835 11544 net.cpp:157] Top shape: 32 256 16 24 (3145728)
I0925 19:23:47.992835 11544 net.cpp:165] Memory required for data: 2176843968
I0925 19:23:47.993834 11544 layer_factory.hpp:77] Creating layer fire5/concat_bn
I0925 19:23:47.993834 11544 net.cpp:100] Creating Layer fire5/concat_bn
I0925 19:23:47.993834 11544 net.cpp:434] fire5/concat_bn <- pool5
I0925 19:23:47.993834 11544 net.cpp:395] fire5/concat_bn -> pool5 (in-place)
I0925 19:23:47.994834 11544 net.cpp:150] Setting up fire5/concat_bn
I0925 19:23:47.994834 11544 net.cpp:157] Top shape: 32 256 16 24 (3145728)
I0925 19:23:47.994834 11544 net.cpp:165] Memory required for data: 2189426880
I0925 19:23:47.994834 11544 layer_factory.hpp:77] Creating layer fire6/squeeze1x1
I0925 19:23:47.994834 11544 net.cpp:100] Creating Layer fire6/squeeze1x1
I0925 19:23:47.995834 11544 net.cpp:434] fire6/squeeze1x1 <- pool5
I0925 19:23:47.995834 11544 net.cpp:408] fire6/squeeze1x1 -> fire6/squeeze1x1
I0925 19:23:47.997834 11544 net.cpp:150] Setting up fire6/squeeze1x1
I0925 19:23:47.997834 11544 net.cpp:157] Top shape: 32 48 16 24 (589824)
I0925 19:23:47.997834 11544 net.cpp:165] Memory required for data: 2191786176
I0925 19:23:47.997834 11544 layer_factory.hpp:77] Creating layer fire6/relu_squeeze1x1
I0925 19:23:47.998834 11544 net.cpp:100] Creating Layer fire6/relu_squeeze1x1
I0925 19:23:47.998834 11544 net.cpp:434] fire6/relu_squeeze1x1 <- fire6/squeeze1x1
I0925 19:23:47.998834 11544 net.cpp:395] fire6/relu_squeeze1x1 -> fire6/squeeze1x1 (in-place)
I0925 19:23:47.999835 11544 net.cpp:150] Setting up fire6/relu_squeeze1x1
I0925 19:23:47.999835 11544 net.cpp:157] Top shape: 32 48 16 24 (589824)
I0925 19:23:47.999835 11544 net.cpp:165] Memory required for data: 2194145472
I0925 19:23:47.999835 11544 layer_factory.hpp:77] Creating layer fire6/squeeze1x1_fire6/relu_squeeze1x1_0_split
I0925 19:23:47.999835 11544 net.cpp:100] Creating Layer fire6/squeeze1x1_fire6/relu_squeeze1x1_0_split
I0925 19:23:48.000834 11544 net.cpp:434] fire6/squeeze1x1_fire6/relu_squeeze1x1_0_split <- fire6/squeeze1x1
I0925 19:23:48.000834 11544 net.cpp:408] fire6/squeeze1x1_fire6/relu_squeeze1x1_0_split -> fire6/squeeze1x1_fire6/relu_squeeze1x1_0_split_0
I0925 19:23:48.000834 11544 net.cpp:408] fire6/squeeze1x1_fire6/relu_squeeze1x1_0_split -> fire6/squeeze1x1_fire6/relu_squeeze1x1_0_split_1
I0925 19:23:48.001834 11544 net.cpp:150] Setting up fire6/squeeze1x1_fire6/relu_squeeze1x1_0_split
I0925 19:23:48.001834 11544 net.cpp:157] Top shape: 32 48 16 24 (589824)
I0925 19:23:48.001834 11544 net.cpp:157] Top shape: 32 48 16 24 (589824)
I0925 19:23:48.001834 11544 net.cpp:165] Memory required for data: 2198864064
I0925 19:23:48.001834 11544 layer_factory.hpp:77] Creating layer fire6/expand1x1
I0925 19:23:48.002835 11544 net.cpp:100] Creating Layer fire6/expand1x1
I0925 19:23:48.002835 11544 net.cpp:434] fire6/expand1x1 <- fire6/squeeze1x1_fire6/relu_squeeze1x1_0_split_0
I0925 19:23:48.002835 11544 net.cpp:408] fire6/expand1x1 -> fire6/expand1x1
I0925 19:23:48.006835 11544 net.cpp:150] Setting up fire6/expand1x1
I0925 19:23:48.006835 11544 net.cpp:157] Top shape: 32 192 16 24 (2359296)
I0925 19:23:48.007835 11544 net.cpp:165] Memory required for data: 2208301248
I0925 19:23:48.007835 11544 layer_factory.hpp:77] Creating layer fire6/relu_expand1x1
I0925 19:23:48.007835 11544 net.cpp:100] Creating Layer fire6/relu_expand1x1
I0925 19:23:48.007835 11544 net.cpp:434] fire6/relu_expand1x1 <- fire6/expand1x1
I0925 19:23:48.007835 11544 net.cpp:395] fire6/relu_expand1x1 -> fire6/expand1x1 (in-place)
I0925 19:23:48.008836 11544 net.cpp:150] Setting up fire6/relu_expand1x1
I0925 19:23:48.008836 11544 net.cpp:157] Top shape: 32 192 16 24 (2359296)
I0925 19:23:48.008836 11544 net.cpp:165] Memory required for data: 2217738432
I0925 19:23:48.008836 11544 layer_factory.hpp:77] Creating layer fire6/expand3x3
I0925 19:23:48.009835 11544 net.cpp:100] Creating Layer fire6/expand3x3
I0925 19:23:48.009835 11544 net.cpp:434] fire6/expand3x3 <- fire6/squeeze1x1_fire6/relu_squeeze1x1_0_split_1
I0925 19:23:48.009835 11544 net.cpp:408] fire6/expand3x3 -> fire6/expand3x3
I0925 19:23:48.013835 11544 net.cpp:150] Setting up fire6/expand3x3
I0925 19:23:48.014835 11544 net.cpp:157] Top shape: 32 192 16 24 (2359296)
I0925 19:23:48.014835 11544 net.cpp:165] Memory required for data: 2227175616
I0925 19:23:48.014835 11544 layer_factory.hpp:77] Creating layer fire6/relu_expand3x3
I0925 19:23:48.014835 11544 net.cpp:100] Creating Layer fire6/relu_expand3x3
I0925 19:23:48.014835 11544 net.cpp:434] fire6/relu_expand3x3 <- fire6/expand3x3
I0925 19:23:48.015836 11544 net.cpp:395] fire6/relu_expand3x3 -> fire6/expand3x3 (in-place)
I0925 19:23:48.015836 11544 net.cpp:150] Setting up fire6/relu_expand3x3
I0925 19:23:48.015836 11544 net.cpp:157] Top shape: 32 192 16 24 (2359296)
I0925 19:23:48.016835 11544 net.cpp:165] Memory required for data: 2236612800
I0925 19:23:48.016835 11544 layer_factory.hpp:77] Creating layer fire6/concat
I0925 19:23:48.016835 11544 net.cpp:100] Creating Layer fire6/concat
I0925 19:23:48.017835 11544 net.cpp:434] fire6/concat <- fire6/expand1x1
I0925 19:23:48.017835 11544 net.cpp:434] fire6/concat <- fire6/expand3x3
I0925 19:23:48.017835 11544 net.cpp:408] fire6/concat -> fire6/concat
I0925 19:23:48.017835 11544 net.cpp:150] Setting up fire6/concat
I0925 19:23:48.018836 11544 net.cpp:157] Top shape: 32 384 16 24 (4718592)
I0925 19:23:48.018836 11544 net.cpp:165] Memory required for data: 2255487168
I0925 19:23:48.018836 11544 layer_factory.hpp:77] Creating layer fire6/concat_bn
I0925 19:23:48.018836 11544 net.cpp:100] Creating Layer fire6/concat_bn
I0925 19:23:48.018836 11544 net.cpp:434] fire6/concat_bn <- fire6/concat
I0925 19:23:48.019835 11544 net.cpp:395] fire6/concat_bn -> fire6/concat (in-place)
I0925 19:23:48.019835 11544 net.cpp:150] Setting up fire6/concat_bn
I0925 19:23:48.019835 11544 net.cpp:157] Top shape: 32 384 16 24 (4718592)
I0925 19:23:48.019835 11544 net.cpp:165] Memory required for data: 2274361536
I0925 19:23:48.020835 11544 layer_factory.hpp:77] Creating layer fire7/squeeze1x1
I0925 19:23:48.020835 11544 net.cpp:100] Creating Layer fire7/squeeze1x1
I0925 19:23:48.020835 11544 net.cpp:434] fire7/squeeze1x1 <- fire6/concat
I0925 19:23:48.020835 11544 net.cpp:408] fire7/squeeze1x1 -> fire7/squeeze1x1
I0925 19:23:48.024837 11544 net.cpp:150] Setting up fire7/squeeze1x1
I0925 19:23:48.024837 11544 net.cpp:157] Top shape: 32 48 16 24 (589824)
I0925 19:23:48.025836 11544 net.cpp:165] Memory required for data: 2276720832
I0925 19:23:48.025836 11544 layer_factory.hpp:77] Creating layer fire7/relu_squeeze1x1
I0925 19:23:48.025836 11544 net.cpp:100] Creating Layer fire7/relu_squeeze1x1
I0925 19:23:48.025836 11544 net.cpp:434] fire7/relu_squeeze1x1 <- fire7/squeeze1x1
I0925 19:23:48.025836 11544 net.cpp:395] fire7/relu_squeeze1x1 -> fire7/squeeze1x1 (in-place)
I0925 19:23:48.026836 11544 net.cpp:150] Setting up fire7/relu_squeeze1x1
I0925 19:23:48.026836 11544 net.cpp:157] Top shape: 32 48 16 24 (589824)
I0925 19:23:48.026836 11544 net.cpp:165] Memory required for data: 2279080128
I0925 19:23:48.026836 11544 layer_factory.hpp:77] Creating layer fire7/squeeze1x1_fire7/relu_squeeze1x1_0_split
I0925 19:23:48.027837 11544 net.cpp:100] Creating Layer fire7/squeeze1x1_fire7/relu_squeeze1x1_0_split
I0925 19:23:48.027837 11544 net.cpp:434] fire7/squeeze1x1_fire7/relu_squeeze1x1_0_split <- fire7/squeeze1x1
I0925 19:23:48.027837 11544 net.cpp:408] fire7/squeeze1x1_fire7/relu_squeeze1x1_0_split -> fire7/squeeze1x1_fire7/relu_squeeze1x1_0_split_0
I0925 19:23:48.028836 11544 net.cpp:408] fire7/squeeze1x1_fire7/relu_squeeze1x1_0_split -> fire7/squeeze1x1_fire7/relu_squeeze1x1_0_split_1
I0925 19:23:48.028836 11544 net.cpp:150] Setting up fire7/squeeze1x1_fire7/relu_squeeze1x1_0_split
I0925 19:23:48.028836 11544 net.cpp:157] Top shape: 32 48 16 24 (589824)
I0925 19:23:48.028836 11544 net.cpp:157] Top shape: 32 48 16 24 (589824)
I0925 19:23:48.028836 11544 net.cpp:165] Memory required for data: 2283798720
I0925 19:23:48.029836 11544 layer_factory.hpp:77] Creating layer fire7/expand1x1
I0925 19:23:48.029836 11544 net.cpp:100] Creating Layer fire7/expand1x1
I0925 19:23:48.029836 11544 net.cpp:434] fire7/expand1x1 <- fire7/squeeze1x1_fire7/relu_squeeze1x1_0_split_0
I0925 19:23:48.029836 11544 net.cpp:408] fire7/expand1x1 -> fire7/expand1x1
I0925 19:23:48.031836 11544 net.cpp:150] Setting up fire7/expand1x1
I0925 19:23:48.031836 11544 net.cpp:157] Top shape: 32 192 16 24 (2359296)
I0925 19:23:48.031836 11544 net.cpp:165] Memory required for data: 2293235904
I0925 19:23:48.031836 11544 layer_factory.hpp:77] Creating layer fire7/relu_expand1x1
I0925 19:23:48.032836 11544 net.cpp:100] Creating Layer fire7/relu_expand1x1
I0925 19:23:48.032836 11544 net.cpp:434] fire7/relu_expand1x1 <- fire7/expand1x1
I0925 19:23:48.032836 11544 net.cpp:395] fire7/relu_expand1x1 -> fire7/expand1x1 (in-place)
I0925 19:23:48.032836 11544 net.cpp:150] Setting up fire7/relu_expand1x1
I0925 19:23:48.033836 11544 net.cpp:157] Top shape: 32 192 16 24 (2359296)
I0925 19:23:48.033836 11544 net.cpp:165] Memory required for data: 2302673088
I0925 19:23:48.033836 11544 layer_factory.hpp:77] Creating layer fire7/expand3x3
I0925 19:23:48.033836 11544 net.cpp:100] Creating Layer fire7/expand3x3
I0925 19:23:48.033836 11544 net.cpp:434] fire7/expand3x3 <- fire7/squeeze1x1_fire7/relu_squeeze1x1_0_split_1
I0925 19:23:48.034837 11544 net.cpp:408] fire7/expand3x3 -> fire7/expand3x3
I0925 19:23:48.036836 11544 net.cpp:150] Setting up fire7/expand3x3
I0925 19:23:48.036836 11544 net.cpp:157] Top shape: 32 192 16 24 (2359296)
I0925 19:23:48.036836 11544 net.cpp:165] Memory required for data: 2312110272
I0925 19:23:48.036836 11544 layer_factory.hpp:77] Creating layer fire7/relu_expand3x3
I0925 19:23:48.036836 11544 net.cpp:100] Creating Layer fire7/relu_expand3x3
I0925 19:23:48.037837 11544 net.cpp:434] fire7/relu_expand3x3 <- fire7/expand3x3
I0925 19:23:48.037837 11544 net.cpp:395] fire7/relu_expand3x3 -> fire7/expand3x3 (in-place)
I0925 19:23:48.037837 11544 net.cpp:150] Setting up fire7/relu_expand3x3
I0925 19:23:48.037837 11544 net.cpp:157] Top shape: 32 192 16 24 (2359296)
I0925 19:23:48.038837 11544 net.cpp:165] Memory required for data: 2321547456
I0925 19:23:48.038837 11544 layer_factory.hpp:77] Creating layer fire7/concat
I0925 19:23:48.038837 11544 net.cpp:100] Creating Layer fire7/concat
I0925 19:23:48.038837 11544 net.cpp:434] fire7/concat <- fire7/expand1x1
I0925 19:23:48.038837 11544 net.cpp:434] fire7/concat <- fire7/expand3x3
I0925 19:23:48.038837 11544 net.cpp:408] fire7/concat -> fire7/concat
I0925 19:23:48.039837 11544 net.cpp:150] Setting up fire7/concat
I0925 19:23:48.039837 11544 net.cpp:157] Top shape: 32 384 16 24 (4718592)
I0925 19:23:48.039837 11544 net.cpp:165] Memory required for data: 2340421824
I0925 19:23:48.039837 11544 layer_factory.hpp:77] Creating layer fire7/concat_bn
I0925 19:23:48.039837 11544 net.cpp:100] Creating Layer fire7/concat_bn
I0925 19:23:48.040838 11544 net.cpp:434] fire7/concat_bn <- fire7/concat
I0925 19:23:48.040838 11544 net.cpp:395] fire7/concat_bn -> fire7/concat (in-place)
I0925 19:23:48.040838 11544 net.cpp:150] Setting up fire7/concat_bn
I0925 19:23:48.040838 11544 net.cpp:157] Top shape: 32 384 16 24 (4718592)
I0925 19:23:48.041837 11544 net.cpp:165] Memory required for data: 2359296192
I0925 19:23:48.041837 11544 layer_factory.hpp:77] Creating layer fire8/squeeze1x1
I0925 19:23:48.041837 11544 net.cpp:100] Creating Layer fire8/squeeze1x1
I0925 19:23:48.041837 11544 net.cpp:434] fire8/squeeze1x1 <- fire7/concat
I0925 19:23:48.041837 11544 net.cpp:408] fire8/squeeze1x1 -> fire8/squeeze1x1
I0925 19:23:48.043838 11544 net.cpp:150] Setting up fire8/squeeze1x1
I0925 19:23:48.043838 11544 net.cpp:157] Top shape: 32 64 16 24 (786432)
I0925 19:23:48.043838 11544 net.cpp:165] Memory required for data: 2362441920
I0925 19:23:48.043838 11544 layer_factory.hpp:77] Creating layer fire8/relu_squeeze1x1
I0925 19:23:48.044837 11544 net.cpp:100] Creating Layer fire8/relu_squeeze1x1
I0925 19:23:48.044837 11544 net.cpp:434] fire8/relu_squeeze1x1 <- fire8/squeeze1x1
I0925 19:23:48.044837 11544 net.cpp:395] fire8/relu_squeeze1x1 -> fire8/squeeze1x1 (in-place)
I0925 19:23:48.044837 11544 net.cpp:150] Setting up fire8/relu_squeeze1x1
I0925 19:23:48.045837 11544 net.cpp:157] Top shape: 32 64 16 24 (786432)
I0925 19:23:48.045837 11544 net.cpp:165] Memory required for data: 2365587648
I0925 19:23:48.045837 11544 layer_factory.hpp:77] Creating layer fire8/squeeze1x1_fire8/relu_squeeze1x1_0_split
I0925 19:23:48.045837 11544 net.cpp:100] Creating Layer fire8/squeeze1x1_fire8/relu_squeeze1x1_0_split
I0925 19:23:48.045837 11544 net.cpp:434] fire8/squeeze1x1_fire8/relu_squeeze1x1_0_split <- fire8/squeeze1x1
I0925 19:23:48.046838 11544 net.cpp:408] fire8/squeeze1x1_fire8/relu_squeeze1x1_0_split -> fire8/squeeze1x1_fire8/relu_squeeze1x1_0_split_0
I0925 19:23:48.046838 11544 net.cpp:408] fire8/squeeze1x1_fire8/relu_squeeze1x1_0_split -> fire8/squeeze1x1_fire8/relu_squeeze1x1_0_split_1
I0925 19:23:48.046838 11544 net.cpp:150] Setting up fire8/squeeze1x1_fire8/relu_squeeze1x1_0_split
I0925 19:23:48.046838 11544 net.cpp:157] Top shape: 32 64 16 24 (786432)
I0925 19:23:48.047837 11544 net.cpp:157] Top shape: 32 64 16 24 (786432)
I0925 19:23:48.047837 11544 net.cpp:165] Memory required for data: 2371879104
I0925 19:23:48.047837 11544 layer_factory.hpp:77] Creating layer fire8/expand1x1
I0925 19:23:48.047837 11544 net.cpp:100] Creating Layer fire8/expand1x1
I0925 19:23:48.047837 11544 net.cpp:434] fire8/expand1x1 <- fire8/squeeze1x1_fire8/relu_squeeze1x1_0_split_0
I0925 19:23:48.048837 11544 net.cpp:408] fire8/expand1x1 -> fire8/expand1x1
I0925 19:23:48.049837 11544 net.cpp:150] Setting up fire8/expand1x1
I0925 19:23:48.049837 11544 net.cpp:157] Top shape: 32 256 16 24 (3145728)
I0925 19:23:48.049837 11544 net.cpp:165] Memory required for data: 2384462016
I0925 19:23:48.049837 11544 layer_factory.hpp:77] Creating layer fire8/relu_expand1x1
I0925 19:23:48.050837 11544 net.cpp:100] Creating Layer fire8/relu_expand1x1
I0925 19:23:48.050837 11544 net.cpp:434] fire8/relu_expand1x1 <- fire8/expand1x1
I0925 19:23:48.050837 11544 net.cpp:395] fire8/relu_expand1x1 -> fire8/expand1x1 (in-place)
I0925 19:23:48.051837 11544 net.cpp:150] Setting up fire8/relu_expand1x1
I0925 19:23:48.051837 11544 net.cpp:157] Top shape: 32 256 16 24 (3145728)
I0925 19:23:48.051837 11544 net.cpp:165] Memory required for data: 2397044928
I0925 19:23:48.051837 11544 layer_factory.hpp:77] Creating layer fire8/expand3x3
I0925 19:23:48.051837 11544 net.cpp:100] Creating Layer fire8/expand3x3
I0925 19:23:48.051837 11544 net.cpp:434] fire8/expand3x3 <- fire8/squeeze1x1_fire8/relu_squeeze1x1_0_split_1
I0925 19:23:48.052837 11544 net.cpp:408] fire8/expand3x3 -> fire8/expand3x3
I0925 19:23:48.056838 11544 net.cpp:150] Setting up fire8/expand3x3
I0925 19:23:48.056838 11544 net.cpp:157] Top shape: 32 256 16 24 (3145728)
I0925 19:23:48.056838 11544 net.cpp:165] Memory required for data: 2409627840
I0925 19:23:48.056838 11544 layer_factory.hpp:77] Creating layer fire8/relu_expand3x3
I0925 19:23:48.056838 11544 net.cpp:100] Creating Layer fire8/relu_expand3x3
I0925 19:23:48.057838 11544 net.cpp:434] fire8/relu_expand3x3 <- fire8/expand3x3
I0925 19:23:48.057838 11544 net.cpp:395] fire8/relu_expand3x3 -> fire8/expand3x3 (in-place)
I0925 19:23:48.058838 11544 net.cpp:150] Setting up fire8/relu_expand3x3
I0925 19:23:48.058838 11544 net.cpp:157] Top shape: 32 256 16 24 (3145728)
I0925 19:23:48.058838 11544 net.cpp:165] Memory required for data: 2422210752
I0925 19:23:48.058838 11544 layer_factory.hpp:77] Creating layer fire8/concat
I0925 19:23:48.058838 11544 net.cpp:100] Creating Layer fire8/concat
I0925 19:23:48.058838 11544 net.cpp:434] fire8/concat <- fire8/expand1x1
I0925 19:23:48.059839 11544 net.cpp:434] fire8/concat <- fire8/expand3x3
I0925 19:23:48.059839 11544 net.cpp:408] fire8/concat -> fire8/concat
I0925 19:23:48.059839 11544 net.cpp:150] Setting up fire8/concat
I0925 19:23:48.059839 11544 net.cpp:157] Top shape: 32 512 16 24 (6291456)
I0925 19:23:48.059839 11544 net.cpp:165] Memory required for data: 2447376576
I0925 19:23:48.060838 11544 layer_factory.hpp:77] Creating layer fire8/concat_bn
I0925 19:23:48.060838 11544 net.cpp:100] Creating Layer fire8/concat_bn
I0925 19:23:48.060838 11544 net.cpp:434] fire8/concat_bn <- fire8/concat
I0925 19:23:48.060838 11544 net.cpp:395] fire8/concat_bn -> fire8/concat (in-place)
I0925 19:23:48.061838 11544 net.cpp:150] Setting up fire8/concat_bn
I0925 19:23:48.061838 11544 net.cpp:157] Top shape: 32 512 16 24 (6291456)
I0925 19:23:48.061838 11544 net.cpp:165] Memory required for data: 2472542400
I0925 19:23:48.061838 11544 layer_factory.hpp:77] Creating layer fire9/squeeze1x1
I0925 19:23:48.061838 11544 net.cpp:100] Creating Layer fire9/squeeze1x1
I0925 19:23:48.061838 11544 net.cpp:434] fire9/squeeze1x1 <- fire8/concat
I0925 19:23:48.062839 11544 net.cpp:408] fire9/squeeze1x1 -> fire9/squeeze1x1
I0925 19:23:48.063838 11544 net.cpp:150] Setting up fire9/squeeze1x1
I0925 19:23:48.063838 11544 net.cpp:157] Top shape: 32 64 16 24 (786432)
I0925 19:23:48.064838 11544 net.cpp:165] Memory required for data: 2475688128
I0925 19:23:48.064838 11544 layer_factory.hpp:77] Creating layer fire9/relu_squeeze1x1
I0925 19:23:48.064838 11544 net.cpp:100] Creating Layer fire9/relu_squeeze1x1
I0925 19:23:48.064838 11544 net.cpp:434] fire9/relu_squeeze1x1 <- fire9/squeeze1x1
I0925 19:23:48.064838 11544 net.cpp:395] fire9/relu_squeeze1x1 -> fire9/squeeze1x1 (in-place)
I0925 19:23:48.065838 11544 net.cpp:150] Setting up fire9/relu_squeeze1x1
I0925 19:23:48.065838 11544 net.cpp:157] Top shape: 32 64 16 24 (786432)
I0925 19:23:48.065838 11544 net.cpp:165] Memory required for data: 2478833856
I0925 19:23:48.065838 11544 layer_factory.hpp:77] Creating layer fire9/squeeze1x1_fire9/relu_squeeze1x1_0_split
I0925 19:23:48.066838 11544 net.cpp:100] Creating Layer fire9/squeeze1x1_fire9/relu_squeeze1x1_0_split
I0925 19:23:48.066838 11544 net.cpp:434] fire9/squeeze1x1_fire9/relu_squeeze1x1_0_split <- fire9/squeeze1x1
I0925 19:23:48.066838 11544 net.cpp:408] fire9/squeeze1x1_fire9/relu_squeeze1x1_0_split -> fire9/squeeze1x1_fire9/relu_squeeze1x1_0_split_0
I0925 19:23:48.066838 11544 net.cpp:408] fire9/squeeze1x1_fire9/relu_squeeze1x1_0_split -> fire9/squeeze1x1_fire9/relu_squeeze1x1_0_split_1
I0925 19:23:48.067838 11544 net.cpp:150] Setting up fire9/squeeze1x1_fire9/relu_squeeze1x1_0_split
I0925 19:23:48.067838 11544 net.cpp:157] Top shape: 32 64 16 24 (786432)
I0925 19:23:48.067838 11544 net.cpp:157] Top shape: 32 64 16 24 (786432)
I0925 19:23:48.067838 11544 net.cpp:165] Memory required for data: 2485125312
I0925 19:23:48.068838 11544 layer_factory.hpp:77] Creating layer fire9/expand1x1
I0925 19:23:48.068838 11544 net.cpp:100] Creating Layer fire9/expand1x1
I0925 19:23:48.068838 11544 net.cpp:434] fire9/expand1x1 <- fire9/squeeze1x1_fire9/relu_squeeze1x1_0_split_0
I0925 19:23:48.068838 11544 net.cpp:408] fire9/expand1x1 -> fire9/expand1x1
I0925 19:23:48.070838 11544 net.cpp:150] Setting up fire9/expand1x1
I0925 19:23:48.070838 11544 net.cpp:157] Top shape: 32 256 16 24 (3145728)
I0925 19:23:48.070838 11544 net.cpp:165] Memory required for data: 2497708224
I0925 19:23:48.070838 11544 layer_factory.hpp:77] Creating layer fire9/relu_expand1x1
I0925 19:23:48.070838 11544 net.cpp:100] Creating Layer fire9/relu_expand1x1
I0925 19:23:48.071838 11544 net.cpp:434] fire9/relu_expand1x1 <- fire9/expand1x1
I0925 19:23:48.071838 11544 net.cpp:395] fire9/relu_expand1x1 -> fire9/expand1x1 (in-place)
I0925 19:23:48.071838 11544 net.cpp:150] Setting up fire9/relu_expand1x1
I0925 19:23:48.071838 11544 net.cpp:157] Top shape: 32 256 16 24 (3145728)
I0925 19:23:48.072839 11544 net.cpp:165] Memory required for data: 2510291136
I0925 19:23:48.072839 11544 layer_factory.hpp:77] Creating layer fire9/expand3x3
I0925 19:23:48.072839 11544 net.cpp:100] Creating Layer fire9/expand3x3
I0925 19:23:48.072839 11544 net.cpp:434] fire9/expand3x3 <- fire9/squeeze1x1_fire9/relu_squeeze1x1_0_split_1
I0925 19:23:48.072839 11544 net.cpp:408] fire9/expand3x3 -> fire9/expand3x3
I0925 19:23:48.076839 11544 net.cpp:150] Setting up fire9/expand3x3
I0925 19:23:48.076839 11544 net.cpp:157] Top shape: 32 256 16 24 (3145728)
I0925 19:23:48.076839 11544 net.cpp:165] Memory required for data: 2522874048
I0925 19:23:48.076839 11544 layer_factory.hpp:77] Creating layer fire9/relu_expand3x3
I0925 19:23:48.076839 11544 net.cpp:100] Creating Layer fire9/relu_expand3x3
I0925 19:23:48.077839 11544 net.cpp:434] fire9/relu_expand3x3 <- fire9/expand3x3
I0925 19:23:48.077839 11544 net.cpp:395] fire9/relu_expand3x3 -> fire9/expand3x3 (in-place)
I0925 19:23:48.077839 11544 net.cpp:150] Setting up fire9/relu_expand3x3
I0925 19:23:48.077839 11544 net.cpp:157] Top shape: 32 256 16 24 (3145728)
I0925 19:23:48.078840 11544 net.cpp:165] Memory required for data: 2535456960
I0925 19:23:48.078840 11544 layer_factory.hpp:77] Creating layer fire9/concat
I0925 19:23:48.078840 11544 net.cpp:100] Creating Layer fire9/concat
I0925 19:23:48.078840 11544 net.cpp:434] fire9/concat <- fire9/expand1x1
I0925 19:23:48.078840 11544 net.cpp:434] fire9/concat <- fire9/expand3x3
I0925 19:23:48.078840 11544 net.cpp:408] fire9/concat -> fire9/concat
I0925 19:23:48.079839 11544 net.cpp:150] Setting up fire9/concat
I0925 19:23:48.079839 11544 net.cpp:157] Top shape: 32 512 16 24 (6291456)
I0925 19:23:48.079839 11544 net.cpp:165] Memory required for data: 2560622784
I0925 19:23:48.079839 11544 layer_factory.hpp:77] Creating layer fire9/concat_bn
I0925 19:23:48.079839 11544 net.cpp:100] Creating Layer fire9/concat_bn
I0925 19:23:48.080839 11544 net.cpp:434] fire9/concat_bn <- fire9/concat
I0925 19:23:48.080839 11544 net.cpp:395] fire9/concat_bn -> fire9/concat (in-place)
I0925 19:23:48.081840 11544 net.cpp:150] Setting up fire9/concat_bn
I0925 19:23:48.081840 11544 net.cpp:157] Top shape: 32 512 16 24 (6291456)
I0925 19:23:48.081840 11544 net.cpp:165] Memory required for data: 2585788608
I0925 19:23:48.081840 11544 layer_factory.hpp:77] Creating layer fire9/concat_fire9/concat_bn_0_split
I0925 19:23:48.081840 11544 net.cpp:100] Creating Layer fire9/concat_fire9/concat_bn_0_split
I0925 19:23:48.082839 11544 net.cpp:434] fire9/concat_fire9/concat_bn_0_split <- fire9/concat
I0925 19:23:48.082839 11544 net.cpp:408] fire9/concat_fire9/concat_bn_0_split -> fire9/concat_fire9/concat_bn_0_split_0
I0925 19:23:48.082839 11544 net.cpp:408] fire9/concat_fire9/concat_bn_0_split -> fire9/concat_fire9/concat_bn_0_split_1
I0925 19:23:48.082839 11544 net.cpp:408] fire9/concat_fire9/concat_bn_0_split -> fire9/concat_fire9/concat_bn_0_split_2
I0925 19:23:48.083839 11544 net.cpp:408] fire9/concat_fire9/concat_bn_0_split -> fire9/concat_fire9/concat_bn_0_split_3
I0925 19:23:48.083839 11544 net.cpp:150] Setting up fire9/concat_fire9/concat_bn_0_split
I0925 19:23:48.083839 11544 net.cpp:157] Top shape: 32 512 16 24 (6291456)
I0925 19:23:48.083839 11544 net.cpp:157] Top shape: 32 512 16 24 (6291456)
I0925 19:23:48.084839 11544 net.cpp:157] Top shape: 32 512 16 24 (6291456)
I0925 19:23:48.084839 11544 net.cpp:157] Top shape: 32 512 16 24 (6291456)
I0925 19:23:48.084839 11544 net.cpp:165] Memory required for data: 2686451904
I0925 19:23:48.084839 11544 layer_factory.hpp:77] Creating layer conv6_1
I0925 19:23:48.084839 11544 net.cpp:100] Creating Layer conv6_1
I0925 19:23:48.084839 11544 net.cpp:434] conv6_1 <- fire9/concat_fire9/concat_bn_0_split_0
I0925 19:23:48.085839 11544 net.cpp:408] conv6_1 -> conv6_1
I0925 19:23:48.088840 11544 net.cpp:150] Setting up conv6_1
I0925 19:23:48.088840 11544 net.cpp:157] Top shape: 32 256 16 24 (3145728)
I0925 19:23:48.089839 11544 net.cpp:165] Memory required for data: 2699034816
I0925 19:23:48.089839 11544 layer_factory.hpp:77] Creating layer conv6_1_relu
I0925 19:23:48.089839 11544 net.cpp:100] Creating Layer conv6_1_relu
I0925 19:23:48.089839 11544 net.cpp:434] conv6_1_relu <- conv6_1
I0925 19:23:48.089839 11544 net.cpp:395] conv6_1_relu -> conv6_1 (in-place)
I0925 19:23:48.090839 11544 net.cpp:150] Setting up conv6_1_relu
I0925 19:23:48.090839 11544 net.cpp:157] Top shape: 32 256 16 24 (3145728)
I0925 19:23:48.090839 11544 net.cpp:165] Memory required for data: 2711617728
I0925 19:23:48.090839 11544 layer_factory.hpp:77] Creating layer conv6_1_bn
I0925 19:23:48.090839 11544 net.cpp:100] Creating Layer conv6_1_bn
I0925 19:23:48.090839 11544 net.cpp:434] conv6_1_bn <- conv6_1
I0925 19:23:48.091840 11544 net.cpp:395] conv6_1_bn -> conv6_1 (in-place)
I0925 19:23:48.091840 11544 net.cpp:150] Setting up conv6_1_bn
I0925 19:23:48.091840 11544 net.cpp:157] Top shape: 32 256 16 24 (3145728)
I0925 19:23:48.091840 11544 net.cpp:165] Memory required for data: 2724200640
I0925 19:23:48.092840 11544 layer_factory.hpp:77] Creating layer conv6_2
I0925 19:23:48.092840 11544 net.cpp:100] Creating Layer conv6_2
I0925 19:23:48.092840 11544 net.cpp:434] conv6_2 <- conv6_1
I0925 19:23:48.092840 11544 net.cpp:408] conv6_2 -> conv6_2
I0925 19:23:48.104840 11544 net.cpp:150] Setting up conv6_2
I0925 19:23:48.104840 11544 net.cpp:157] Top shape: 32 512 8 12 (1572864)
I0925 19:23:48.105840 11544 net.cpp:165] Memory required for data: 2730492096
I0925 19:23:48.105840 11544 layer_factory.hpp:77] Creating layer conv6_2_relu
I0925 19:23:48.105840 11544 net.cpp:100] Creating Layer conv6_2_relu
I0925 19:23:48.105840 11544 net.cpp:434] conv6_2_relu <- conv6_2
I0925 19:23:48.105840 11544 net.cpp:395] conv6_2_relu -> conv6_2 (in-place)
I0925 19:23:48.106840 11544 net.cpp:150] Setting up conv6_2_relu
I0925 19:23:48.106840 11544 net.cpp:157] Top shape: 32 512 8 12 (1572864)
I0925 19:23:48.106840 11544 net.cpp:165] Memory required for data: 2736783552
I0925 19:23:48.106840 11544 layer_factory.hpp:77] Creating layer conv6_2_bn
I0925 19:23:48.106840 11544 net.cpp:100] Creating Layer conv6_2_bn
I0925 19:23:48.106840 11544 net.cpp:434] conv6_2_bn <- conv6_2
I0925 19:23:48.107841 11544 net.cpp:395] conv6_2_bn -> conv6_2 (in-place)
I0925 19:23:48.107841 11544 net.cpp:150] Setting up conv6_2_bn
I0925 19:23:48.107841 11544 net.cpp:157] Top shape: 32 512 8 12 (1572864)
I0925 19:23:48.107841 11544 net.cpp:165] Memory required for data: 2743075008
I0925 19:23:48.107841 11544 layer_factory.hpp:77] Creating layer conv6_2_conv6_2_bn_0_split
I0925 19:23:48.108841 11544 net.cpp:100] Creating Layer conv6_2_conv6_2_bn_0_split
I0925 19:23:48.108841 11544 net.cpp:434] conv6_2_conv6_2_bn_0_split <- conv6_2
I0925 19:23:48.108841 11544 net.cpp:408] conv6_2_conv6_2_bn_0_split -> conv6_2_conv6_2_bn_0_split_0
I0925 19:23:48.108841 11544 net.cpp:408] conv6_2_conv6_2_bn_0_split -> conv6_2_conv6_2_bn_0_split_1
I0925 19:23:48.109841 11544 net.cpp:408] conv6_2_conv6_2_bn_0_split -> conv6_2_conv6_2_bn_0_split_2
I0925 19:23:48.109841 11544 net.cpp:408] conv6_2_conv6_2_bn_0_split -> conv6_2_conv6_2_bn_0_split_3
I0925 19:23:48.109841 11544 net.cpp:150] Setting up conv6_2_conv6_2_bn_0_split
I0925 19:23:48.109841 11544 net.cpp:157] Top shape: 32 512 8 12 (1572864)
I0925 19:23:48.110841 11544 net.cpp:157] Top shape: 32 512 8 12 (1572864)
I0925 19:23:48.110841 11544 net.cpp:157] Top shape: 32 512 8 12 (1572864)
I0925 19:23:48.110841 11544 net.cpp:157] Top shape: 32 512 8 12 (1572864)
I0925 19:23:48.110841 11544 net.cpp:165] Memory required for data: 2768240832
I0925 19:23:48.110841 11544 layer_factory.hpp:77] Creating layer conv7_1
I0925 19:23:48.110841 11544 net.cpp:100] Creating Layer conv7_1
I0925 19:23:48.111841 11544 net.cpp:434] conv7_1 <- conv6_2_conv6_2_bn_0_split_0
I0925 19:23:48.111841 11544 net.cpp:408] conv7_1 -> conv7_1
I0925 19:23:48.113842 11544 net.cpp:150] Setting up conv7_1
I0925 19:23:48.114841 11544 net.cpp:157] Top shape: 32 128 8 12 (393216)
I0925 19:23:48.114841 11544 net.cpp:165] Memory required for data: 2769813696
I0925 19:23:48.114841 11544 layer_factory.hpp:77] Creating layer conv7_1_relu
I0925 19:23:48.114841 11544 net.cpp:100] Creating Layer conv7_1_relu
I0925 19:23:48.114841 11544 net.cpp:434] conv7_1_relu <- conv7_1
I0925 19:23:48.114841 11544 net.cpp:395] conv7_1_relu -> conv7_1 (in-place)
I0925 19:23:48.115841 11544 net.cpp:150] Setting up conv7_1_relu
I0925 19:23:48.115841 11544 net.cpp:157] Top shape: 32 128 8 12 (393216)
I0925 19:23:48.115841 11544 net.cpp:165] Memory required for data: 2771386560
I0925 19:23:48.115841 11544 layer_factory.hpp:77] Creating layer conv7_1_bn
I0925 19:23:48.116842 11544 net.cpp:100] Creating Layer conv7_1_bn
I0925 19:23:48.116842 11544 net.cpp:434] conv7_1_bn <- conv7_1
I0925 19:23:48.116842 11544 net.cpp:395] conv7_1_bn -> conv7_1 (in-place)
I0925 19:23:48.116842 11544 net.cpp:150] Setting up conv7_1_bn
I0925 19:23:48.116842 11544 net.cpp:157] Top shape: 32 128 8 12 (393216)
I0925 19:23:48.117841 11544 net.cpp:165] Memory required for data: 2772959424
I0925 19:23:48.117841 11544 layer_factory.hpp:77] Creating layer conv7_2
I0925 19:23:48.117841 11544 net.cpp:100] Creating Layer conv7_2
I0925 19:23:48.117841 11544 net.cpp:434] conv7_2 <- conv7_1
I0925 19:23:48.117841 11544 net.cpp:408] conv7_2 -> conv7_2
I0925 19:23:48.121841 11544 net.cpp:150] Setting up conv7_2
I0925 19:23:48.122841 11544 net.cpp:157] Top shape: 32 256 4 6 (196608)
I0925 19:23:48.122841 11544 net.cpp:165] Memory required for data: 2773745856
I0925 19:23:48.122841 11544 layer_factory.hpp:77] Creating layer conv7_2_relu
I0925 19:23:48.122841 11544 net.cpp:100] Creating Layer conv7_2_relu
I0925 19:23:48.122841 11544 net.cpp:434] conv7_2_relu <- conv7_2
I0925 19:23:48.122841 11544 net.cpp:395] conv7_2_relu -> conv7_2 (in-place)
I0925 19:23:48.123842 11544 net.cpp:150] Setting up conv7_2_relu
I0925 19:23:48.123842 11544 net.cpp:157] Top shape: 32 256 4 6 (196608)
I0925 19:23:48.123842 11544 net.cpp:165] Memory required for data: 2774532288
I0925 19:23:48.123842 11544 layer_factory.hpp:77] Creating layer conv7_2_bn
I0925 19:23:48.124841 11544 net.cpp:100] Creating Layer conv7_2_bn
I0925 19:23:48.124841 11544 net.cpp:434] conv7_2_bn <- conv7_2
I0925 19:23:48.124841 11544 net.cpp:395] conv7_2_bn -> conv7_2 (in-place)
I0925 19:23:48.124841 11544 net.cpp:150] Setting up conv7_2_bn
I0925 19:23:48.125841 11544 net.cpp:157] Top shape: 32 256 4 6 (196608)
I0925 19:23:48.125841 11544 net.cpp:165] Memory required for data: 2775318720
I0925 19:23:48.125841 11544 layer_factory.hpp:77] Creating layer conv7_2_conv7_2_bn_0_split
I0925 19:23:48.125841 11544 net.cpp:100] Creating Layer conv7_2_conv7_2_bn_0_split
I0925 19:23:48.125841 11544 net.cpp:434] conv7_2_conv7_2_bn_0_split <- conv7_2
I0925 19:23:48.126842 11544 net.cpp:408] conv7_2_conv7_2_bn_0_split -> conv7_2_conv7_2_bn_0_split_0
I0925 19:23:48.126842 11544 net.cpp:408] conv7_2_conv7_2_bn_0_split -> conv7_2_conv7_2_bn_0_split_1
I0925 19:23:48.126842 11544 net.cpp:408] conv7_2_conv7_2_bn_0_split -> conv7_2_conv7_2_bn_0_split_2
I0925 19:23:48.126842 11544 net.cpp:408] conv7_2_conv7_2_bn_0_split -> conv7_2_conv7_2_bn_0_split_3
I0925 19:23:48.127842 11544 net.cpp:150] Setting up conv7_2_conv7_2_bn_0_split
I0925 19:23:48.127842 11544 net.cpp:157] Top shape: 32 256 4 6 (196608)
I0925 19:23:48.127842 11544 net.cpp:157] Top shape: 32 256 4 6 (196608)
I0925 19:23:48.127842 11544 net.cpp:157] Top shape: 32 256 4 6 (196608)
I0925 19:23:48.127842 11544 net.cpp:157] Top shape: 32 256 4 6 (196608)
I0925 19:23:48.128842 11544 net.cpp:165] Memory required for data: 2778464448
I0925 19:23:48.128842 11544 layer_factory.hpp:77] Creating layer conv8_1
I0925 19:23:48.128842 11544 net.cpp:100] Creating Layer conv8_1
I0925 19:23:48.128842 11544 net.cpp:434] conv8_1 <- conv7_2_conv7_2_bn_0_split_0
I0925 19:23:48.128842 11544 net.cpp:408] conv8_1 -> conv8_1
I0925 19:23:48.130842 11544 net.cpp:150] Setting up conv8_1
I0925 19:23:48.131842 11544 net.cpp:157] Top shape: 32 128 4 6 (98304)
I0925 19:23:48.131842 11544 net.cpp:165] Memory required for data: 2778857664
I0925 19:23:48.131842 11544 layer_factory.hpp:77] Creating layer conv8_1_relu
I0925 19:23:48.131842 11544 net.cpp:100] Creating Layer conv8_1_relu
I0925 19:23:48.131842 11544 net.cpp:434] conv8_1_relu <- conv8_1
I0925 19:23:48.131842 11544 net.cpp:395] conv8_1_relu -> conv8_1 (in-place)
I0925 19:23:48.132843 11544 net.cpp:150] Setting up conv8_1_relu
I0925 19:23:48.132843 11544 net.cpp:157] Top shape: 32 128 4 6 (98304)
I0925 19:23:48.132843 11544 net.cpp:165] Memory required for data: 2779250880
I0925 19:23:48.132843 11544 layer_factory.hpp:77] Creating layer conv8_1_bn
I0925 19:23:48.133842 11544 net.cpp:100] Creating Layer conv8_1_bn
I0925 19:23:48.133842 11544 net.cpp:434] conv8_1_bn <- conv8_1
I0925 19:23:48.133842 11544 net.cpp:395] conv8_1_bn -> conv8_1 (in-place)
I0925 19:23:48.133842 11544 net.cpp:150] Setting up conv8_1_bn
I0925 19:23:48.134842 11544 net.cpp:157] Top shape: 32 128 4 6 (98304)
I0925 19:23:48.134842 11544 net.cpp:165] Memory required for data: 2779644096
I0925 19:23:48.134842 11544 layer_factory.hpp:77] Creating layer conv8_2
I0925 19:23:48.134842 11544 net.cpp:100] Creating Layer conv8_2
I0925 19:23:48.134842 11544 net.cpp:434] conv8_2 <- conv8_1
I0925 19:23:48.134842 11544 net.cpp:408] conv8_2 -> conv8_2
I0925 19:23:48.140842 11544 net.cpp:150] Setting up conv8_2
I0925 19:23:48.140842 11544 net.cpp:157] Top shape: 32 256 2 3 (49152)
I0925 19:23:48.140842 11544 net.cpp:165] Memory required for data: 2779840704
I0925 19:23:48.140842 11544 layer_factory.hpp:77] Creating layer conv8_2_relu
I0925 19:23:48.140842 11544 net.cpp:100] Creating Layer conv8_2_relu
I0925 19:23:48.141842 11544 net.cpp:434] conv8_2_relu <- conv8_2
I0925 19:23:48.141842 11544 net.cpp:395] conv8_2_relu -> conv8_2 (in-place)
I0925 19:23:48.141842 11544 net.cpp:150] Setting up conv8_2_relu
I0925 19:23:48.141842 11544 net.cpp:157] Top shape: 32 256 2 3 (49152)
I0925 19:23:48.142843 11544 net.cpp:165] Memory required for data: 2780037312
I0925 19:23:48.142843 11544 layer_factory.hpp:77] Creating layer conv8_2_bn
I0925 19:23:48.142843 11544 net.cpp:100] Creating Layer conv8_2_bn
I0925 19:23:48.142843 11544 net.cpp:434] conv8_2_bn <- conv8_2
I0925 19:23:48.142843 11544 net.cpp:395] conv8_2_bn -> conv8_2 (in-place)
I0925 19:23:48.143843 11544 net.cpp:150] Setting up conv8_2_bn
I0925 19:23:48.143843 11544 net.cpp:157] Top shape: 32 256 2 3 (49152)
I0925 19:23:48.143843 11544 net.cpp:165] Memory required for data: 2780233920
I0925 19:23:48.143843 11544 layer_factory.hpp:77] Creating layer conv8_2_conv8_2_bn_0_split
I0925 19:23:48.143843 11544 net.cpp:100] Creating Layer conv8_2_conv8_2_bn_0_split
I0925 19:23:48.144843 11544 net.cpp:434] conv8_2_conv8_2_bn_0_split <- conv8_2
I0925 19:23:48.144843 11544 net.cpp:408] conv8_2_conv8_2_bn_0_split -> conv8_2_conv8_2_bn_0_split_0
I0925 19:23:48.144843 11544 net.cpp:408] conv8_2_conv8_2_bn_0_split -> conv8_2_conv8_2_bn_0_split_1
I0925 19:23:48.144843 11544 net.cpp:408] conv8_2_conv8_2_bn_0_split -> conv8_2_conv8_2_bn_0_split_2
I0925 19:23:48.145843 11544 net.cpp:408] conv8_2_conv8_2_bn_0_split -> conv8_2_conv8_2_bn_0_split_3
I0925 19:23:48.145843 11544 net.cpp:150] Setting up conv8_2_conv8_2_bn_0_split
I0925 19:23:48.145843 11544 net.cpp:157] Top shape: 32 256 2 3 (49152)
I0925 19:23:48.145843 11544 net.cpp:157] Top shape: 32 256 2 3 (49152)
I0925 19:23:48.145843 11544 net.cpp:157] Top shape: 32 256 2 3 (49152)
I0925 19:23:48.146843 11544 net.cpp:157] Top shape: 32 256 2 3 (49152)
I0925 19:23:48.146843 11544 net.cpp:165] Memory required for data: 2781020352
I0925 19:23:48.146843 11544 layer_factory.hpp:77] Creating layer pool6
I0925 19:23:48.146843 11544 net.cpp:100] Creating Layer pool6
I0925 19:23:48.146843 11544 net.cpp:434] pool6 <- conv8_2_conv8_2_bn_0_split_0
I0925 19:23:48.146843 11544 net.cpp:408] pool6 -> pool6
I0925 19:23:48.147843 11544 net.cpp:150] Setting up pool6
I0925 19:23:48.147843 11544 net.cpp:157] Top shape: 32 256 1 1 (8192)
I0925 19:23:48.147843 11544 net.cpp:165] Memory required for data: 2781053120
I0925 19:23:48.147843 11544 layer_factory.hpp:77] Creating layer pool6_pool6_0_split
I0925 19:23:48.147843 11544 net.cpp:100] Creating Layer pool6_pool6_0_split
I0925 19:23:48.148844 11544 net.cpp:434] pool6_pool6_0_split <- pool6
I0925 19:23:48.148844 11544 net.cpp:408] pool6_pool6_0_split -> pool6_pool6_0_split_0
I0925 19:23:48.148844 11544 net.cpp:408] pool6_pool6_0_split -> pool6_pool6_0_split_1
I0925 19:23:48.148844 11544 net.cpp:408] pool6_pool6_0_split -> pool6_pool6_0_split_2
I0925 19:23:48.149843 11544 net.cpp:150] Setting up pool6_pool6_0_split
I0925 19:23:48.149843 11544 net.cpp:157] Top shape: 32 256 1 1 (8192)
I0925 19:23:48.149843 11544 net.cpp:157] Top shape: 32 256 1 1 (8192)
I0925 19:23:48.149843 11544 net.cpp:157] Top shape: 32 256 1 1 (8192)
I0925 19:23:48.149843 11544 net.cpp:165] Memory required for data: 2781151424
I0925 19:23:48.149843 11544 layer_factory.hpp:77] Creating layer conv4_3_norm_1
I0925 19:23:48.150843 11544 net.cpp:100] Creating Layer conv4_3_norm_1
I0925 19:23:48.150843 11544 net.cpp:434] conv4_3_norm_1 <- fire5/concat_fire5/concat_0_split_1
I0925 19:23:48.150843 11544 net.cpp:408] conv4_3_norm_1 -> conv4_3_norm_1
I0925 19:23:48.150843 11544 net.cpp:150] Setting up conv4_3_norm_1
I0925 19:23:48.151844 11544 net.cpp:157] Top shape: 32 256 32 48 (12582912)
I0925 19:23:48.151844 11544 net.cpp:165] Memory required for data: 2831483072
I0925 19:23:48.151844 11544 layer_factory.hpp:77] Creating layer conv4_3_norm_1_conv4_3_norm_1_0_split
I0925 19:23:48.151844 11544 net.cpp:100] Creating Layer conv4_3_norm_1_conv4_3_norm_1_0_split
I0925 19:23:48.151844 11544 net.cpp:434] conv4_3_norm_1_conv4_3_norm_1_0_split <- conv4_3_norm_1
I0925 19:23:48.152843 11544 net.cpp:408] conv4_3_norm_1_conv4_3_norm_1_0_split -> conv4_3_norm_1_conv4_3_norm_1_0_split_0
I0925 19:23:48.152843 11544 net.cpp:408] conv4_3_norm_1_conv4_3_norm_1_0_split -> conv4_3_norm_1_conv4_3_norm_1_0_split_1
I0925 19:23:48.152843 11544 net.cpp:408] conv4_3_norm_1_conv4_3_norm_1_0_split -> conv4_3_norm_1_conv4_3_norm_1_0_split_2
I0925 19:23:48.152843 11544 net.cpp:150] Setting up conv4_3_norm_1_conv4_3_norm_1_0_split
I0925 19:23:48.153843 11544 net.cpp:157] Top shape: 32 256 32 48 (12582912)
I0925 19:23:48.153843 11544 net.cpp:157] Top shape: 32 256 32 48 (12582912)
I0925 19:23:48.153843 11544 net.cpp:157] Top shape: 32 256 32 48 (12582912)
I0925 19:23:48.153843 11544 net.cpp:165] Memory required for data: 2982478016
I0925 19:23:48.153843 11544 layer_factory.hpp:77] Creating layer conv4_3_norm_mbox_loc_1
I0925 19:23:48.154844 11544 net.cpp:100] Creating Layer conv4_3_norm_mbox_loc_1
I0925 19:23:48.154844 11544 net.cpp:434] conv4_3_norm_mbox_loc_1 <- conv4_3_norm_1_conv4_3_norm_1_0_split_0
I0925 19:23:48.154844 11544 net.cpp:408] conv4_3_norm_mbox_loc_1 -> conv4_3_norm_mbox_loc_1
I0925 19:23:48.156843 11544 net.cpp:150] Setting up conv4_3_norm_mbox_loc_1
I0925 19:23:48.157843 11544 net.cpp:157] Top shape: 32 24 32 48 (1179648)
I0925 19:23:48.157843 11544 net.cpp:165] Memory required for data: 2987196608
I0925 19:23:48.157843 11544 layer_factory.hpp:77] Creating layer conv4_3_norm_mbox_loc_perm_1
I0925 19:23:48.157843 11544 net.cpp:100] Creating Layer conv4_3_norm_mbox_loc_perm_1
I0925 19:23:48.157843 11544 net.cpp:434] conv4_3_norm_mbox_loc_perm_1 <- conv4_3_norm_mbox_loc_1
I0925 19:23:48.158843 11544 net.cpp:408] conv4_3_norm_mbox_loc_perm_1 -> conv4_3_norm_mbox_loc_perm_1
I0925 19:23:48.158843 11544 net.cpp:150] Setting up conv4_3_norm_mbox_loc_perm_1
I0925 19:23:48.158843 11544 net.cpp:157] Top shape: 32 32 48 24 (1179648)
I0925 19:23:48.158843 11544 net.cpp:165] Memory required for data: 2991915200
I0925 19:23:48.159843 11544 layer_factory.hpp:77] Creating layer conv4_3_norm_mbox_loc_flat_1
I0925 19:23:48.159843 11544 net.cpp:100] Creating Layer conv4_3_norm_mbox_loc_flat_1
I0925 19:23:48.159843 11544 net.cpp:434] conv4_3_norm_mbox_loc_flat_1 <- conv4_3_norm_mbox_loc_perm_1
I0925 19:23:48.159843 11544 net.cpp:408] conv4_3_norm_mbox_loc_flat_1 -> conv4_3_norm_mbox_loc_flat_1
I0925 19:23:48.160843 11544 net.cpp:150] Setting up conv4_3_norm_mbox_loc_flat_1
I0925 19:23:48.160843 11544 net.cpp:157] Top shape: 32 36864 (1179648)
I0925 19:23:48.160843 11544 net.cpp:165] Memory required for data: 2996633792
I0925 19:23:48.160843 11544 layer_factory.hpp:77] Creating layer conv4_3_norm_mbox_conf_0
I0925 19:23:48.160843 11544 net.cpp:100] Creating Layer conv4_3_norm_mbox_conf_0
I0925 19:23:48.161844 11544 net.cpp:434] conv4_3_norm_mbox_conf_0 <- conv4_3_norm_1_conv4_3_norm_1_0_split_1
I0925 19:23:48.161844 11544 net.cpp:408] conv4_3_norm_mbox_conf_0 -> conv4_3_norm_mbox_conf_0
I0925 19:23:48.162844 11544 net.cpp:150] Setting up conv4_3_norm_mbox_conf_0
I0925 19:23:48.163844 11544 net.cpp:157] Top shape: 32 64 32 48 (3145728)
I0925 19:23:48.163844 11544 net.cpp:165] Memory required for data: 3009216704
I0925 19:23:48.163844 11544 layer_factory.hpp:77] Creating layer conv4_3_norm_mbox_conf_0_relu
I0925 19:23:48.163844 11544 net.cpp:100] Creating Layer conv4_3_norm_mbox_conf_0_relu
I0925 19:23:48.164844 11544 net.cpp:434] conv4_3_norm_mbox_conf_0_relu <- conv4_3_norm_mbox_conf_0
I0925 19:23:48.164844 11544 net.cpp:395] conv4_3_norm_mbox_conf_0_relu -> conv4_3_norm_mbox_conf_0 (in-place)
I0925 19:23:48.164844 11544 net.cpp:150] Setting up conv4_3_norm_mbox_conf_0_relu
I0925 19:23:48.165844 11544 net.cpp:157] Top shape: 32 64 32 48 (3145728)
I0925 19:23:48.165844 11544 net.cpp:165] Memory required for data: 3021799616
I0925 19:23:48.165844 11544 layer_factory.hpp:77] Creating layer conv4_3_norm_mbox_conf_0_bn
I0925 19:23:48.165844 11544 net.cpp:100] Creating Layer conv4_3_norm_mbox_conf_0_bn
I0925 19:23:48.165844 11544 net.cpp:434] conv4_3_norm_mbox_conf_0_bn <- conv4_3_norm_mbox_conf_0
I0925 19:23:48.166844 11544 net.cpp:395] conv4_3_norm_mbox_conf_0_bn -> conv4_3_norm_mbox_conf_0 (in-place)
I0925 19:23:48.166844 11544 net.cpp:150] Setting up conv4_3_norm_mbox_conf_0_bn
I0925 19:23:48.166844 11544 net.cpp:157] Top shape: 32 64 32 48 (3145728)
I0925 19:23:48.166844 11544 net.cpp:165] Memory required for data: 3034382528
I0925 19:23:48.167845 11544 layer_factory.hpp:77] Creating layer conv4_3_norm_mbox_conf_2
I0925 19:23:48.167845 11544 net.cpp:100] Creating Layer conv4_3_norm_mbox_conf_2
I0925 19:23:48.167845 11544 net.cpp:434] conv4_3_norm_mbox_conf_2 <- conv4_3_norm_mbox_conf_0
I0925 19:23:48.167845 11544 net.cpp:408] conv4_3_norm_mbox_conf_2 -> conv4_3_norm_mbox_conf_2
I0925 19:23:48.170845 11544 net.cpp:150] Setting up conv4_3_norm_mbox_conf_2
I0925 19:23:48.170845 11544 net.cpp:157] Top shape: 32 64 32 48 (3145728)
I0925 19:23:48.170845 11544 net.cpp:165] Memory required for data: 3046965440
I0925 19:23:48.170845 11544 layer_factory.hpp:77] Creating layer conv4_3_norm_mbox_conf_2_relu
I0925 19:23:48.170845 11544 net.cpp:100] Creating Layer conv4_3_norm_mbox_conf_2_relu
I0925 19:23:48.171844 11544 net.cpp:434] conv4_3_norm_mbox_conf_2_relu <- conv4_3_norm_mbox_conf_2
I0925 19:23:48.171844 11544 net.cpp:395] conv4_3_norm_mbox_conf_2_relu -> conv4_3_norm_mbox_conf_2 (in-place)
I0925 19:23:48.172844 11544 net.cpp:150] Setting up conv4_3_norm_mbox_conf_2_relu
I0925 19:23:48.172844 11544 net.cpp:157] Top shape: 32 64 32 48 (3145728)
I0925 19:23:48.172844 11544 net.cpp:165] Memory required for data: 3059548352
I0925 19:23:48.172844 11544 layer_factory.hpp:77] Creating layer conv4_3_norm_mbox_conf_2_bn
I0925 19:23:48.172844 11544 net.cpp:100] Creating Layer conv4_3_norm_mbox_conf_2_bn
I0925 19:23:48.173844 11544 net.cpp:434] conv4_3_norm_mbox_conf_2_bn <- conv4_3_norm_mbox_conf_2
I0925 19:23:48.173844 11544 net.cpp:395] conv4_3_norm_mbox_conf_2_bn -> conv4_3_norm_mbox_conf_2 (in-place)
I0925 19:23:48.173844 11544 net.cpp:150] Setting up conv4_3_norm_mbox_conf_2_bn
I0925 19:23:48.174844 11544 net.cpp:157] Top shape: 32 64 32 48 (3145728)
I0925 19:23:48.174844 11544 net.cpp:165] Memory required for data: 3072131264
I0925 19:23:48.174844 11544 layer_factory.hpp:77] Creating layer conv4_3_norm_mbox_conf_3
I0925 19:23:48.174844 11544 net.cpp:100] Creating Layer conv4_3_norm_mbox_conf_3
I0925 19:23:48.174844 11544 net.cpp:434] conv4_3_norm_mbox_conf_3 <- conv4_3_norm_mbox_conf_2
I0925 19:23:48.175844 11544 net.cpp:408] conv4_3_norm_mbox_conf_3 -> conv4_3_norm_mbox_conf_3
I0925 19:23:48.176844 11544 net.cpp:150] Setting up conv4_3_norm_mbox_conf_3
I0925 19:23:48.176844 11544 net.cpp:157] Top shape: 32 12 32 48 (589824)
I0925 19:23:48.177845 11544 net.cpp:165] Memory required for data: 3074490560
I0925 19:23:48.177845 11544 layer_factory.hpp:77] Creating layer conv4_3_norm_mbox_conf_perm_1
I0925 19:23:48.177845 11544 net.cpp:100] Creating Layer conv4_3_norm_mbox_conf_perm_1
I0925 19:23:48.177845 11544 net.cpp:434] conv4_3_norm_mbox_conf_perm_1 <- conv4_3_norm_mbox_conf_3
I0925 19:23:48.177845 11544 net.cpp:408] conv4_3_norm_mbox_conf_perm_1 -> conv4_3_norm_mbox_conf_perm_1
I0925 19:23:48.178845 11544 net.cpp:150] Setting up conv4_3_norm_mbox_conf_perm_1
I0925 19:23:48.178845 11544 net.cpp:157] Top shape: 32 32 48 12 (589824)
I0925 19:23:48.178845 11544 net.cpp:165] Memory required for data: 3076849856
I0925 19:23:48.178845 11544 layer_factory.hpp:77] Creating layer conv4_3_norm_mbox_conf_flat_1
I0925 19:23:48.179846 11544 net.cpp:100] Creating Layer conv4_3_norm_mbox_conf_flat_1
I0925 19:23:48.179846 11544 net.cpp:434] conv4_3_norm_mbox_conf_flat_1 <- conv4_3_norm_mbox_conf_perm_1
I0925 19:23:48.179846 11544 net.cpp:408] conv4_3_norm_mbox_conf_flat_1 -> conv4_3_norm_mbox_conf_flat_1
I0925 19:23:48.179846 11544 net.cpp:150] Setting up conv4_3_norm_mbox_conf_flat_1
I0925 19:23:48.180845 11544 net.cpp:157] Top shape: 32 18432 (589824)
I0925 19:23:48.180845 11544 net.cpp:165] Memory required for data: 3079209152
I0925 19:23:48.180845 11544 layer_factory.hpp:77] Creating layer conv4_3_norm_mbox_priorbox_1
I0925 19:23:48.180845 11544 net.cpp:100] Creating Layer conv4_3_norm_mbox_priorbox_1
I0925 19:23:48.181845 11544 net.cpp:434] conv4_3_norm_mbox_priorbox_1 <- conv4_3_norm_1_conv4_3_norm_1_0_split_2
I0925 19:23:48.181845 11544 net.cpp:434] conv4_3_norm_mbox_priorbox_1 <- data_data_0_split_1
I0925 19:23:48.181845 11544 net.cpp:408] conv4_3_norm_mbox_priorbox_1 -> conv4_3_norm_mbox_priorbox_1
I0925 19:23:48.181845 11544 net.cpp:150] Setting up conv4_3_norm_mbox_priorbox_1
I0925 19:23:48.182845 11544 net.cpp:157] Top shape: 1 2 36864 (73728)
I0925 19:23:48.182845 11544 net.cpp:165] Memory required for data: 3079504064
I0925 19:23:48.182845 11544 layer_factory.hpp:77] Creating layer fc7_mbox_loc_1
I0925 19:23:48.182845 11544 net.cpp:100] Creating Layer fc7_mbox_loc_1
I0925 19:23:48.182845 11544 net.cpp:434] fc7_mbox_loc_1 <- fire9/concat_fire9/concat_bn_0_split_1
I0925 19:23:48.182845 11544 net.cpp:408] fc7_mbox_loc_1 -> fc7_mbox_loc_1
I0925 19:23:48.186846 11544 net.cpp:150] Setting up fc7_mbox_loc_1
I0925 19:23:48.186846 11544 net.cpp:157] Top shape: 32 24 16 24 (294912)
I0925 19:23:48.187845 11544 net.cpp:165] Memory required for data: 3080683712
I0925 19:23:48.187845 11544 layer_factory.hpp:77] Creating layer fc7_mbox_loc_perm_1
I0925 19:23:48.187845 11544 net.cpp:100] Creating Layer fc7_mbox_loc_perm_1
I0925 19:23:48.187845 11544 net.cpp:434] fc7_mbox_loc_perm_1 <- fc7_mbox_loc_1
I0925 19:23:48.187845 11544 net.cpp:408] fc7_mbox_loc_perm_1 -> fc7_mbox_loc_perm_1
I0925 19:23:48.188845 11544 net.cpp:150] Setting up fc7_mbox_loc_perm_1
I0925 19:23:48.188845 11544 net.cpp:157] Top shape: 32 16 24 24 (294912)
I0925 19:23:48.188845 11544 net.cpp:165] Memory required for data: 3081863360
I0925 19:23:48.188845 11544 layer_factory.hpp:77] Creating layer fc7_mbox_loc_flat_1
I0925 19:23:48.188845 11544 net.cpp:100] Creating Layer fc7_mbox_loc_flat_1
I0925 19:23:48.189846 11544 net.cpp:434] fc7_mbox_loc_flat_1 <- fc7_mbox_loc_perm_1
I0925 19:23:48.189846 11544 net.cpp:408] fc7_mbox_loc_flat_1 -> fc7_mbox_loc_flat_1
I0925 19:23:48.189846 11544 net.cpp:150] Setting up fc7_mbox_loc_flat_1
I0925 19:23:48.189846 11544 net.cpp:157] Top shape: 32 9216 (294912)
I0925 19:23:48.190845 11544 net.cpp:165] Memory required for data: 3083043008
I0925 19:23:48.190845 11544 layer_factory.hpp:77] Creating layer fc7_mbox_conf_0
I0925 19:23:48.190845 11544 net.cpp:100] Creating Layer fc7_mbox_conf_0
I0925 19:23:48.190845 11544 net.cpp:434] fc7_mbox_conf_0 <- fire9/concat_fire9/concat_bn_0_split_2
I0925 19:23:48.190845 11544 net.cpp:408] fc7_mbox_conf_0 -> fc7_mbox_conf_0
I0925 19:23:48.192845 11544 net.cpp:150] Setting up fc7_mbox_conf_0
I0925 19:23:48.192845 11544 net.cpp:157] Top shape: 32 64 16 24 (786432)
I0925 19:23:48.192845 11544 net.cpp:165] Memory required for data: 3086188736
I0925 19:23:48.192845 11544 layer_factory.hpp:77] Creating layer fc7_mbox_conf_0_relu
I0925 19:23:48.193845 11544 net.cpp:100] Creating Layer fc7_mbox_conf_0_relu
I0925 19:23:48.193845 11544 net.cpp:434] fc7_mbox_conf_0_relu <- fc7_mbox_conf_0
I0925 19:23:48.193845 11544 net.cpp:395] fc7_mbox_conf_0_relu -> fc7_mbox_conf_0 (in-place)
I0925 19:23:48.194845 11544 net.cpp:150] Setting up fc7_mbox_conf_0_relu
I0925 19:23:48.194845 11544 net.cpp:157] Top shape: 32 64 16 24 (786432)
I0925 19:23:48.194845 11544 net.cpp:165] Memory required for data: 3089334464
I0925 19:23:48.194845 11544 layer_factory.hpp:77] Creating layer fc7_mbox_conf_0_bn
I0925 19:23:48.194845 11544 net.cpp:100] Creating Layer fc7_mbox_conf_0_bn
I0925 19:23:48.195845 11544 net.cpp:434] fc7_mbox_conf_0_bn <- fc7_mbox_conf_0
I0925 19:23:48.195845 11544 net.cpp:395] fc7_mbox_conf_0_bn -> fc7_mbox_conf_0 (in-place)
I0925 19:23:48.195845 11544 net.cpp:150] Setting up fc7_mbox_conf_0_bn
I0925 19:23:48.195845 11544 net.cpp:157] Top shape: 32 64 16 24 (786432)
I0925 19:23:48.196846 11544 net.cpp:165] Memory required for data: 3092480192
I0925 19:23:48.196846 11544 layer_factory.hpp:77] Creating layer fc7_mbox_conf_2
I0925 19:23:48.196846 11544 net.cpp:100] Creating Layer fc7_mbox_conf_2
I0925 19:23:48.196846 11544 net.cpp:434] fc7_mbox_conf_2 <- fc7_mbox_conf_0
I0925 19:23:48.196846 11544 net.cpp:408] fc7_mbox_conf_2 -> fc7_mbox_conf_2
I0925 19:23:48.198846 11544 net.cpp:150] Setting up fc7_mbox_conf_2
I0925 19:23:48.199846 11544 net.cpp:157] Top shape: 32 64 16 24 (786432)
I0925 19:23:48.199846 11544 net.cpp:165] Memory required for data: 3095625920
I0925 19:23:48.199846 11544 layer_factory.hpp:77] Creating layer fc7_mbox_conf_2_relu
I0925 19:23:48.199846 11544 net.cpp:100] Creating Layer fc7_mbox_conf_2_relu
I0925 19:23:48.199846 11544 net.cpp:434] fc7_mbox_conf_2_relu <- fc7_mbox_conf_2
I0925 19:23:48.200846 11544 net.cpp:395] fc7_mbox_conf_2_relu -> fc7_mbox_conf_2 (in-place)
I0925 19:23:48.200846 11544 net.cpp:150] Setting up fc7_mbox_conf_2_relu
I0925 19:23:48.200846 11544 net.cpp:157] Top shape: 32 64 16 24 (786432)
I0925 19:23:48.201846 11544 net.cpp:165] Memory required for data: 3098771648
I0925 19:23:48.201846 11544 layer_factory.hpp:77] Creating layer fc7_mbox_conf_2_bn
I0925 19:23:48.201846 11544 net.cpp:100] Creating Layer fc7_mbox_conf_2_bn
I0925 19:23:48.201846 11544 net.cpp:434] fc7_mbox_conf_2_bn <- fc7_mbox_conf_2
I0925 19:23:48.201846 11544 net.cpp:395] fc7_mbox_conf_2_bn -> fc7_mbox_conf_2 (in-place)
I0925 19:23:48.202847 11544 net.cpp:150] Setting up fc7_mbox_conf_2_bn
I0925 19:23:48.202847 11544 net.cpp:157] Top shape: 32 64 16 24 (786432)
I0925 19:23:48.202847 11544 net.cpp:165] Memory required for data: 3101917376
I0925 19:23:48.202847 11544 layer_factory.hpp:77] Creating layer fc7_mbox_conf_3
I0925 19:23:48.203846 11544 net.cpp:100] Creating Layer fc7_mbox_conf_3
I0925 19:23:48.203846 11544 net.cpp:434] fc7_mbox_conf_3 <- fc7_mbox_conf_2
I0925 19:23:48.203846 11544 net.cpp:408] fc7_mbox_conf_3 -> fc7_mbox_conf_3
I0925 19:23:48.204846 11544 net.cpp:150] Setting up fc7_mbox_conf_3
I0925 19:23:48.205847 11544 net.cpp:157] Top shape: 32 12 16 24 (147456)
I0925 19:23:48.205847 11544 net.cpp:165] Memory required for data: 3102507200
I0925 19:23:48.205847 11544 layer_factory.hpp:77] Creating layer fc7_mbox_conf_perm_1
I0925 19:23:48.205847 11544 net.cpp:100] Creating Layer fc7_mbox_conf_perm_1
I0925 19:23:48.206846 11544 net.cpp:434] fc7_mbox_conf_perm_1 <- fc7_mbox_conf_3
I0925 19:23:48.206846 11544 net.cpp:408] fc7_mbox_conf_perm_1 -> fc7_mbox_conf_perm_1
I0925 19:23:48.206846 11544 net.cpp:150] Setting up fc7_mbox_conf_perm_1
I0925 19:23:48.206846 11544 net.cpp:157] Top shape: 32 16 24 12 (147456)
I0925 19:23:48.206846 11544 net.cpp:165] Memory required for data: 3103097024
I0925 19:23:48.207846 11544 layer_factory.hpp:77] Creating layer fc7_mbox_conf_flat_1
I0925 19:23:48.207846 11544 net.cpp:100] Creating Layer fc7_mbox_conf_flat_1
I0925 19:23:48.207846 11544 net.cpp:434] fc7_mbox_conf_flat_1 <- fc7_mbox_conf_perm_1
I0925 19:23:48.207846 11544 net.cpp:408] fc7_mbox_conf_flat_1 -> fc7_mbox_conf_flat_1
I0925 19:23:48.208847 11544 net.cpp:150] Setting up fc7_mbox_conf_flat_1
I0925 19:23:48.208847 11544 net.cpp:157] Top shape: 32 4608 (147456)
I0925 19:23:48.208847 11544 net.cpp:165] Memory required for data: 3103686848
I0925 19:23:48.208847 11544 layer_factory.hpp:77] Creating layer fc7_mbox_priorbox_1
I0925 19:23:48.208847 11544 net.cpp:100] Creating Layer fc7_mbox_priorbox_1
I0925 19:23:48.209846 11544 net.cpp:434] fc7_mbox_priorbox_1 <- fire9/concat_fire9/concat_bn_0_split_3
I0925 19:23:48.209846 11544 net.cpp:434] fc7_mbox_priorbox_1 <- data_data_0_split_2
I0925 19:23:48.209846 11544 net.cpp:408] fc7_mbox_priorbox_1 -> fc7_mbox_priorbox_1
I0925 19:23:48.209846 11544 net.cpp:150] Setting up fc7_mbox_priorbox_1
I0925 19:23:48.209846 11544 net.cpp:157] Top shape: 1 2 9216 (18432)
I0925 19:23:48.210846 11544 net.cpp:165] Memory required for data: 3103760576
I0925 19:23:48.210846 11544 layer_factory.hpp:77] Creating layer conv6_2_mbox_loc_1
I0925 19:23:48.210846 11544 net.cpp:100] Creating Layer conv6_2_mbox_loc_1
I0925 19:23:48.210846 11544 net.cpp:434] conv6_2_mbox_loc_1 <- conv6_2_conv6_2_bn_0_split_1
I0925 19:23:48.210846 11544 net.cpp:408] conv6_2_mbox_loc_1 -> conv6_2_mbox_loc_1
I0925 19:23:48.213847 11544 net.cpp:150] Setting up conv6_2_mbox_loc_1
I0925 19:23:48.213847 11544 net.cpp:157] Top shape: 32 24 8 12 (73728)
I0925 19:23:48.213847 11544 net.cpp:165] Memory required for data: 3104055488
I0925 19:23:48.213847 11544 layer_factory.hpp:77] Creating layer conv6_2_mbox_loc_perm_1
I0925 19:23:48.213847 11544 net.cpp:100] Creating Layer conv6_2_mbox_loc_perm_1
I0925 19:23:48.214848 11544 net.cpp:434] conv6_2_mbox_loc_perm_1 <- conv6_2_mbox_loc_1
I0925 19:23:48.214848 11544 net.cpp:408] conv6_2_mbox_loc_perm_1 -> conv6_2_mbox_loc_perm_1
I0925 19:23:48.214848 11544 net.cpp:150] Setting up conv6_2_mbox_loc_perm_1
I0925 19:23:48.214848 11544 net.cpp:157] Top shape: 32 8 12 24 (73728)
I0925 19:23:48.215847 11544 net.cpp:165] Memory required for data: 3104350400
I0925 19:23:48.215847 11544 layer_factory.hpp:77] Creating layer conv6_2_mbox_loc_flat_1
I0925 19:23:48.215847 11544 net.cpp:100] Creating Layer conv6_2_mbox_loc_flat_1
I0925 19:23:48.215847 11544 net.cpp:434] conv6_2_mbox_loc_flat_1 <- conv6_2_mbox_loc_perm_1
I0925 19:23:48.215847 11544 net.cpp:408] conv6_2_mbox_loc_flat_1 -> conv6_2_mbox_loc_flat_1
I0925 19:23:48.216847 11544 net.cpp:150] Setting up conv6_2_mbox_loc_flat_1
I0925 19:23:48.216847 11544 net.cpp:157] Top shape: 32 2304 (73728)
I0925 19:23:48.216847 11544 net.cpp:165] Memory required for data: 3104645312
I0925 19:23:48.216847 11544 layer_factory.hpp:77] Creating layer conv6_2_mbox_conf_0
I0925 19:23:48.216847 11544 net.cpp:100] Creating Layer conv6_2_mbox_conf_0
I0925 19:23:48.217847 11544 net.cpp:434] conv6_2_mbox_conf_0 <- conv6_2_conv6_2_bn_0_split_2
I0925 19:23:48.217847 11544 net.cpp:408] conv6_2_mbox_conf_0 -> conv6_2_mbox_conf_0
I0925 19:23:48.219847 11544 net.cpp:150] Setting up conv6_2_mbox_conf_0
I0925 19:23:48.219847 11544 net.cpp:157] Top shape: 32 64 8 12 (196608)
I0925 19:23:48.219847 11544 net.cpp:165] Memory required for data: 3105431744
I0925 19:23:48.219847 11544 layer_factory.hpp:77] Creating layer conv6_2_mbox_conf_0_relu
I0925 19:23:48.219847 11544 net.cpp:100] Creating Layer conv6_2_mbox_conf_0_relu
I0925 19:23:48.219847 11544 net.cpp:434] conv6_2_mbox_conf_0_relu <- conv6_2_mbox_conf_0
I0925 19:23:48.220847 11544 net.cpp:395] conv6_2_mbox_conf_0_relu -> conv6_2_mbox_conf_0 (in-place)
I0925 19:23:48.220847 11544 net.cpp:150] Setting up conv6_2_mbox_conf_0_relu
I0925 19:23:48.220847 11544 net.cpp:157] Top shape: 32 64 8 12 (196608)
I0925 19:23:48.221848 11544 net.cpp:165] Memory required for data: 3106218176
I0925 19:23:48.221848 11544 layer_factory.hpp:77] Creating layer conv6_2_mbox_conf_0_bn
I0925 19:23:48.221848 11544 net.cpp:100] Creating Layer conv6_2_mbox_conf_0_bn
I0925 19:23:48.221848 11544 net.cpp:434] conv6_2_mbox_conf_0_bn <- conv6_2_mbox_conf_0
I0925 19:23:48.221848 11544 net.cpp:395] conv6_2_mbox_conf_0_bn -> conv6_2_mbox_conf_0 (in-place)
I0925 19:23:48.222847 11544 net.cpp:150] Setting up conv6_2_mbox_conf_0_bn
I0925 19:23:48.222847 11544 net.cpp:157] Top shape: 32 64 8 12 (196608)
I0925 19:23:48.222847 11544 net.cpp:165] Memory required for data: 3107004608
I0925 19:23:48.222847 11544 layer_factory.hpp:77] Creating layer conv6_2_mbox_conf_2
I0925 19:23:48.223847 11544 net.cpp:100] Creating Layer conv6_2_mbox_conf_2
I0925 19:23:48.223847 11544 net.cpp:434] conv6_2_mbox_conf_2 <- conv6_2_mbox_conf_0
I0925 19:23:48.223847 11544 net.cpp:408] conv6_2_mbox_conf_2 -> conv6_2_mbox_conf_2
I0925 19:23:48.226847 11544 net.cpp:150] Setting up conv6_2_mbox_conf_2
I0925 19:23:48.226847 11544 net.cpp:157] Top shape: 32 64 8 12 (196608)
I0925 19:23:48.226847 11544 net.cpp:165] Memory required for data: 3107791040
I0925 19:23:48.226847 11544 layer_factory.hpp:77] Creating layer conv6_2_mbox_conf_2_relu
I0925 19:23:48.227847 11544 net.cpp:100] Creating Layer conv6_2_mbox_conf_2_relu
I0925 19:23:48.227847 11544 net.cpp:434] conv6_2_mbox_conf_2_relu <- conv6_2_mbox_conf_2
I0925 19:23:48.227847 11544 net.cpp:395] conv6_2_mbox_conf_2_relu -> conv6_2_mbox_conf_2 (in-place)
I0925 19:23:48.228847 11544 net.cpp:150] Setting up conv6_2_mbox_conf_2_relu
I0925 19:23:48.228847 11544 net.cpp:157] Top shape: 32 64 8 12 (196608)
I0925 19:23:48.228847 11544 net.cpp:165] Memory required for data: 3108577472
I0925 19:23:48.228847 11544 layer_factory.hpp:77] Creating layer conv6_2_mbox_conf_2_bn
I0925 19:23:48.228847 11544 net.cpp:100] Creating Layer conv6_2_mbox_conf_2_bn
I0925 19:23:48.229847 11544 net.cpp:434] conv6_2_mbox_conf_2_bn <- conv6_2_mbox_conf_2
I0925 19:23:48.229847 11544 net.cpp:395] conv6_2_mbox_conf_2_bn -> conv6_2_mbox_conf_2 (in-place)
I0925 19:23:48.229847 11544 net.cpp:150] Setting up conv6_2_mbox_conf_2_bn
I0925 19:23:48.229847 11544 net.cpp:157] Top shape: 32 64 8 12 (196608)
I0925 19:23:48.230847 11544 net.cpp:165] Memory required for data: 3109363904
I0925 19:23:48.230847 11544 layer_factory.hpp:77] Creating layer conv6_2_mbox_conf_3
I0925 19:23:48.230847 11544 net.cpp:100] Creating Layer conv6_2_mbox_conf_3
I0925 19:23:48.230847 11544 net.cpp:434] conv6_2_mbox_conf_3 <- conv6_2_mbox_conf_2
I0925 19:23:48.230847 11544 net.cpp:408] conv6_2_mbox_conf_3 -> conv6_2_mbox_conf_3
I0925 19:23:48.232848 11544 net.cpp:150] Setting up conv6_2_mbox_conf_3
I0925 19:23:48.232848 11544 net.cpp:157] Top shape: 32 12 8 12 (36864)
I0925 19:23:48.233849 11544 net.cpp:165] Memory required for data: 3109511360
I0925 19:23:48.233849 11544 layer_factory.hpp:77] Creating layer conv6_2_mbox_conf_perm_1
I0925 19:23:48.233849 11544 net.cpp:100] Creating Layer conv6_2_mbox_conf_perm_1
I0925 19:23:48.233849 11544 net.cpp:434] conv6_2_mbox_conf_perm_1 <- conv6_2_mbox_conf_3
I0925 19:23:48.233849 11544 net.cpp:408] conv6_2_mbox_conf_perm_1 -> conv6_2_mbox_conf_perm_1
I0925 19:23:48.234848 11544 net.cpp:150] Setting up conv6_2_mbox_conf_perm_1
I0925 19:23:48.234848 11544 net.cpp:157] Top shape: 32 8 12 12 (36864)
I0925 19:23:48.234848 11544 net.cpp:165] Memory required for data: 3109658816
I0925 19:23:48.234848 11544 layer_factory.hpp:77] Creating layer conv6_2_mbox_conf_flat_1
I0925 19:23:48.235848 11544 net.cpp:100] Creating Layer conv6_2_mbox_conf_flat_1
I0925 19:23:48.235848 11544 net.cpp:434] conv6_2_mbox_conf_flat_1 <- conv6_2_mbox_conf_perm_1
I0925 19:23:48.235848 11544 net.cpp:408] conv6_2_mbox_conf_flat_1 -> conv6_2_mbox_conf_flat_1
I0925 19:23:48.235848 11544 net.cpp:150] Setting up conv6_2_mbox_conf_flat_1
I0925 19:23:48.236848 11544 net.cpp:157] Top shape: 32 1152 (36864)
I0925 19:23:48.236848 11544 net.cpp:165] Memory required for data: 3109806272
I0925 19:23:48.236848 11544 layer_factory.hpp:77] Creating layer conv6_2_mbox_priorbox_1
I0925 19:23:48.236848 11544 net.cpp:100] Creating Layer conv6_2_mbox_priorbox_1
I0925 19:23:48.236848 11544 net.cpp:434] conv6_2_mbox_priorbox_1 <- conv6_2_conv6_2_bn_0_split_3
I0925 19:23:48.237848 11544 net.cpp:434] conv6_2_mbox_priorbox_1 <- data_data_0_split_3
I0925 19:23:48.237848 11544 net.cpp:408] conv6_2_mbox_priorbox_1 -> conv6_2_mbox_priorbox_1
I0925 19:23:48.237848 11544 net.cpp:150] Setting up conv6_2_mbox_priorbox_1
I0925 19:23:48.237848 11544 net.cpp:157] Top shape: 1 2 2304 (4608)
I0925 19:23:48.237848 11544 net.cpp:165] Memory required for data: 3109824704
I0925 19:23:48.238848 11544 layer_factory.hpp:77] Creating layer conv7_2_mbox_loc_1
I0925 19:23:48.238848 11544 net.cpp:100] Creating Layer conv7_2_mbox_loc_1
I0925 19:23:48.238848 11544 net.cpp:434] conv7_2_mbox_loc_1 <- conv7_2_conv7_2_bn_0_split_1
I0925 19:23:48.238848 11544 net.cpp:408] conv7_2_mbox_loc_1 -> conv7_2_mbox_loc_1
I0925 19:23:48.240849 11544 net.cpp:150] Setting up conv7_2_mbox_loc_1
I0925 19:23:48.240849 11544 net.cpp:157] Top shape: 32 24 4 6 (18432)
I0925 19:23:48.240849 11544 net.cpp:165] Memory required for data: 3109898432
I0925 19:23:48.241848 11544 layer_factory.hpp:77] Creating layer conv7_2_mbox_loc_perm_1
I0925 19:23:48.241848 11544 net.cpp:100] Creating Layer conv7_2_mbox_loc_perm_1
I0925 19:23:48.241848 11544 net.cpp:434] conv7_2_mbox_loc_perm_1 <- conv7_2_mbox_loc_1
I0925 19:23:48.241848 11544 net.cpp:408] conv7_2_mbox_loc_perm_1 -> conv7_2_mbox_loc_perm_1
I0925 19:23:48.242848 11544 net.cpp:150] Setting up conv7_2_mbox_loc_perm_1
I0925 19:23:48.242848 11544 net.cpp:157] Top shape: 32 4 6 24 (18432)
I0925 19:23:48.242848 11544 net.cpp:165] Memory required for data: 3109972160
I0925 19:23:48.242848 11544 layer_factory.hpp:77] Creating layer conv7_2_mbox_loc_flat_1
I0925 19:23:48.243849 11544 net.cpp:100] Creating Layer conv7_2_mbox_loc_flat_1
I0925 19:23:48.243849 11544 net.cpp:434] conv7_2_mbox_loc_flat_1 <- conv7_2_mbox_loc_perm_1
I0925 19:23:48.243849 11544 net.cpp:408] conv7_2_mbox_loc_flat_1 -> conv7_2_mbox_loc_flat_1
I0925 19:23:48.243849 11544 net.cpp:150] Setting up conv7_2_mbox_loc_flat_1
I0925 19:23:48.243849 11544 net.cpp:157] Top shape: 32 576 (18432)
I0925 19:23:48.244848 11544 net.cpp:165] Memory required for data: 3110045888
I0925 19:23:48.244848 11544 layer_factory.hpp:77] Creating layer conv7_2_mbox_conf_0
I0925 19:23:48.244848 11544 net.cpp:100] Creating Layer conv7_2_mbox_conf_0
I0925 19:23:48.244848 11544 net.cpp:434] conv7_2_mbox_conf_0 <- conv7_2_conv7_2_bn_0_split_2
I0925 19:23:48.244848 11544 net.cpp:408] conv7_2_mbox_conf_0 -> conv7_2_mbox_conf_0
I0925 19:23:48.246848 11544 net.cpp:150] Setting up conv7_2_mbox_conf_0
I0925 19:23:48.246848 11544 net.cpp:157] Top shape: 32 64 4 6 (49152)
I0925 19:23:48.246848 11544 net.cpp:165] Memory required for data: 3110242496
I0925 19:23:48.246848 11544 layer_factory.hpp:77] Creating layer conv7_2_mbox_conf_0_relu
I0925 19:23:48.247848 11544 net.cpp:100] Creating Layer conv7_2_mbox_conf_0_relu
I0925 19:23:48.247848 11544 net.cpp:434] conv7_2_mbox_conf_0_relu <- conv7_2_mbox_conf_0
I0925 19:23:48.247848 11544 net.cpp:395] conv7_2_mbox_conf_0_relu -> conv7_2_mbox_conf_0 (in-place)
I0925 19:23:48.248849 11544 net.cpp:150] Setting up conv7_2_mbox_conf_0_relu
I0925 19:23:48.248849 11544 net.cpp:157] Top shape: 32 64 4 6 (49152)
I0925 19:23:48.248849 11544 net.cpp:165] Memory required for data: 3110439104
I0925 19:23:48.248849 11544 layer_factory.hpp:77] Creating layer conv7_2_mbox_conf_0_bn
I0925 19:23:48.248849 11544 net.cpp:100] Creating Layer conv7_2_mbox_conf_0_bn
I0925 19:23:48.249850 11544 net.cpp:434] conv7_2_mbox_conf_0_bn <- conv7_2_mbox_conf_0
I0925 19:23:48.249850 11544 net.cpp:395] conv7_2_mbox_conf_0_bn -> conv7_2_mbox_conf_0 (in-place)
I0925 19:23:48.249850 11544 net.cpp:150] Setting up conv7_2_mbox_conf_0_bn
I0925 19:23:48.250849 11544 net.cpp:157] Top shape: 32 64 4 6 (49152)
I0925 19:23:48.250849 11544 net.cpp:165] Memory required for data: 3110635712
I0925 19:23:48.250849 11544 layer_factory.hpp:77] Creating layer conv7_2_mbox_conf_2
I0925 19:23:48.250849 11544 net.cpp:100] Creating Layer conv7_2_mbox_conf_2
I0925 19:23:48.250849 11544 net.cpp:434] conv7_2_mbox_conf_2 <- conv7_2_mbox_conf_0
I0925 19:23:48.251849 11544 net.cpp:408] conv7_2_mbox_conf_2 -> conv7_2_mbox_conf_2
I0925 19:23:48.252849 11544 net.cpp:150] Setting up conv7_2_mbox_conf_2
I0925 19:23:48.252849 11544 net.cpp:157] Top shape: 32 64 4 6 (49152)
I0925 19:23:48.253849 11544 net.cpp:165] Memory required for data: 3110832320
I0925 19:23:48.253849 11544 layer_factory.hpp:77] Creating layer conv7_2_mbox_conf_2_relu
I0925 19:23:48.253849 11544 net.cpp:100] Creating Layer conv7_2_mbox_conf_2_relu
I0925 19:23:48.253849 11544 net.cpp:434] conv7_2_mbox_conf_2_relu <- conv7_2_mbox_conf_2
I0925 19:23:48.253849 11544 net.cpp:395] conv7_2_mbox_conf_2_relu -> conv7_2_mbox_conf_2 (in-place)
I0925 19:23:48.254849 11544 net.cpp:150] Setting up conv7_2_mbox_conf_2_relu
I0925 19:23:48.254849 11544 net.cpp:157] Top shape: 32 64 4 6 (49152)
I0925 19:23:48.254849 11544 net.cpp:165] Memory required for data: 3111028928
I0925 19:23:48.255849 11544 layer_factory.hpp:77] Creating layer conv7_2_mbox_conf_2_bn
I0925 19:23:48.255849 11544 net.cpp:100] Creating Layer conv7_2_mbox_conf_2_bn
I0925 19:23:48.255849 11544 net.cpp:434] conv7_2_mbox_conf_2_bn <- conv7_2_mbox_conf_2
I0925 19:23:48.255849 11544 net.cpp:395] conv7_2_mbox_conf_2_bn -> conv7_2_mbox_conf_2 (in-place)
I0925 19:23:48.256850 11544 net.cpp:150] Setting up conv7_2_mbox_conf_2_bn
I0925 19:23:48.256850 11544 net.cpp:157] Top shape: 32 64 4 6 (49152)
I0925 19:23:48.256850 11544 net.cpp:165] Memory required for data: 3111225536
I0925 19:23:48.256850 11544 layer_factory.hpp:77] Creating layer conv7_2_mbox_conf_3
I0925 19:23:48.257849 11544 net.cpp:100] Creating Layer conv7_2_mbox_conf_3
I0925 19:23:48.257849 11544 net.cpp:434] conv7_2_mbox_conf_3 <- conv7_2_mbox_conf_2
I0925 19:23:48.257849 11544 net.cpp:408] conv7_2_mbox_conf_3 -> conv7_2_mbox_conf_3
I0925 19:23:48.259850 11544 net.cpp:150] Setting up conv7_2_mbox_conf_3
I0925 19:23:48.259850 11544 net.cpp:157] Top shape: 32 12 4 6 (9216)
I0925 19:23:48.259850 11544 net.cpp:165] Memory required for data: 3111262400
I0925 19:23:48.260849 11544 layer_factory.hpp:77] Creating layer conv7_2_mbox_conf_perm_1
I0925 19:23:48.260849 11544 net.cpp:100] Creating Layer conv7_2_mbox_conf_perm_1
I0925 19:23:48.260849 11544 net.cpp:434] conv7_2_mbox_conf_perm_1 <- conv7_2_mbox_conf_3
I0925 19:23:48.260849 11544 net.cpp:408] conv7_2_mbox_conf_perm_1 -> conv7_2_mbox_conf_perm_1
I0925 19:23:48.261849 11544 net.cpp:150] Setting up conv7_2_mbox_conf_perm_1
I0925 19:23:48.261849 11544 net.cpp:157] Top shape: 32 4 6 12 (9216)
I0925 19:23:48.261849 11544 net.cpp:165] Memory required for data: 3111299264
I0925 19:23:48.261849 11544 layer_factory.hpp:77] Creating layer conv7_2_mbox_conf_flat_1
I0925 19:23:48.261849 11544 net.cpp:100] Creating Layer conv7_2_mbox_conf_flat_1
I0925 19:23:48.262850 11544 net.cpp:434] conv7_2_mbox_conf_flat_1 <- conv7_2_mbox_conf_perm_1
I0925 19:23:48.262850 11544 net.cpp:408] conv7_2_mbox_conf_flat_1 -> conv7_2_mbox_conf_flat_1
I0925 19:23:48.262850 11544 net.cpp:150] Setting up conv7_2_mbox_conf_flat_1
I0925 19:23:48.262850 11544 net.cpp:157] Top shape: 32 288 (9216)
I0925 19:23:48.263849 11544 net.cpp:165] Memory required for data: 3111336128
I0925 19:23:48.263849 11544 layer_factory.hpp:77] Creating layer conv7_2_mbox_priorbox_1
I0925 19:23:48.263849 11544 net.cpp:100] Creating Layer conv7_2_mbox_priorbox_1
I0925 19:23:48.263849 11544 net.cpp:434] conv7_2_mbox_priorbox_1 <- conv7_2_conv7_2_bn_0_split_3
I0925 19:23:48.263849 11544 net.cpp:434] conv7_2_mbox_priorbox_1 <- data_data_0_split_4
I0925 19:23:48.264849 11544 net.cpp:408] conv7_2_mbox_priorbox_1 -> conv7_2_mbox_priorbox_1
I0925 19:23:48.264849 11544 net.cpp:150] Setting up conv7_2_mbox_priorbox_1
I0925 19:23:48.264849 11544 net.cpp:157] Top shape: 1 2 576 (1152)
I0925 19:23:48.264849 11544 net.cpp:165] Memory required for data: 3111340736
I0925 19:23:48.264849 11544 layer_factory.hpp:77] Creating layer conv8_2_mbox_loc_1
I0925 19:23:48.265849 11544 net.cpp:100] Creating Layer conv8_2_mbox_loc_1
I0925 19:23:48.265849 11544 net.cpp:434] conv8_2_mbox_loc_1 <- conv8_2_conv8_2_bn_0_split_1
I0925 19:23:48.265849 11544 net.cpp:408] conv8_2_mbox_loc_1 -> conv8_2_mbox_loc_1
I0925 19:23:48.267850 11544 net.cpp:150] Setting up conv8_2_mbox_loc_1
I0925 19:23:48.267850 11544 net.cpp:157] Top shape: 32 24 2 3 (4608)
I0925 19:23:48.267850 11544 net.cpp:165] Memory required for data: 3111359168
I0925 19:23:48.268851 11544 layer_factory.hpp:77] Creating layer conv8_2_mbox_loc_perm_1
I0925 19:23:48.268851 11544 net.cpp:100] Creating Layer conv8_2_mbox_loc_perm_1
I0925 19:23:48.268851 11544 net.cpp:434] conv8_2_mbox_loc_perm_1 <- conv8_2_mbox_loc_1
I0925 19:23:48.268851 11544 net.cpp:408] conv8_2_mbox_loc_perm_1 -> conv8_2_mbox_loc_perm_1
I0925 19:23:48.269850 11544 net.cpp:150] Setting up conv8_2_mbox_loc_perm_1
I0925 19:23:48.269850 11544 net.cpp:157] Top shape: 32 2 3 24 (4608)
I0925 19:23:48.269850 11544 net.cpp:165] Memory required for data: 3111377600
I0925 19:23:48.269850 11544 layer_factory.hpp:77] Creating layer conv8_2_mbox_loc_flat_1
I0925 19:23:48.269850 11544 net.cpp:100] Creating Layer conv8_2_mbox_loc_flat_1
I0925 19:23:48.270850 11544 net.cpp:434] conv8_2_mbox_loc_flat_1 <- conv8_2_mbox_loc_perm_1
I0925 19:23:48.270850 11544 net.cpp:408] conv8_2_mbox_loc_flat_1 -> conv8_2_mbox_loc_flat_1
I0925 19:23:48.270850 11544 net.cpp:150] Setting up conv8_2_mbox_loc_flat_1
I0925 19:23:48.270850 11544 net.cpp:157] Top shape: 32 144 (4608)
I0925 19:23:48.270850 11544 net.cpp:165] Memory required for data: 3111396032
I0925 19:23:48.271850 11544 layer_factory.hpp:77] Creating layer conv8_2_mbox_conf_0
I0925 19:23:48.271850 11544 net.cpp:100] Creating Layer conv8_2_mbox_conf_0
I0925 19:23:48.271850 11544 net.cpp:434] conv8_2_mbox_conf_0 <- conv8_2_conv8_2_bn_0_split_2
I0925 19:23:48.271850 11544 net.cpp:408] conv8_2_mbox_conf_0 -> conv8_2_mbox_conf_0
I0925 19:23:48.273850 11544 net.cpp:150] Setting up conv8_2_mbox_conf_0
I0925 19:23:48.273850 11544 net.cpp:157] Top shape: 32 64 2 3 (12288)
I0925 19:23:48.273850 11544 net.cpp:165] Memory required for data: 3111445184
I0925 19:23:48.273850 11544 layer_factory.hpp:77] Creating layer conv8_2_mbox_conf_0_relu
I0925 19:23:48.274850 11544 net.cpp:100] Creating Layer conv8_2_mbox_conf_0_relu
I0925 19:23:48.274850 11544 net.cpp:434] conv8_2_mbox_conf_0_relu <- conv8_2_mbox_conf_0
I0925 19:23:48.274850 11544 net.cpp:395] conv8_2_mbox_conf_0_relu -> conv8_2_mbox_conf_0 (in-place)
I0925 19:23:48.274850 11544 net.cpp:150] Setting up conv8_2_mbox_conf_0_relu
I0925 19:23:48.275851 11544 net.cpp:157] Top shape: 32 64 2 3 (12288)
I0925 19:23:48.275851 11544 net.cpp:165] Memory required for data: 3111494336
I0925 19:23:48.275851 11544 layer_factory.hpp:77] Creating layer conv8_2_mbox_conf_0_bn
I0925 19:23:48.275851 11544 net.cpp:100] Creating Layer conv8_2_mbox_conf_0_bn
I0925 19:23:48.275851 11544 net.cpp:434] conv8_2_mbox_conf_0_bn <- conv8_2_mbox_conf_0
I0925 19:23:48.276850 11544 net.cpp:395] conv8_2_mbox_conf_0_bn -> conv8_2_mbox_conf_0 (in-place)
I0925 19:23:48.276850 11544 net.cpp:150] Setting up conv8_2_mbox_conf_0_bn
I0925 19:23:48.276850 11544 net.cpp:157] Top shape: 32 64 2 3 (12288)
I0925 19:23:48.276850 11544 net.cpp:165] Memory required for data: 3111543488
I0925 19:23:48.277850 11544 layer_factory.hpp:77] Creating layer conv8_2_mbox_conf_2
I0925 19:23:48.277850 11544 net.cpp:100] Creating Layer conv8_2_mbox_conf_2
I0925 19:23:48.277850 11544 net.cpp:434] conv8_2_mbox_conf_2 <- conv8_2_mbox_conf_0
I0925 19:23:48.277850 11544 net.cpp:408] conv8_2_mbox_conf_2 -> conv8_2_mbox_conf_2
I0925 19:23:48.279850 11544 net.cpp:150] Setting up conv8_2_mbox_conf_2
I0925 19:23:48.279850 11544 net.cpp:157] Top shape: 32 64 2 3 (12288)
I0925 19:23:48.279850 11544 net.cpp:165] Memory required for data: 3111592640
I0925 19:23:48.280850 11544 layer_factory.hpp:77] Creating layer conv8_2_mbox_conf_2_relu
I0925 19:23:48.280850 11544 net.cpp:100] Creating Layer conv8_2_mbox_conf_2_relu
I0925 19:23:48.280850 11544 net.cpp:434] conv8_2_mbox_conf_2_relu <- conv8_2_mbox_conf_2
I0925 19:23:48.281850 11544 net.cpp:395] conv8_2_mbox_conf_2_relu -> conv8_2_mbox_conf_2 (in-place)
I0925 19:23:48.281850 11544 net.cpp:150] Setting up conv8_2_mbox_conf_2_relu
I0925 19:23:48.281850 11544 net.cpp:157] Top shape: 32 64 2 3 (12288)
I0925 19:23:48.281850 11544 net.cpp:165] Memory required for data: 3111641792
I0925 19:23:48.282850 11544 layer_factory.hpp:77] Creating layer conv8_2_mbox_conf_2_bn
I0925 19:23:48.282850 11544 net.cpp:100] Creating Layer conv8_2_mbox_conf_2_bn
I0925 19:23:48.282850 11544 net.cpp:434] conv8_2_mbox_conf_2_bn <- conv8_2_mbox_conf_2
I0925 19:23:48.282850 11544 net.cpp:395] conv8_2_mbox_conf_2_bn -> conv8_2_mbox_conf_2 (in-place)
I0925 19:23:48.283851 11544 net.cpp:150] Setting up conv8_2_mbox_conf_2_bn
I0925 19:23:48.283851 11544 net.cpp:157] Top shape: 32 64 2 3 (12288)
I0925 19:23:48.283851 11544 net.cpp:165] Memory required for data: 3111690944
I0925 19:23:48.283851 11544 layer_factory.hpp:77] Creating layer conv8_2_mbox_conf_3
I0925 19:23:48.284852 11544 net.cpp:100] Creating Layer conv8_2_mbox_conf_3
I0925 19:23:48.284852 11544 net.cpp:434] conv8_2_mbox_conf_3 <- conv8_2_mbox_conf_2
I0925 19:23:48.284852 11544 net.cpp:408] conv8_2_mbox_conf_3 -> conv8_2_mbox_conf_3
I0925 19:23:48.287852 11544 net.cpp:150] Setting up conv8_2_mbox_conf_3
I0925 19:23:48.287852 11544 net.cpp:157] Top shape: 32 12 2 3 (2304)
I0925 19:23:48.287852 11544 net.cpp:165] Memory required for data: 3111700160
I0925 19:23:48.287852 11544 layer_factory.hpp:77] Creating layer conv8_2_mbox_conf_perm_1
I0925 19:23:48.287852 11544 net.cpp:100] Creating Layer conv8_2_mbox_conf_perm_1
I0925 19:23:48.288851 11544 net.cpp:434] conv8_2_mbox_conf_perm_1 <- conv8_2_mbox_conf_3
I0925 19:23:48.288851 11544 net.cpp:408] conv8_2_mbox_conf_perm_1 -> conv8_2_mbox_conf_perm_1
I0925 19:23:48.288851 11544 net.cpp:150] Setting up conv8_2_mbox_conf_perm_1
I0925 19:23:48.289851 11544 net.cpp:157] Top shape: 32 2 3 12 (2304)
I0925 19:23:48.289851 11544 net.cpp:165] Memory required for data: 3111709376
I0925 19:23:48.289851 11544 layer_factory.hpp:77] Creating layer conv8_2_mbox_conf_flat_1
I0925 19:23:48.289851 11544 net.cpp:100] Creating Layer conv8_2_mbox_conf_flat_1
I0925 19:23:48.289851 11544 net.cpp:434] conv8_2_mbox_conf_flat_1 <- conv8_2_mbox_conf_perm_1
I0925 19:23:48.290851 11544 net.cpp:408] conv8_2_mbox_conf_flat_1 -> conv8_2_mbox_conf_flat_1
I0925 19:23:48.292851 11544 net.cpp:150] Setting up conv8_2_mbox_conf_flat_1
I0925 19:23:48.292851 11544 net.cpp:157] Top shape: 32 72 (2304)
I0925 19:23:48.293851 11544 net.cpp:165] Memory required for data: 3111718592
I0925 19:23:48.293851 11544 layer_factory.hpp:77] Creating layer conv8_2_mbox_priorbox_1
I0925 19:23:48.293851 11544 net.cpp:100] Creating Layer conv8_2_mbox_priorbox_1
I0925 19:23:48.293851 11544 net.cpp:434] conv8_2_mbox_priorbox_1 <- conv8_2_conv8_2_bn_0_split_3
I0925 19:23:48.293851 11544 net.cpp:434] conv8_2_mbox_priorbox_1 <- data_data_0_split_5
I0925 19:23:48.294852 11544 net.cpp:408] conv8_2_mbox_priorbox_1 -> conv8_2_mbox_priorbox_1
I0925 19:23:48.294852 11544 net.cpp:150] Setting up conv8_2_mbox_priorbox_1
I0925 19:23:48.294852 11544 net.cpp:157] Top shape: 1 2 144 (288)
I0925 19:23:48.294852 11544 net.cpp:165] Memory required for data: 3111719744
I0925 19:23:48.294852 11544 layer_factory.hpp:77] Creating layer pool6_mbox_loc_1
I0925 19:23:48.295851 11544 net.cpp:100] Creating Layer pool6_mbox_loc_1
I0925 19:23:48.295851 11544 net.cpp:434] pool6_mbox_loc_1 <- pool6_pool6_0_split_0
I0925 19:23:48.295851 11544 net.cpp:408] pool6_mbox_loc_1 -> pool6_mbox_loc_1
I0925 19:23:48.297852 11544 net.cpp:150] Setting up pool6_mbox_loc_1
I0925 19:23:48.297852 11544 net.cpp:157] Top shape: 32 24 1 1 (768)
I0925 19:23:48.298851 11544 net.cpp:165] Memory required for data: 3111722816
I0925 19:23:48.298851 11544 layer_factory.hpp:77] Creating layer pool6_mbox_loc_perm_1
I0925 19:23:48.298851 11544 net.cpp:100] Creating Layer pool6_mbox_loc_perm_1
I0925 19:23:48.298851 11544 net.cpp:434] pool6_mbox_loc_perm_1 <- pool6_mbox_loc_1
I0925 19:23:48.298851 11544 net.cpp:408] pool6_mbox_loc_perm_1 -> pool6_mbox_loc_perm_1
I0925 19:23:48.299851 11544 net.cpp:150] Setting up pool6_mbox_loc_perm_1
I0925 19:23:48.299851 11544 net.cpp:157] Top shape: 32 1 1 24 (768)
I0925 19:23:48.299851 11544 net.cpp:165] Memory required for data: 3111725888
I0925 19:23:48.299851 11544 layer_factory.hpp:77] Creating layer pool6_mbox_loc_flat_1
I0925 19:23:48.300851 11544 net.cpp:100] Creating Layer pool6_mbox_loc_flat_1
I0925 19:23:48.300851 11544 net.cpp:434] pool6_mbox_loc_flat_1 <- pool6_mbox_loc_perm_1
I0925 19:23:48.300851 11544 net.cpp:408] pool6_mbox_loc_flat_1 -> pool6_mbox_loc_flat_1
I0925 19:23:48.300851 11544 net.cpp:150] Setting up pool6_mbox_loc_flat_1
I0925 19:23:48.300851 11544 net.cpp:157] Top shape: 32 24 (768)
I0925 19:23:48.301852 11544 net.cpp:165] Memory required for data: 3111728960
I0925 19:23:48.301852 11544 layer_factory.hpp:77] Creating layer pool6_mbox_conf_0
I0925 19:23:48.301852 11544 net.cpp:100] Creating Layer pool6_mbox_conf_0
I0925 19:23:48.301852 11544 net.cpp:434] pool6_mbox_conf_0 <- pool6_pool6_0_split_1
I0925 19:23:48.301852 11544 net.cpp:408] pool6_mbox_conf_0 -> pool6_mbox_conf_0
I0925 19:23:48.303853 11544 net.cpp:150] Setting up pool6_mbox_conf_0
I0925 19:23:48.303853 11544 net.cpp:157] Top shape: 32 64 1 1 (2048)
I0925 19:23:48.303853 11544 net.cpp:165] Memory required for data: 3111737152
I0925 19:23:48.303853 11544 layer_factory.hpp:77] Creating layer pool6_mbox_conf_0_relu
I0925 19:23:48.304852 11544 net.cpp:100] Creating Layer pool6_mbox_conf_0_relu
I0925 19:23:48.304852 11544 net.cpp:434] pool6_mbox_conf_0_relu <- pool6_mbox_conf_0
I0925 19:23:48.304852 11544 net.cpp:395] pool6_mbox_conf_0_relu -> pool6_mbox_conf_0 (in-place)
I0925 19:23:48.305852 11544 net.cpp:150] Setting up pool6_mbox_conf_0_relu
I0925 19:23:48.305852 11544 net.cpp:157] Top shape: 32 64 1 1 (2048)
I0925 19:23:48.305852 11544 net.cpp:165] Memory required for data: 3111745344
I0925 19:23:48.305852 11544 layer_factory.hpp:77] Creating layer pool6_mbox_conf_0_bn
I0925 19:23:48.305852 11544 net.cpp:100] Creating Layer pool6_mbox_conf_0_bn
I0925 19:23:48.306852 11544 net.cpp:434] pool6_mbox_conf_0_bn <- pool6_mbox_conf_0
I0925 19:23:48.306852 11544 net.cpp:395] pool6_mbox_conf_0_bn -> pool6_mbox_conf_0 (in-place)
I0925 19:23:48.306852 11544 net.cpp:150] Setting up pool6_mbox_conf_0_bn
I0925 19:23:48.306852 11544 net.cpp:157] Top shape: 32 64 1 1 (2048)
I0925 19:23:48.307852 11544 net.cpp:165] Memory required for data: 3111753536
I0925 19:23:48.307852 11544 layer_factory.hpp:77] Creating layer pool6_mbox_conf_2
I0925 19:23:48.307852 11544 net.cpp:100] Creating Layer pool6_mbox_conf_2
I0925 19:23:48.307852 11544 net.cpp:434] pool6_mbox_conf_2 <- pool6_mbox_conf_0
I0925 19:23:48.307852 11544 net.cpp:408] pool6_mbox_conf_2 -> pool6_mbox_conf_2
I0925 19:23:48.310853 11544 net.cpp:150] Setting up pool6_mbox_conf_2
I0925 19:23:48.310853 11544 net.cpp:157] Top shape: 32 64 1 1 (2048)
I0925 19:23:48.311852 11544 net.cpp:165] Memory required for data: 3111761728
I0925 19:23:48.311852 11544 layer_factory.hpp:77] Creating layer pool6_mbox_conf_2_relu
I0925 19:23:48.311852 11544 net.cpp:100] Creating Layer pool6_mbox_conf_2_relu
I0925 19:23:48.311852 11544 net.cpp:434] pool6_mbox_conf_2_relu <- pool6_mbox_conf_2
I0925 19:23:48.311852 11544 net.cpp:395] pool6_mbox_conf_2_relu -> pool6_mbox_conf_2 (in-place)
I0925 19:23:48.312852 11544 net.cpp:150] Setting up pool6_mbox_conf_2_relu
I0925 19:23:48.312852 11544 net.cpp:157] Top shape: 32 64 1 1 (2048)
I0925 19:23:48.312852 11544 net.cpp:165] Memory required for data: 3111769920
I0925 19:23:48.312852 11544 layer_factory.hpp:77] Creating layer pool6_mbox_conf_2_bn
I0925 19:23:48.313853 11544 net.cpp:100] Creating Layer pool6_mbox_conf_2_bn
I0925 19:23:48.313853 11544 net.cpp:434] pool6_mbox_conf_2_bn <- pool6_mbox_conf_2
I0925 19:23:48.313853 11544 net.cpp:395] pool6_mbox_conf_2_bn -> pool6_mbox_conf_2 (in-place)
I0925 19:23:48.314852 11544 net.cpp:150] Setting up pool6_mbox_conf_2_bn
I0925 19:23:48.314852 11544 net.cpp:157] Top shape: 32 64 1 1 (2048)
I0925 19:23:48.314852 11544 net.cpp:165] Memory required for data: 3111778112
I0925 19:23:48.314852 11544 layer_factory.hpp:77] Creating layer pool6_mbox_conf_3
I0925 19:23:48.314852 11544 net.cpp:100] Creating Layer pool6_mbox_conf_3
I0925 19:23:48.315852 11544 net.cpp:434] pool6_mbox_conf_3 <- pool6_mbox_conf_2
I0925 19:23:48.315852 11544 net.cpp:408] pool6_mbox_conf_3 -> pool6_mbox_conf_3
I0925 19:23:48.316853 11544 net.cpp:150] Setting up pool6_mbox_conf_3
I0925 19:23:48.317852 11544 net.cpp:157] Top shape: 32 12 1 1 (384)
I0925 19:23:48.317852 11544 net.cpp:165] Memory required for data: 3111779648
I0925 19:23:48.317852 11544 layer_factory.hpp:77] Creating layer pool6_mbox_conf_perm_1
I0925 19:23:48.317852 11544 net.cpp:100] Creating Layer pool6_mbox_conf_perm_1
I0925 19:23:48.317852 11544 net.cpp:434] pool6_mbox_conf_perm_1 <- pool6_mbox_conf_3
I0925 19:23:48.318853 11544 net.cpp:408] pool6_mbox_conf_perm_1 -> pool6_mbox_conf_perm_1
I0925 19:23:48.318853 11544 net.cpp:150] Setting up pool6_mbox_conf_perm_1
I0925 19:23:48.318853 11544 net.cpp:157] Top shape: 32 1 1 12 (384)
I0925 19:23:48.318853 11544 net.cpp:165] Memory required for data: 3111781184
I0925 19:23:48.319854 11544 layer_factory.hpp:77] Creating layer pool6_mbox_conf_flat_1
I0925 19:23:48.319854 11544 net.cpp:100] Creating Layer pool6_mbox_conf_flat_1
I0925 19:23:48.319854 11544 net.cpp:434] pool6_mbox_conf_flat_1 <- pool6_mbox_conf_perm_1
I0925 19:23:48.319854 11544 net.cpp:408] pool6_mbox_conf_flat_1 -> pool6_mbox_conf_flat_1
I0925 19:23:48.319854 11544 net.cpp:150] Setting up pool6_mbox_conf_flat_1
I0925 19:23:48.320853 11544 net.cpp:157] Top shape: 32 12 (384)
I0925 19:23:48.320853 11544 net.cpp:165] Memory required for data: 3111782720
I0925 19:23:48.320853 11544 layer_factory.hpp:77] Creating layer pool6_mbox_priorbox_1
I0925 19:23:48.320853 11544 net.cpp:100] Creating Layer pool6_mbox_priorbox_1
I0925 19:23:48.320853 11544 net.cpp:434] pool6_mbox_priorbox_1 <- pool6_pool6_0_split_2
I0925 19:23:48.321853 11544 net.cpp:434] pool6_mbox_priorbox_1 <- data_data_0_split_6
I0925 19:23:48.321853 11544 net.cpp:408] pool6_mbox_priorbox_1 -> pool6_mbox_priorbox_1
I0925 19:23:48.321853 11544 net.cpp:150] Setting up pool6_mbox_priorbox_1
I0925 19:23:48.321853 11544 net.cpp:157] Top shape: 1 2 24 (48)
I0925 19:23:48.322854 11544 net.cpp:165] Memory required for data: 3111782912
I0925 19:23:48.322854 11544 layer_factory.hpp:77] Creating layer mbox_loc_1
I0925 19:23:48.322854 11544 net.cpp:100] Creating Layer mbox_loc_1
I0925 19:23:48.322854 11544 net.cpp:434] mbox_loc_1 <- conv4_3_norm_mbox_loc_flat_1
I0925 19:23:48.322854 11544 net.cpp:434] mbox_loc_1 <- fc7_mbox_loc_flat_1
I0925 19:23:48.323853 11544 net.cpp:434] mbox_loc_1 <- conv6_2_mbox_loc_flat_1
I0925 19:23:48.323853 11544 net.cpp:434] mbox_loc_1 <- conv7_2_mbox_loc_flat_1
I0925 19:23:48.323853 11544 net.cpp:434] mbox_loc_1 <- conv8_2_mbox_loc_flat_1
I0925 19:23:48.323853 11544 net.cpp:434] mbox_loc_1 <- pool6_mbox_loc_flat_1
I0925 19:23:48.323853 11544 net.cpp:408] mbox_loc_1 -> mbox_loc_1
I0925 19:23:48.323853 11544 net.cpp:150] Setting up mbox_loc_1
I0925 19:23:48.324853 11544 net.cpp:157] Top shape: 32 49128 (1572096)
I0925 19:23:48.324853 11544 net.cpp:165] Memory required for data: 3118071296
I0925 19:23:48.324853 11544 layer_factory.hpp:77] Creating layer mbox_conf_1
I0925 19:23:48.324853 11544 net.cpp:100] Creating Layer mbox_conf_1
I0925 19:23:48.324853 11544 net.cpp:434] mbox_conf_1 <- conv4_3_norm_mbox_conf_flat_1
I0925 19:23:48.325853 11544 net.cpp:434] mbox_conf_1 <- fc7_mbox_conf_flat_1
I0925 19:23:48.325853 11544 net.cpp:434] mbox_conf_1 <- conv6_2_mbox_conf_flat_1
I0925 19:23:48.325853 11544 net.cpp:434] mbox_conf_1 <- conv7_2_mbox_conf_flat_1
I0925 19:23:48.325853 11544 net.cpp:434] mbox_conf_1 <- conv8_2_mbox_conf_flat_1
I0925 19:23:48.325853 11544 net.cpp:434] mbox_conf_1 <- pool6_mbox_conf_flat_1
I0925 19:23:48.326853 11544 net.cpp:408] mbox_conf_1 -> mbox_conf_1
I0925 19:23:48.326853 11544 net.cpp:150] Setting up mbox_conf_1
I0925 19:23:48.326853 11544 net.cpp:157] Top shape: 32 24564 (786048)
I0925 19:23:48.326853 11544 net.cpp:165] Memory required for data: 3121215488
I0925 19:23:48.326853 11544 layer_factory.hpp:77] Creating layer mbox_priorbox_1
I0925 19:23:48.327853 11544 net.cpp:100] Creating Layer mbox_priorbox_1
I0925 19:23:48.327853 11544 net.cpp:434] mbox_priorbox_1 <- conv4_3_norm_mbox_priorbox_1
I0925 19:23:48.327853 11544 net.cpp:434] mbox_priorbox_1 <- fc7_mbox_priorbox_1
I0925 19:23:48.327853 11544 net.cpp:434] mbox_priorbox_1 <- conv6_2_mbox_priorbox_1
I0925 19:23:48.327853 11544 net.cpp:434] mbox_priorbox_1 <- conv7_2_mbox_priorbox_1
I0925 19:23:48.328853 11544 net.cpp:434] mbox_priorbox_1 <- conv8_2_mbox_priorbox_1
I0925 19:23:48.328853 11544 net.cpp:434] mbox_priorbox_1 <- pool6_mbox_priorbox_1
I0925 19:23:48.328853 11544 net.cpp:408] mbox_priorbox_1 -> mbox_priorbox_1
I0925 19:23:48.328853 11544 net.cpp:150] Setting up mbox_priorbox_1
I0925 19:23:48.328853 11544 net.cpp:157] Top shape: 1 2 49128 (98256)
I0925 19:23:48.329854 11544 net.cpp:165] Memory required for data: 3121608512
I0925 19:23:48.329854 11544 layer_factory.hpp:77] Creating layer mbox_loss_1
I0925 19:23:48.329854 11544 net.cpp:100] Creating Layer mbox_loss_1
I0925 19:23:48.329854 11544 net.cpp:434] mbox_loss_1 <- mbox_loc_1
I0925 19:23:48.329854 11544 net.cpp:434] mbox_loss_1 <- mbox_conf_1
I0925 19:23:48.330853 11544 net.cpp:434] mbox_loss_1 <- mbox_priorbox_1
…
layer {
  name: "data"
  type: "AnnotatedData"
  top: "data"
  top: "label"
  include {
    phase: TEST
  }
  transform_param {
    mean_value: 104
    mean_value: 117
    mean_value: 123
    resize_param {
      prob: 1
      resize_mode: WARP
      height: 256
      width: 384
      interp_mode: LINEAR
    }
  }
  data_param {
    source: "M:/yhzheng/Pedestrian/Data_0825/val_lmdb"
    batch_size: 32
    backend: LMDB
  }
  annotated_data_param {
    batch_sampler {
    }
    label_map_file: "M:/yhzheng/Pedestrian/labelmap_VehicleFull.prototxt"
  }
}
layer {
  name: "conv1"
  type: "Convolution"
  bottom: "data"
  top: "conv1"
  convolution_param {
    num_output: 64
    pad: 1
    kernel_size: 3
    stride: 2
    weight_filler {
      type: "xavier"
    }
  }
}
layer {
  name: "relu_conv1"
  type: "ReLU"
  bottom: "conv1"
  top: "conv1"
}
layer {
  name: "pool1"
  type: "Pooling"
  bottom: "conv1"
  top: "pool1"
  pooling_param {
    pool: MAX
    kernel_size: 3
    stride: 2
  }
}
layer {
  name: "conv1_bn"
  type: "BatchNorm"
  bottom: "pool1"
  top: "pool1"
  include {
    phase: TEST
  }
  batch_norm_param {
    use_global_stats: true
    moving_average_fraction: 0.95
  }
}
layer {
  name: "fire2/squeeze1x1"
  type: "Convolution"
  bottom: "pool1"
  top: "fire2/squeeze1x1"
  convolution_param {
    num_output: 16
    kernel_size: 1
    weight_filler {
      type: "xavier"
    }
  }
}
layer {
  name: "fire2/relu_squeeze1x1"
  type: "ReLU"
  bottom: "fire2/squeeze1x1"
  top: "fire2/squeeze1x1"
}
layer {
  name: "fire2/expand1x1"
  type: "Convolution"
  bottom: "fire2/squeeze1x1"
  top: "fire2/expand1x1"
  convolution_param {
    num_output: 64
    kernel_size: 1
    weight_filler {
      type: "xavier"
    }
  }
}
layer {
  name: "fire2/relu_expand1x1"
  type: "ReLU"
  bottom: "fire2/expand1x1"
  top: "fire2/expand1x1"
}
layer {
  name: "fire2/expand3x3"
  type: "Convolution"
  bottom: "fire2/squeeze1x1"
  top: "fire2/expand3x3"
  convolution_param {
    num_output: 64
    pad: 1
    kernel_size: 3
    weight_filler {
      type: "xavier"
    }
  }
}
layer {
  name: "fire2/relu_expand3x3"
  type: "ReLU"
  bottom: "fire2/expand3x3"
  top: "fire2/expand3x3"
}
layer {
  name: "fire2/concat"
  type: "Concat"
  bottom: "fire2/expand1x1"
  bottom: "fire2/expand3x3"
  top: "fire2/concat"
}
layer {
  name: "fire2/concat_bn"
  type: "BatchNorm"
  bottom: "fire2/concat"
  top: "fire2/concat"
  include {
    phase: TEST
  }
  batch_norm_param {
    use_global_stats: true
    moving_average_fraction: 0.95
  }
}
layer {
  name: "fire3/squeeze1x1"
  type: "Convolution"
  bottom: "fire2/concat"
  top: "fire3/squeeze1x1"
  convolution_param {
    num_output: 16
    kernel_size: 1
    weight_filler {
      type: "xavier"
    }
  }
}
layer {
  name: "fire3/relu_squeeze1x1"
  type: "ReLU"
  bottom: "fire3/squeeze1x1"
  top: "fire3/squeeze1x1"
}
layer {
  name: "fire3/expand1x1"
  type: "Convolution"
  bottom: "fire3/squeeze1x1"
  top: "fire3/expand1x1"
  convolution_param {
    num_output: 64
    kernel_size: 1
    weight_filler {
      type: "xavier"
    }
  }
}
layer {
  name: "fire3/relu_expand1x1"
  type: "ReLU"
  bottom: "fire3/expand1x1"
  top: "fire3/expand1x1"
}
layer {
  name: "fire3/expand3x3"
  type: "Convolution"
  bottom: "fire3/squeeze1x1"
  top: "fire3/expand3x3"
  convolution_param {
    num_output: 64
    pad: 1
    kernel_size: 3
    weight_filler {
      type: "xavier"
    }
  }
}
layer {
  name: "fire3/relu_expand3x3"
  type: "ReLU"
  bottom: "fire3/expand3x3"
  top: "fire3/expand3x3"
}
layer {
  name: "fire3/concat"
  type: "Concat"
  bottom: "fire3/expand1x1"
  bottom: "fire3/expand3x3"
  top: "fire3/concat"
}
layer {
  name: "pool3"
  type: "Pooling"
  bottom: "fire3/concat"
  top: "pool3"
  pooling_param {
    pool: MAX
    kernel_size: 2
    stride: 2
  }
}
layer {
  name: "fire3/concat_bn"
  type: "BatchNorm"
  bottom: "pool3"
  top: "pool3"
  include {
    phase: TEST
  }
  batch_norm_param {
    use_global_stats: true
    moving_average_fraction: 0.95
  }
}
layer {
  name: "fire4/squeeze1x1"
  type: "Convolution"
  bottom: "pool3"
  top: "fire4/squeeze1x1"
  convolution_param {
    num_output: 32
    kernel_size: 1
    weight_filler {
      type: "xavier"
    }
  }
}
layer {
  name: "fire4/relu_squeeze1x1"
  type: "ReLU"
  bottom: "fire4/squeeze1x1"
  top: "fire4/squeeze1x1"
}
layer {
  name: "fire4/expand1x1"
  type: "Convolution"
  bottom: "fire4/squeeze1x1"
  top: "fire4/expand1x1"
  convolution_param {
    num_output: 128
    kernel_size: 1
    weight_filler {
      type: "xavier"
    }
  }
}
layer {
  name: "fire4/relu_expand1x1"
  type: "ReLU"
  bottom: "fire4/expand1x1"
  top: "fire4/expand1x1"
}
layer {
  name: "fire4/expand3x3"
  type: "Convolution"
  bottom: "fire4/squeeze1x1"
  top: "fire4/expand3x3"
  convolution_param {
    num_output: 128
    pad: 1
    kernel_size: 3
    weight_filler {
      type: "xavier"
    }
  }
}
layer {
  name: "fire4/relu_expand3x3"
  type: "ReLU"
  bottom: "fire4/expand3x3"
  top: "fire4/expand3x3"
}
layer {
  name: "fire4/concat"
  type: "Concat"
  bottom: "fire4/expand1x1"
  bottom: "fire4/expand3x3"
  top: "fire4/concat"
}
layer {
  name: "fire4/concat_bn"
  type: "BatchNorm"
  bottom: "fire4/concat"
  top: "fire4/concat"
  include {
    phase: TEST
  }
  batch_norm_param {
    use_global_stats: true
    moving_average_fraction: 0.95
  }
}
layer {
  name: "fire5/squeeze1x1"
  type: "Convolution"
  bottom: "fire4/concat"
  top: "fire5/squeeze1x1"
  convolution_param {
    num_output: 32
    kernel_size: 1
    weight_filler {
      type: "xavier"
    }
  }
}
layer {
  name: "fire5/relu_squeeze1x1"
  type: "ReLU"
  bottom: "fire5/squeeze1x1"
  top: "fire5/squeeze1x1"
}
layer {
  name: "fire5/expand1x1"
  type: "Convolution"
  bottom: "fire5/squeeze1x1"
  top: "fire5/expand1x1"
  convolution_param {
    num_output: 128
    kernel_size: 1
    weight_filler {
      type: "xavier"
    }
  }
}
layer {
  name: "fire5/relu_expand1x1"
  type: "ReLU"
  bottom: "fire5/expand1x1"
  top: "fire5/expand1x1"
}
layer {
  name: "fire5/expand3x3"
  type: "Convolution"
  bottom: "fire5/squeeze1x1"
  top: "fire5/expand3x3"
  convolution_param {
    num_output: 128
    pad: 1
    kernel_size: 3
    weight_filler {
      type: "xavier"
    }
  }
}
layer {
  name: "fire5/relu_expand3x3"
  type: "ReLU"
  bottom: "fire5/expand3x3"
  top: "fire5/expand3x3"
}
layer {
  name: "fire5/concat"
  type: "Concat"
  bottom: "fire5/expand1x1"
  bottom: "fire5/expand3x3"
  top: "fire5/concat"
}
layer {
  name: "pool5"
  type: "Pooling"
  bottom: "fire5/concat"
  top: "pool5"
  pooling_param {
    pool: MAX
    kernel_size: 2
    stride: 2
  }
}
layer {
  name: "fire5/concat_bn"
  type: "BatchNorm"
  bottom: "pool5"
  top: "pool5"
  include {
    phase: TEST
  }
  batch_norm_param {
    use_global_stats: true
    moving_average_fraction: 0.95
  }
}
layer {
  name: "fire6/squeeze1x1"
  type: "Convolution"
  bottom: "pool5"
  top: "fire6/squeeze1x1"
  convolution_param {
    num_output: 48
    kernel_size: 1
    weight_filler {
      type: "xavier"
    }
  }
}
layer {
  name: "fire6/relu_squeeze1x1"
  type: "ReLU"
  bottom: "fire6/squeeze1x1"
  top: "fire6/squeeze1x1"
}
layer {
  name: "fire6/expand1x1"
  type: "Convolution"
  bottom: "fire6/squeeze1x1"
  top: "fire6/expand1x1"
  convolution_param {
    num_output: 192
    kernel_size: 1
    weight_filler {
      type: "xavier"
    }
  }
}
layer {
  name: "fire6/relu_expand1x1"
  type: "ReLU"
  bottom: "fire6/expand1x1"
  top: "fire6/expand1x1"
}
layer {
  name: "fire6/expand3x3"
  type: "Convolution"
  bottom: "fire6/squeeze1x1"
  top: "fire6/expand3x3"
  convolution_param {
    num_output: 192
    pad: 1
    kernel_size: 3
    weight_filler {
      type: "xavier"
    }
  }
}
layer {
  name: "fire6/relu_expand3x3"
  type: "ReLU"
  bottom: "fire6/expand3x3"
  top: "fire6/expand3x3"
}
layer {
  name: "fire6/concat"
  type: "Concat"
  bottom: "fire6/expand1x1"
  bottom: "fire6/expand3x3"
  top: "fire6/concat"
}
layer {
  name: "fire6/concat_bn"
  type: "BatchNorm"
  bottom: "fire6/concat"
  top: "fire6/concat"
  include {
    phase: TEST
  }
  batch_norm_param {
    use_global_stats: true
    moving_average_fraction: 0.95
  }
}
layer {
  name: "fire7/squeeze1x1"
…
I0925 19:23:48.938889 11544 net.cpp:157] Top shape: 32 64 32 48 (3145728)
I0925 19:23:48.938889 11544 net.cpp:165] Memory required for data: 3046965376
I0925 19:23:48.938889 11544 layer_factory.hpp:77] Creating layer conv4_3_norm_mbox_conf_2_relu
I0925 19:23:48.938889 11544 net.cpp:100] Creating Layer conv4_3_norm_mbox_conf_2_relu
I0925 19:23:48.939888 11544 net.cpp:434] conv4_3_norm_mbox_conf_2_relu <- conv4_3_norm_mbox_conf_2
I0925 19:23:48.939888 11544 net.cpp:395] conv4_3_norm_mbox_conf_2_relu -> conv4_3_norm_mbox_conf_2 (in-place)
I0925 19:23:48.940888 11544 net.cpp:150] Setting up conv4_3_norm_mbox_conf_2_relu
I0925 19:23:48.940888 11544 net.cpp:157] Top shape: 32 64 32 48 (3145728)
I0925 19:23:48.940888 11544 net.cpp:165] Memory required for data: 3059548288
I0925 19:23:48.940888 11544 layer_factory.hpp:77] Creating layer conv4_3_norm_mbox_conf_2_bn
I0925 19:23:48.940888 11544 net.cpp:100] Creating Layer conv4_3_norm_mbox_conf_2_bn
I0925 19:23:48.941889 11544 net.cpp:434] conv4_3_norm_mbox_conf_2_bn <- conv4_3_norm_mbox_conf_2
I0925 19:23:48.941889 11544 net.cpp:395] conv4_3_norm_mbox_conf_2_bn -> conv4_3_norm_mbox_conf_2 (in-place)
I0925 19:23:48.941889 11544 net.cpp:150] Setting up conv4_3_norm_mbox_conf_2_bn
I0925 19:23:48.941889 11544 net.cpp:157] Top shape: 32 64 32 48 (3145728)
I0925 19:23:48.942888 11544 net.cpp:165] Memory required for data: 3072131200
I0925 19:23:48.942888 11544 layer_factory.hpp:77] Creating layer conv4_3_norm_mbox_conf_3
I0925 19:23:48.942888 11544 net.cpp:100] Creating Layer conv4_3_norm_mbox_conf_3
I0925 19:23:48.942888 11544 net.cpp:434] conv4_3_norm_mbox_conf_3 <- conv4_3_norm_mbox_conf_2
I0925 19:23:48.943888 11544 net.cpp:408] conv4_3_norm_mbox_conf_3 -> conv4_3_norm_mbox_conf_3
I0925 19:23:48.944888 11544 net.cpp:150] Setting up conv4_3_norm_mbox_conf_3
I0925 19:23:48.944888 11544 net.cpp:157] Top shape: 32 12 32 48 (589824)
I0925 19:23:48.944888 11544 net.cpp:165] Memory required for data: 3074490496
I0925 19:23:48.945888 11544 layer_factory.hpp:77] Creating layer conv4_3_norm_mbox_conf_perm_1
I0925 19:23:48.945888 11544 net.cpp:100] Creating Layer conv4_3_norm_mbox_conf_perm_1
I0925 19:23:48.945888 11544 net.cpp:434] conv4_3_norm_mbox_conf_perm_1 <- conv4_3_norm_mbox_conf_3
I0925 19:23:48.945888 11544 net.cpp:408] conv4_3_norm_mbox_conf_perm_1 -> conv4_3_norm_mbox_conf_perm_1
I0925 19:23:48.946888 11544 net.cpp:150] Setting up conv4_3_norm_mbox_conf_perm_1
I0925 19:23:48.946888 11544 net.cpp:157] Top shape: 32 32 48 12 (589824)
I0925 19:23:48.946888 11544 net.cpp:165] Memory required for data: 3076849792
I0925 19:23:48.946888 11544 layer_factory.hpp:77] Creating layer conv4_3_norm_mbox_conf_flat_1
I0925 19:23:48.946888 11544 net.cpp:100] Creating Layer conv4_3_norm_mbox_conf_flat_1
I0925 19:23:48.947890 11544 net.cpp:434] conv4_3_norm_mbox_conf_flat_1 <- conv4_3_norm_mbox_conf_perm_1
I0925 19:23:48.947890 11544 net.cpp:408] conv4_3_norm_mbox_conf_flat_1 -> conv4_3_norm_mbox_conf_flat_1
I0925 19:23:48.947890 11544 net.cpp:150] Setting up conv4_3_norm_mbox_conf_flat_1
I0925 19:23:48.947890 11544 net.cpp:157] Top shape: 32 18432 (589824)
I0925 19:23:48.948889 11544 net.cpp:165] Memory required for data: 3079209088
I0925 19:23:48.948889 11544 layer_factory.hpp:77] Creating layer conv4_3_norm_mbox_priorbox_1
I0925 19:23:48.948889 11544 net.cpp:100] Creating Layer conv4_3_norm_mbox_priorbox_1
I0925 19:23:48.948889 11544 net.cpp:434] conv4_3_norm_mbox_priorbox_1 <- conv4_3_norm_1_conv4_3_norm_1_0_split_2
I0925 19:23:48.949889 11544 net.cpp:434] conv4_3_norm_mbox_priorbox_1 <- data_data_0_split_1
I0925 19:23:48.949889 11544 net.cpp:408] conv4_3_norm_mbox_priorbox_1 -> conv4_3_norm_mbox_priorbox_1
I0925 19:23:48.949889 11544 net.cpp:150] Setting up conv4_3_norm_mbox_priorbox_1
I0925 19:23:48.949889 11544 net.cpp:157] Top shape: 1 2 36864 (73728)
I0925 19:23:48.949889 11544 net.cpp:165] Memory required for data: 3079504000
I0925 19:23:48.950889 11544 layer_factory.hpp:77] Creating layer fc7_mbox_loc_1
I0925 19:23:48.950889 11544 net.cpp:100] Creating Layer fc7_mbox_loc_1
I0925 19:23:48.950889 11544 net.cpp:434] fc7_mbox_loc_1 <- fire9/concat_fire9/concat_bn_0_split_1
I0925 19:23:48.950889 11544 net.cpp:408] fc7_mbox_loc_1 -> fc7_mbox_loc_1
I0925 19:23:48.952889 11544 net.cpp:150] Setting up fc7_mbox_loc_1
I0925 19:23:48.953889 11544 net.cpp:157] Top shape: 32 24 16 24 (294912)
I0925 19:23:48.953889 11544 net.cpp:165] Memory required for data: 3080683648
I0925 19:23:48.953889 11544 layer_factory.hpp:77] Creating layer fc7_mbox_loc_perm_1
I0925 19:23:48.953889 11544 net.cpp:100] Creating Layer fc7_mbox_loc_perm_1
I0925 19:23:48.953889 11544 net.cpp:434] fc7_mbox_loc_perm_1 <- fc7_mbox_loc_1
I0925 19:23:48.953889 11544 net.cpp:408] fc7_mbox_loc_perm_1 -> fc7_mbox_loc_perm_1
I0925 19:23:48.954890 11544 net.cpp:150] Setting up fc7_mbox_loc_perm_1
I0925 19:23:48.954890 11544 net.cpp:157] Top shape: 32 16 24 24 (294912)
I0925 19:23:48.954890 11544 net.cpp:165] Memory required for data: 3081863296
I0925 19:23:48.954890 11544 layer_factory.hpp:77] Creating layer fc7_mbox_loc_flat_1
I0925 19:23:48.955889 11544 net.cpp:100] Creating Layer fc7_mbox_loc_flat_1
I0925 19:23:48.955889 11544 net.cpp:434] fc7_mbox_loc_flat_1 <- fc7_mbox_loc_perm_1
I0925 19:23:48.955889 11544 net.cpp:408] fc7_mbox_loc_flat_1 -> fc7_mbox_loc_flat_1
I0925 19:23:48.955889 11544 net.cpp:150] Setting up fc7_mbox_loc_flat_1
I0925 19:23:48.955889 11544 net.cpp:157] Top shape: 32 9216 (294912)
I0925 19:23:48.956889 11544 net.cpp:165] Memory required for data: 3083042944
I0925 19:23:48.956889 11544 layer_factory.hpp:77] Creating layer fc7_mbox_conf_0
I0925 19:23:48.956889 11544 net.cpp:100] Creating Layer fc7_mbox_conf_0
I0925 19:23:48.956889 11544 net.cpp:434] fc7_mbox_conf_0 <- fire9/concat_fire9/concat_bn_0_split_2
I0925 19:23:48.956889 11544 net.cpp:408] fc7_mbox_conf_0 -> fc7_mbox_conf_0
I0925 19:23:48.959889 11544 net.cpp:150] Setting up fc7_mbox_conf_0
I0925 19:23:48.959889 11544 net.cpp:157] Top shape: 32 64 16 24 (786432)
I0925 19:23:48.959889 11544 net.cpp:165] Memory required for data: 3086188672
I0925 19:23:48.959889 11544 layer_factory.hpp:77] Creating layer fc7_mbox_conf_0_relu
I0925 19:23:48.959889 11544 net.cpp:100] Creating Layer fc7_mbox_conf_0_relu
I0925 19:23:48.960889 11544 net.cpp:434] fc7_mbox_conf_0_relu <- fc7_mbox_conf_0
I0925 19:23:48.960889 11544 net.cpp:395] fc7_mbox_conf_0_relu -> fc7_mbox_conf_0 (in-place)
I0925 19:23:48.960889 11544 net.cpp:150] Setting up fc7_mbox_conf_0_relu
I0925 19:23:48.961889 11544 net.cpp:157] Top shape: 32 64 16 24 (786432)
I0925 19:23:48.961889 11544 net.cpp:165] Memory required for data: 3089334400
I0925 19:23:48.961889 11544 layer_factory.hpp:77] Creating layer fc7_mbox_conf_0_bn
I0925 19:23:48.961889 11544 net.cpp:100] Creating Layer fc7_mbox_conf_0_bn
I0925 19:23:48.961889 11544 net.cpp:434] fc7_mbox_conf_0_bn <- fc7_mbox_conf_0
I0925 19:23:48.962889 11544 net.cpp:395] fc7_mbox_conf_0_bn -> fc7_mbox_conf_0 (in-place)
I0925 19:23:48.962889 11544 net.cpp:150] Setting up fc7_mbox_conf_0_bn
I0925 19:23:48.962889 11544 net.cpp:157] Top shape: 32 64 16 24 (786432)
I0925 19:23:48.962889 11544 net.cpp:165] Memory required for data: 3092480128
I0925 19:23:48.963889 11544 layer_factory.hpp:77] Creating layer fc7_mbox_conf_2
I0925 19:23:48.963889 11544 net.cpp:100] Creating Layer fc7_mbox_conf_2
I0925 19:23:48.963889 11544 net.cpp:434] fc7_mbox_conf_2 <- fc7_mbox_conf_0
I0925 19:23:48.963889 11544 net.cpp:408] fc7_mbox_conf_2 -> fc7_mbox_conf_2
I0925 19:23:48.965890 11544 net.cpp:150] Setting up fc7_mbox_conf_2
I0925 19:23:48.965890 11544 net.cpp:157] Top shape: 32 64 16 24 (786432)
I0925 19:23:48.965890 11544 net.cpp:165] Memory required for data: 3095625856
I0925 19:23:48.965890 11544 layer_factory.hpp:77] Creating layer fc7_mbox_conf_2_relu
I0925 19:23:48.966891 11544 net.cpp:100] Creating Layer fc7_mbox_conf_2_relu
I0925 19:23:48.966891 11544 net.cpp:434] fc7_mbox_conf_2_relu <- fc7_mbox_conf_2
I0925 19:23:48.966891 11544 net.cpp:395] fc7_mbox_conf_2_relu -> fc7_mbox_conf_2 (in-place)
I0925 19:23:48.967890 11544 net.cpp:150] Setting up fc7_mbox_conf_2_relu
I0925 19:23:48.967890 11544 net.cpp:157] Top shape: 32 64 16 24 (786432)
I0925 19:23:48.967890 11544 net.cpp:165] Memory required for data: 3098771584
I0925 19:23:48.967890 11544 layer_factory.hpp:77] Creating layer fc7_mbox_conf_2_bn
I0925 19:23:48.967890 11544 net.cpp:100] Creating Layer fc7_mbox_conf_2_bn
I0925 19:23:48.968890 11544 net.cpp:434] fc7_mbox_conf_2_bn <- fc7_mbox_conf_2
I0925 19:23:48.968890 11544 net.cpp:395] fc7_mbox_conf_2_bn -> fc7_mbox_conf_2 (in-place)
I0925 19:23:48.968890 11544 net.cpp:150] Setting up fc7_mbox_conf_2_bn
I0925 19:23:48.969890 11544 net.cpp:157] Top shape: 32 64 16 24 (786432)
I0925 19:23:48.969890 11544 net.cpp:165] Memory required for data: 3101917312
I0925 19:23:48.969890 11544 layer_factory.hpp:77] Creating layer fc7_mbox_conf_3
I0925 19:23:48.969890 11544 net.cpp:100] Creating Layer fc7_mbox_conf_3
I0925 19:23:48.969890 11544 net.cpp:434] fc7_mbox_conf_3 <- fc7_mbox_conf_2
I0925 19:23:48.969890 11544 net.cpp:408] fc7_mbox_conf_3 -> fc7_mbox_conf_3
I0925 19:23:48.971890 11544 net.cpp:150] Setting up fc7_mbox_conf_3
I0925 19:23:48.971890 11544 net.cpp:157] Top shape: 32 12 16 24 (147456)
I0925 19:23:48.971890 11544 net.cpp:165] Memory required for data: 3102507136
I0925 19:23:48.971890 11544 layer_factory.hpp:77] Creating layer fc7_mbox_conf_perm_1
I0925 19:23:48.972890 11544 net.cpp:100] Creating Layer fc7_mbox_conf_perm_1
I0925 19:23:48.972890 11544 net.cpp:434] fc7_mbox_conf_perm_1 <- fc7_mbox_conf_3
I0925 19:23:48.972890 11544 net.cpp:408] fc7_mbox_conf_perm_1 -> fc7_mbox_conf_perm_1
I0925 19:23:48.972890 11544 net.cpp:150] Setting up fc7_mbox_conf_perm_1
I0925 19:23:48.973891 11544 net.cpp:157] Top shape: 32 16 24 12 (147456)
I0925 19:23:48.973891 11544 net.cpp:165] Memory required for data: 3103096960
I0925 19:23:48.973891 11544 layer_factory.hpp:77] Creating layer fc7_mbox_conf_flat_1
I0925 19:23:48.973891 11544 net.cpp:100] Creating Layer fc7_mbox_conf_flat_1
I0925 19:23:48.973891 11544 net.cpp:434] fc7_mbox_conf_flat_1 <- fc7_mbox_conf_perm_1
I0925 19:23:48.974890 11544 net.cpp:408] fc7_mbox_conf_flat_1 -> fc7_mbox_conf_flat_1
I0925 19:23:48.974890 11544 net.cpp:150] Setting up fc7_mbox_conf_flat_1
I0925 19:23:48.974890 11544 net.cpp:157] Top shape: 32 4608 (147456)
I0925 19:23:48.974890 11544 net.cpp:165] Memory required for data: 3103686784
I0925 19:23:48.974890 11544 layer_factory.hpp:77] Creating layer fc7_mbox_priorbox_1
I0925 19:23:48.975890 11544 net.cpp:100] Creating Layer fc7_mbox_priorbox_1
I0925 19:23:48.975890 11544 net.cpp:434] fc7_mbox_priorbox_1 <- fire9/concat_fire9/concat_bn_0_split_3
I0925 19:23:48.975890 11544 net.cpp:434] fc7_mbox_priorbox_1 <- data_data_0_split_2
I0925 19:23:48.975890 11544 net.cpp:408] fc7_mbox_priorbox_1 -> fc7_mbox_priorbox_1
I0925 19:23:48.976891 11544 net.cpp:150] Setting up fc7_mbox_priorbox_1
I0925 19:23:48.976891 11544 net.cpp:157] Top shape: 1 2 9216 (18432)
I0925 19:23:48.976891 11544 net.cpp:165] Memory required for data: 3103760512
I0925 19:23:48.976891 11544 layer_factory.hpp:77] Creating layer conv6_2_mbox_loc_1
I0925 19:23:48.976891 11544 net.cpp:100] Creating Layer conv6_2_mbox_loc_1
I0925 19:23:48.976891 11544 net.cpp:434] conv6_2_mbox_loc_1 <- conv6_2_conv6_2_bn_0_split_1
I0925 19:23:48.977890 11544 net.cpp:408] conv6_2_mbox_loc_1 -> conv6_2_mbox_loc_1
I0925 19:23:48.979890 11544 net.cpp:150] Setting up conv6_2_mbox_loc_1
I0925 19:23:48.979890 11544 net.cpp:157] Top shape: 32 24 8 12 (73728)
I0925 19:23:48.979890 11544 net.cpp:165] Memory required for data: 3104055424
I0925 19:23:48.980890 11544 layer_factory.hpp:77] Creating layer conv6_2_mbox_loc_perm_1
I0925 19:23:48.980890 11544 net.cpp:100] Creating Layer conv6_2_mbox_loc_perm_1
I0925 19:23:48.980890 11544 net.cpp:434] conv6_2_mbox_loc_perm_1 <- conv6_2_mbox_loc_1
I0925 19:23:48.980890 11544 net.cpp:408] conv6_2_mbox_loc_perm_1 -> conv6_2_mbox_loc_perm_1
I0925 19:23:48.981890 11544 net.cpp:150] Setting up conv6_2_mbox_loc_perm_1
I0925 19:23:48.981890 11544 net.cpp:157] Top shape: 32 8 12 24 (73728)
I0925 19:23:48.981890 11544 net.cpp:165] Memory required for data: 3104350336
I0925 19:23:48.981890 11544 layer_factory.hpp:77] Creating layer conv6_2_mbox_loc_flat_1
I0925 19:23:48.981890 11544 net.cpp:100] Creating Layer conv6_2_mbox_loc_flat_1
I0925 19:23:48.982892 11544 net.cpp:434] conv6_2_mbox_loc_flat_1 <- conv6_2_mbox_loc_perm_1
I0925 19:23:48.982892 11544 net.cpp:408] conv6_2_mbox_loc_flat_1 -> conv6_2_mbox_loc_flat_1
I0925 19:23:48.982892 11544 net.cpp:150] Setting up conv6_2_mbox_loc_flat_1
I0925 19:23:48.982892 11544 net.cpp:157] Top shape: 32 2304 (73728)
I0925 19:23:48.982892 11544 net.cpp:165] Memory required for data: 3104645248
I0925 19:23:48.983891 11544 layer_factory.hpp:77] Creating layer conv6_2_mbox_conf_0
I0925 19:23:48.983891 11544 net.cpp:100] Creating Layer conv6_2_mbox_conf_0
I0925 19:23:48.983891 11544 net.cpp:434] conv6_2_mbox_conf_0 <- conv6_2_conv6_2_bn_0_split_2
I0925 19:23:48.983891 11544 net.cpp:408] conv6_2_mbox_conf_0 -> conv6_2_mbox_conf_0
I0925 19:23:48.985891 11544 net.cpp:150] Setting up conv6_2_mbox_conf_0
I0925 19:23:48.985891 11544 net.cpp:157] Top shape: 32 64 8 12 (196608)
I0925 19:23:48.985891 11544 net.cpp:165] Memory required for data: 3105431680
I0925 19:23:48.985891 11544 layer_factory.hpp:77] Creating layer conv6_2_mbox_conf_0_relu
I0925 19:23:48.986891 11544 net.cpp:100] Creating Layer conv6_2_mbox_conf_0_relu
I0925 19:23:48.986891 11544 net.cpp:434] conv6_2_mbox_conf_0_relu <- conv6_2_mbox_conf_0
I0925 19:23:48.986891 11544 net.cpp:395] conv6_2_mbox_conf_0_relu -> conv6_2_mbox_conf_0 (in-place)
I0925 19:23:48.987891 11544 net.cpp:150] Setting up conv6_2_mbox_conf_0_relu
I0925 19:23:48.987891 11544 net.cpp:157] Top shape: 32 64 8 12 (196608)
I0925 19:23:48.987891 11544 net.cpp:165] Memory required for data: 3106218112
I0925 19:23:48.987891 11544 layer_factory.hpp:77] Creating layer conv6_2_mbox_conf_0_bn
I0925 19:23:48.987891 11544 net.cpp:100] Creating Layer conv6_2_mbox_conf_0_bn
I0925 19:23:48.988891 11544 net.cpp:434] conv6_2_mbox_conf_0_bn <- conv6_2_mbox_conf_0
I0925 19:23:48.988891 11544 net.cpp:395] conv6_2_mbox_conf_0_bn -> conv6_2_mbox_conf_0 (in-place)
I0925 19:23:48.988891 11544 net.cpp:150] Setting up conv6_2_mbox_conf_0_bn
I0925 19:23:48.988891 11544 net.cpp:157] Top shape: 32 64 8 12 (196608)
I0925 19:23:48.989892 11544 net.cpp:165] Memory required for data: 3107004544
I0925 19:23:48.989892 11544 layer_factory.hpp:77] Creating layer conv6_2_mbox_conf_2
I0925 19:23:48.989892 11544 net.cpp:100] Creating Layer conv6_2_mbox_conf_2
I0925 19:23:48.989892 11544 net.cpp:434] conv6_2_mbox_conf_2 <- conv6_2_mbox_conf_0
I0925 19:23:48.989892 11544 net.cpp:408] conv6_2_mbox_conf_2 -> conv6_2_mbox_conf_2
I0925 19:23:48.991891 11544 net.cpp:150] Setting up conv6_2_mbox_conf_2
I0925 19:23:48.992892 11544 net.cpp:157] Top shape: 32 64 8 12 (196608)
I0925 19:23:48.992892 11544 net.cpp:165] Memory required for data: 3107790976
I0925 19:23:48.992892 11544 layer_factory.hpp:77] Creating layer conv6_2_mbox_conf_2_relu
I0925 19:23:48.992892 11544 net.cpp:100] Creating Layer conv6_2_mbox_conf_2_relu
I0925 19:23:48.992892 11544 net.cpp:434] conv6_2_mbox_conf_2_relu <- conv6_2_mbox_conf_2
I0925 19:23:48.993891 11544 net.cpp:395] conv6_2_mbox_conf_2_relu -> conv6_2_mbox_conf_2 (in-place)
I0925 19:23:48.993891 11544 net.cpp:150] Setting up conv6_2_mbox_conf_2_relu
I0925 19:23:48.993891 11544 net.cpp:157] Top shape: 32 64 8 12 (196608)
I0925 19:23:48.994891 11544 net.cpp:165] Memory required for data: 3108577408
I0925 19:23:48.994891 11544 layer_factory.hpp:77] Creating layer conv6_2_mbox_conf_2_bn
I0925 19:23:48.994891 11544 net.cpp:100] Creating Layer conv6_2_mbox_conf_2_bn
I0925 19:23:48.994891 11544 net.cpp:434] conv6_2_mbox_conf_2_bn <- conv6_2_mbox_conf_2
I0925 19:23:48.994891 11544 net.cpp:395] conv6_2_mbox_conf_2_bn -> conv6_2_mbox_conf_2 (in-place)
I0925 19:23:48.995892 11544 net.cpp:150] Setting up conv6_2_mbox_conf_2_bn
I0925 19:23:48.995892 11544 net.cpp:157] Top shape: 32 64 8 12 (196608)
I0925 19:23:48.995892 11544 net.cpp:165] Memory required for data: 3109363840
I0925 19:23:48.995892 11544 layer_factory.hpp:77] Creating layer conv6_2_mbox_conf_3
I0925 19:23:48.996891 11544 net.cpp:100] Creating Layer conv6_2_mbox_conf_3
I0925 19:23:48.996891 11544 net.cpp:434] conv6_2_mbox_conf_3 <- conv6_2_mbox_conf_2
I0925 19:23:48.996891 11544 net.cpp:408] conv6_2_mbox_conf_3 -> conv6_2_mbox_conf_3
I0925 19:23:48.999891 11544 net.cpp:150] Setting up conv6_2_mbox_conf_3
I0925 19:23:48.999891 11544 net.cpp:157] Top shape: 32 12 8 12 (36864)
I0925 19:23:48.999891 11544 net.cpp:165] Memory required for data: 3109511296
I0925 19:23:48.999891 11544 layer_factory.hpp:77] Creating layer conv6_2_mbox_conf_perm_1
I0925 19:23:49.000892 11544 net.cpp:100] Creating Layer conv6_2_mbox_conf_perm_1
I0925 19:23:49.000892 11544 net.cpp:434] conv6_2_mbox_conf_perm_1 <- conv6_2_mbox_conf_3
I0925 19:23:49.000892 11544 net.cpp:408] conv6_2_mbox_conf_perm_1 -> conv6_2_mbox_conf_perm_1
I0925 19:23:49.000892 11544 net.cpp:150] Setting up conv6_2_mbox_conf_perm_1
I0925 19:23:49.001893 11544 net.cpp:157] Top shape: 32 8 12 12 (36864)
I0925 19:23:49.001893 11544 net.cpp:165] Memory required for data: 3109658752
I0925 19:23:49.001893 11544 layer_factory.hpp:77] Creating layer conv6_2_mbox_conf_flat_1
I0925 19:23:49.001893 11544 net.cpp:100] Creating Layer conv6_2_mbox_conf_flat_1
I0925 19:23:49.001893 11544 net.cpp:434] conv6_2_mbox_conf_flat_1 <- conv6_2_mbox_conf_perm_1
I0925 19:23:49.002892 11544 net.cpp:408] conv6_2_mbox_conf_flat_1 -> conv6_2_mbox_conf_flat_1
I0925 19:23:49.002892 11544 net.cpp:150] Setting up conv6_2_mbox_conf_flat_1
I0925 19:23:49.002892 11544 net.cpp:157] Top shape: 32 1152 (36864)
I0925 19:23:49.002892 11544 net.cpp:165] Memory required for data: 3109806208
I0925 19:23:49.002892 11544 layer_factory.hpp:77] Creating layer conv6_2_mbox_priorbox_1
I0925 19:23:49.003892 11544 net.cpp:100] Creating Layer conv6_2_mbox_priorbox_1
I0925 19:23:49.003892 11544 net.cpp:434] conv6_2_mbox_priorbox_1 <- conv6_2_conv6_2_bn_0_split_3
I0925 19:23:49.003892 11544 net.cpp:434] conv6_2_mbox_priorbox_1 <- data_data_0_split_3
I0925 19:23:49.003892 11544 net.cpp:408] conv6_2_mbox_priorbox_1 -> conv6_2_mbox_priorbox_1
I0925 19:23:49.004892 11544 net.cpp:150] Setting up conv6_2_mbox_priorbox_1
I0925 19:23:49.004892 11544 net.cpp:157] Top shape: 1 2 2304 (4608)
I0925 19:23:49.004892 11544 net.cpp:165] Memory required for data: 3109824640
I0925 19:23:49.004892 11544 layer_factory.hpp:77] Creating layer conv7_2_mbox_loc_1
I0925 19:23:49.004892 11544 net.cpp:100] Creating Layer conv7_2_mbox_loc_1
I0925 19:23:49.005892 11544 net.cpp:434] conv7_2_mbox_loc_1 <- conv7_2_conv7_2_bn_0_split_1
I0925 19:23:49.005892 11544 net.cpp:408] conv7_2_mbox_loc_1 -> conv7_2_mbox_loc_1
I0925 19:23:49.007892 11544 net.cpp:150] Setting up conv7_2_mbox_loc_1
I0925 19:23:49.007892 11544 net.cpp:157] Top shape: 32 24 4 6 (18432)
I0925 19:23:49.007892 11544 net.cpp:165] Memory required for data: 3109898368
I0925 19:23:49.008893 11544 layer_factory.hpp:77] Creating layer conv7_2_mbox_loc_perm_1
I0925 19:23:49.008893 11544 net.cpp:100] Creating Layer conv7_2_mbox_loc_perm_1
I0925 19:23:49.008893 11544 net.cpp:434] conv7_2_mbox_loc_perm_1 <- conv7_2_mbox_loc_1
I0925 19:23:49.008893 11544 net.cpp:408] conv7_2_mbox_loc_perm_1 -> conv7_2_mbox_loc_perm_1
I0925 19:23:49.009892 11544 net.cpp:150] Setting up conv7_2_mbox_loc_perm_1
I0925 19:23:49.009892 11544 net.cpp:157] Top shape: 32 4 6 24 (18432)
I0925 19:23:49.009892 11544 net.cpp:165] Memory required for data: 3109972096
I0925 19:23:49.009892 11544 layer_factory.hpp:77] Creating layer conv7_2_mbox_loc_flat_1
I0925 19:23:49.009892 11544 net.cpp:100] Creating Layer conv7_2_mbox_loc_flat_1
I0925 19:23:49.010892 11544 net.cpp:434] conv7_2_mbox_loc_flat_1 <- conv7_2_mbox_loc_perm_1
I0925 19:23:49.010892 11544 net.cpp:408] conv7_2_mbox_loc_flat_1 -> conv7_2_mbox_loc_flat_1
I0925 19:23:49.010892 11544 net.cpp:150] Setting up conv7_2_mbox_loc_flat_1
I0925 19:23:49.010892 11544 net.cpp:157] Top shape: 32 576 (18432)
I0925 19:23:49.010892 11544 net.cpp:165] Memory required for data: 3110045824
I0925 19:23:49.011893 11544 layer_factory.hpp:77] Creating layer conv7_2_mbox_conf_0
I0925 19:23:49.011893 11544 net.cpp:100] Creating Layer conv7_2_mbox_conf_0
I0925 19:23:49.011893 11544 net.cpp:434] conv7_2_mbox_conf_0 <- conv7_2_conv7_2_bn_0_split_2
I0925 19:23:49.011893 11544 net.cpp:408] conv7_2_mbox_conf_0 -> conv7_2_mbox_conf_0
I0925 19:23:49.013892 11544 net.cpp:150] Setting up conv7_2_mbox_conf_0
I0925 19:23:49.013892 11544 net.cpp:157] Top shape: 32 64 4 6 (49152)
I0925 19:23:49.013892 11544 net.cpp:165] Memory required for data: 3110242432
I0925 19:23:49.014892 11544 layer_factory.hpp:77] Creating layer conv7_2_mbox_conf_0_relu
I0925 19:23:49.014892 11544 net.cpp:100] Creating Layer conv7_2_mbox_conf_0_relu
I0925 19:23:49.014892 11544 net.cpp:434] conv7_2_mbox_conf_0_relu <- conv7_2_mbox_conf_0
I0925 19:23:49.014892 11544 net.cpp:395] conv7_2_mbox_conf_0_relu -> conv7_2_mbox_conf_0 (in-place)
I0925 19:23:49.015892 11544 net.cpp:150] Setting up conv7_2_mbox_conf_0_relu
I0925 19:23:49.015892 11544 net.cpp:157] Top shape: 32 64 4 6 (49152)
I0925 19:23:49.015892 11544 net.cpp:165] Memory required for data: 3110439040
I0925 19:23:49.015892 11544 layer_factory.hpp:77] Creating layer conv7_2_mbox_conf_0_bn
I0925 19:23:49.016892 11544 net.cpp:100] Creating Layer conv7_2_mbox_conf_0_bn
I0925 19:23:49.016892 11544 net.cpp:434] conv7_2_mbox_conf_0_bn <- conv7_2_mbox_conf_0
I0925 19:23:49.016892 11544 net.cpp:395] conv7_2_mbox_conf_0_bn -> conv7_2_mbox_conf_0 (in-place)
I0925 19:23:49.016892 11544 net.cpp:150] Setting up conv7_2_mbox_conf_0_bn
I0925 19:23:49.017894 11544 net.cpp:157] Top shape: 32 64 4 6 (49152)
I0925 19:23:49.017894 11544 net.cpp:165] Memory required for data: 3110635648
I0925 19:23:49.017894 11544 layer_factory.hpp:77] Creating layer conv7_2_mbox_conf_2
I0925 19:23:49.017894 11544 net.cpp:100] Creating Layer conv7_2_mbox_conf_2
I0925 19:23:49.017894 11544 net.cpp:434] conv7_2_mbox_conf_2 <- conv7_2_mbox_conf_0
I0925 19:23:49.018893 11544 net.cpp:408] conv7_2_mbox_conf_2 -> conv7_2_mbox_conf_2
I0925 19:23:49.020894 11544 net.cpp:150] Setting up conv7_2_mbox_conf_2
I0925 19:23:49.020894 11544 net.cpp:157] Top shape: 32 64 4 6 (49152)
I0925 19:23:49.020894 11544 net.cpp:165] Memory required for data: 3110832256
I0925 19:23:49.020894 11544 layer_factory.hpp:77] Creating layer conv7_2_mbox_conf_2_relu
I0925 19:23:49.021893 11544 net.cpp:100] Creating Layer conv7_2_mbox_conf_2_relu
I0925 19:23:49.021893 11544 net.cpp:434] conv7_2_mbox_conf_2_relu <- conv7_2_mbox_conf_2
I0925 19:23:49.021893 11544 net.cpp:395] conv7_2_mbox_conf_2_relu -> conv7_2_mbox_conf_2 (in-place)
I0925 19:23:49.022893 11544 net.cpp:150] Setting up conv7_2_mbox_conf_2_relu
I0925 19:23:49.022893 11544 net.cpp:157] Top shape: 32 64 4 6 (49152)
I0925 19:23:49.022893 11544 net.cpp:165] Memory required for data: 3111028864
I0925 19:23:49.022893 11544 layer_factory.hpp:77] Creating layer conv7_2_mbox_conf_2_bn
I0925 19:23:49.022893 11544 net.cpp:100] Creating Layer conv7_2_mbox_conf_2_bn
I0925 19:23:49.023893 11544 net.cpp:434] conv7_2_mbox_conf_2_bn <- conv7_2_mbox_conf_2
I0925 19:23:49.023893 11544 net.cpp:395] conv7_2_mbox_conf_2_bn -> conv7_2_mbox_conf_2 (in-place)
I0925 19:23:49.023893 11544 net.cpp:150] Setting up conv7_2_mbox_conf_2_bn
I0925 19:23:49.023893 11544 net.cpp:157] Top shape: 32 64 4 6 (49152)
I0925 19:23:49.024893 11544 net.cpp:165] Memory required for data: 3111225472
I0925 19:23:49.024893 11544 layer_factory.hpp:77] Creating layer conv7_2_mbox_conf_3
I0925 19:23:49.024893 11544 net.cpp:100] Creating Layer conv7_2_mbox_conf_3
I0925 19:23:49.024893 11544 net.cpp:434] conv7_2_mbox_conf_3 <- conv7_2_mbox_conf_2
I0925 19:23:49.024893 11544 net.cpp:408] conv7_2_mbox_conf_3 -> conv7_2_mbox_conf_3
I0925 19:23:49.026893 11544 net.cpp:150] Setting up conv7_2_mbox_conf_3
I0925 19:23:49.026893 11544 net.cpp:157] Top shape: 32 12 4 6 (9216)
I0925 19:23:49.026893 11544 net.cpp:165] Memory required for data: 3111262336
I0925 19:23:49.027894 11544 layer_factory.hpp:77] Creating layer conv7_2_mbox_conf_perm_1
I0925 19:23:49.027894 11544 net.cpp:100] Creating Layer conv7_2_mbox_conf_perm_1
I0925 19:23:49.027894 11544 net.cpp:434] conv7_2_mbox_conf_perm_1 <- conv7_2_mbox_conf_3
I0925 19:23:49.027894 11544 net.cpp:408] conv7_2_mbox_conf_perm_1 -> conv7_2_mbox_conf_perm_1
I0925 19:23:49.028893 11544 net.cpp:150] Setting up conv7_2_mbox_conf_perm_1
I0925 19:23:49.028893 11544 net.cpp:157] Top shape: 32 4 6 12 (9216)
I0925 19:23:49.028893 11544 net.cpp:165] Memory required for data: 3111299200
I0925 19:23:49.028893 11544 layer_factory.hpp:77] Creating layer conv7_2_mbox_conf_flat_1
I0925 19:23:49.028893 11544 net.cpp:100] Creating Layer conv7_2_mbox_conf_flat_1
I0925 19:23:49.029893 11544 net.cpp:434] conv7_2_mbox_conf_flat_1 <- conv7_2_mbox_conf_perm_1
I0925 19:23:49.029893 11544 net.cpp:408] conv7_2_mbox_conf_flat_1 -> conv7_2_mbox_conf_flat_1
I0925 19:23:49.029893 11544 net.cpp:150] Setting up conv7_2_mbox_conf_flat_1
I0925 19:23:49.029893 11544 net.cpp:157] Top shape: 32 288 (9216)
I0925 19:23:49.030894 11544 net.cpp:165] Memory required for data: 3111336064
I0925 19:23:49.030894 11544 layer_factory.hpp:77] Creating layer conv7_2_mbox_priorbox_1
I0925 19:23:49.030894 11544 net.cpp:100] Creating Layer conv7_2_mbox_priorbox_1
I0925 19:23:49.030894 11544 net.cpp:434] conv7_2_mbox_priorbox_1 <- conv7_2_conv7_2_bn_0_split_3
I0925 19:23:49.030894 11544 net.cpp:434] conv7_2_mbox_priorbox_1 <- data_data_0_split_4
I0925 19:23:49.031893 11544 net.cpp:408] conv7_2_mbox_priorbox_1 -> conv7_2_mbox_priorbox_1
I0925 19:23:49.031893 11544 net.cpp:150] Setting up conv7_2_mbox_priorbox_1
I0925 19:23:49.031893 11544 net.cpp:157] Top shape: 1 2 576 (1152)
I0925 19:23:49.031893 11544 net.cpp:165] Memory required for data: 3111340672
I0925 19:23:49.031893 11544 layer_factory.hpp:77] Creating layer conv8_2_mbox_loc_1
I0925 19:23:49.032893 11544 net.cpp:100] Creating Layer conv8_2_mbox_loc_1
I0925 19:23:49.032893 11544 net.cpp:434] conv8_2_mbox_loc_1 <- conv8_2_conv8_2_bn_0_split_1
I0925 19:23:49.032893 11544 net.cpp:408] conv8_2_mbox_loc_1 -> conv8_2_mbox_loc_1
I0925 19:23:49.035894 11544 net.cpp:150] Setting up conv8_2_mbox_loc_1
I0925 19:23:49.035894 11544 net.cpp:157] Top shape: 32 24 2 3 (4608)
I0925 19:23:49.035894 11544 net.cpp:165] Memory required for data: 3111359104
I0925 19:23:49.035894 11544 layer_factory.hpp:77] Creating layer conv8_2_mbox_loc_perm_1
I0925 19:23:49.035894 11544 net.cpp:100] Creating Layer conv8_2_mbox_loc_perm_1
I0925 19:23:49.036895 11544 net.cpp:434] conv8_2_mbox_loc_perm_1 <- conv8_2_mbox_loc_1
I0925 19:23:49.036895 11544 net.cpp:408] conv8_2_mbox_loc_perm_1 -> conv8_2_mbox_loc_perm_1
I0925 19:23:49.036895 11544 net.cpp:150] Setting up conv8_2_mbox_loc_perm_1
I0925 19:23:49.036895 11544 net.cpp:157] Top shape: 32 2 3 24 (4608)
I0925 19:23:49.036895 11544 net.cpp:165] Memory required for data: 3111377536
I0925 19:23:49.037894 11544 layer_factory.hpp:77] Creating layer conv8_2_mbox_loc_flat_1
I0925 19:23:49.037894 11544 net.cpp:100] Creating Layer conv8_2_mbox_loc_flat_1
I0925 19:23:49.037894 11544 net.cpp:434] conv8_2_mbox_loc_flat_1 <- conv8_2_mbox_loc_perm_1
I0925 19:23:49.037894 11544 net.cpp:408] conv8_2_mbox_loc_flat_1 -> conv8_2_mbox_loc_flat_1
I0925 19:23:49.038894 11544 net.cpp:150] Setting up conv8_2_mbox_loc_flat_1
I0925 19:23:49.038894 11544 net.cpp:157] Top shape: 32 144 (4608)
I0925 19:23:49.038894 11544 net.cpp:165] Memory required for data: 3111395968
I0925 19:23:49.038894 11544 layer_factory.hpp:77] Creating layer conv8_2_mbox_conf_0
I0925 19:23:49.038894 11544 net.cpp:100] Creating Layer conv8_2_mbox_conf_0
I0925 19:23:49.038894 11544 net.cpp:434] conv8_2_mbox_conf_0 <- conv8_2_conv8_2_bn_0_split_2
I0925 19:23:49.039894 11544 net.cpp:408] conv8_2_mbox_conf_0 -> conv8_2_mbox_conf_0
I0925 19:23:49.040894 11544 net.cpp:150] Setting up conv8_2_mbox_conf_0
I0925 19:23:49.040894 11544 net.cpp:157] Top shape: 32 64 2 3 (12288)
I0925 19:23:49.041894 11544 net.cpp:165] Memory required for data: 3111445120
I0925 19:23:49.041894 11544 layer_factory.hpp:77] Creating layer conv8_2_mbox_conf_0_relu
I0925 19:23:49.041894 11544 net.cpp:100] Creating Layer conv8_2_mbox_conf_0_relu
I0925 19:23:49.041894 11544 net.cpp:434] conv8_2_mbox_conf_0_relu <- conv8_2_mbox_conf_0
I0925 19:23:49.042894 11544 net.cpp:395] conv8_2_mbox_conf_0_relu -> conv8_2_mbox_conf_0 (in-place)
I0925 19:23:49.042894 11544 net.cpp:150] Setting up conv8_2_mbox_conf_0_relu
I0925 19:23:49.042894 11544 net.cpp:157] Top shape: 32 64 2 3 (12288)
I0925 19:23:49.043895 11544 net.cpp:165] Memory required for data: 3111494272
I0925 19:23:49.043895 11544 layer_factory.hpp:77] Creating layer conv8_2_mbox_conf_0_bn
I0925 19:23:49.043895 11544 net.cpp:100] Creating Layer conv8_2_mbox_conf_0_bn
I0925 19:23:49.043895 11544 net.cpp:434] conv8_2_mbox_conf_0_bn <- conv8_2_mbox_conf_0
I0925 19:23:49.043895 11544 net.cpp:395] conv8_2_mbox_conf_0_bn -> conv8_2_mbox_conf_0 (in-place)
I0925 19:23:49.044894 11544 net.cpp:150] Setting up conv8_2_mbox_conf_0_bn
I0925 19:23:49.044894 11544 net.cpp:157] Top shape: 32 64 2 3 (12288)
I0925 19:23:49.044894 11544 net.cpp:165] Memory required for data: 3111543424
I0925 19:23:49.044894 11544 layer_factory.hpp:77] Creating layer conv8_2_mbox_conf_2
I0925 19:23:49.045894 11544 net.cpp:100] Creating Layer conv8_2_mbox_conf_2
I0925 19:23:49.045894 11544 net.cpp:434] conv8_2_mbox_conf_2 <- conv8_2_mbox_conf_0
I0925 19:23:49.045894 11544 net.cpp:408] conv8_2_mbox_conf_2 -> conv8_2_mbox_conf_2
I0925 19:23:49.048894 11544 net.cpp:150] Setting up conv8_2_mbox_conf_2
I0925 19:23:49.049895 11544 net.cpp:157] Top shape: 32 64 2 3 (12288)
I0925 19:23:49.049895 11544 net.cpp:165] Memory required for data: 3111592576
I0925 19:23:49.049895 11544 layer_factory.hpp:77] Creating layer conv8_2_mbox_conf_2_relu
I0925 19:23:49.049895 11544 net.cpp:100] Creating Layer conv8_2_mbox_conf_2_relu
I0925 19:23:49.049895 11544 net.cpp:434] conv8_2_mbox_conf_2_relu <- conv8_2_mbox_conf_2
I0925 19:23:49.050894 11544 net.cpp:395] conv8_2_mbox_conf_2_relu -> conv8_2_mbox_conf_2 (in-place)
I0925 19:23:49.050894 11544 net.cpp:150] Setting up conv8_2_mbox_conf_2_relu
I0925 19:23:49.050894 11544 net.cpp:157] Top shape: 32 64 2 3 (12288)
I0925 19:23:49.051894 11544 net.cpp:165] Memory required for data: 3111641728
I0925 19:23:49.051894 11544 layer_factory.hpp:77] Creating layer conv8_2_mbox_conf_2_bn
I0925 19:23:49.051894 11544 net.cpp:100] Creating Layer conv8_2_mbox_conf_2_bn
I0925 19:23:49.051894 11544 net.cpp:434] conv8_2_mbox_conf_2_bn <- conv8_2_mbox_conf_2
I0925 19:23:49.051894 11544 net.cpp:395] conv8_2_mbox_conf_2_bn -> conv8_2_mbox_conf_2 (in-place)
I0925 19:23:49.052896 11544 net.cpp:150] Setting up conv8_2_mbox_conf_2_bn
I0925 19:23:49.052896 11544 net.cpp:157] Top shape: 32 64 2 3 (12288)
I0925 19:23:49.052896 11544 net.cpp:165] Memory required for data: 3111690880
I0925 19:23:49.052896 11544 layer_factory.hpp:77] Creating layer conv8_2_mbox_conf_3
I0925 19:23:49.053895 11544 net.cpp:100] Creating Layer conv8_2_mbox_conf_3
I0925 19:23:49.053895 11544 net.cpp:434] conv8_2_mbox_conf_3 <- conv8_2_mbox_conf_2
I0925 19:23:49.053895 11544 net.cpp:408] conv8_2_mbox_conf_3 -> conv8_2_mbox_conf_3
I0925 19:23:49.055896 11544 net.cpp:150] Setting up conv8_2_mbox_conf_3
I0925 19:23:49.055896 11544 net.cpp:157] Top shape: 32 12 2 3 (2304)
I0925 19:23:49.055896 11544 net.cpp:165] Memory required for data: 3111700096
I0925 19:23:49.055896 11544 layer_factory.hpp:77] Creating layer conv8_2_mbox_conf_perm_1
I0925 19:23:49.055896 11544 net.cpp:100] Creating Layer conv8_2_mbox_conf_perm_1
I0925 19:23:49.056895 11544 net.cpp:434] conv8_2_mbox_conf_perm_1 <- conv8_2_mbox_conf_3
I0925 19:23:49.056895 11544 net.cpp:408] conv8_2_mbox_conf_perm_1 -> conv8_2_mbox_conf_perm_1
I0925 19:23:49.056895 11544 net.cpp:150] Setting up conv8_2_mbox_conf_perm_1
I0925 19:23:49.056895 11544 net.cpp:157] Top shape: 32 2 3 12 (2304)
I0925 19:23:49.057895 11544 net.cpp:165] Memory required for data: 3111709312
I0925 19:23:49.057895 11544 layer_factory.hpp:77] Creating layer conv8_2_mbox_conf_flat_1
I0925 19:23:49.057895 11544 net.cpp:100] Creating Layer conv8_2_mbox_conf_flat_1
I0925 19:23:49.057895 11544 net.cpp:434] conv8_2_mbox_conf_flat_1 <- conv8_2_mbox_conf_perm_1
I0925 19:23:49.057895 11544 net.cpp:408] conv8_2_mbox_conf_flat_1 -> conv8_2_mbox_conf_flat_1
I0925 19:23:49.058895 11544 net.cpp:150] Setting up conv8_2_mbox_conf_flat_1
I0925 19:23:49.058895 11544 net.cpp:157] Top shape: 32 72 (2304)
I0925 19:23:49.058895 11544 net.cpp:165] Memory required for data: 3111718528
I0925 19:23:49.058895 11544 layer_factory.hpp:77] Creating layer conv8_2_mbox_priorbox_1
I0925 19:23:49.058895 11544 net.cpp:100] Creating Layer conv8_2_mbox_priorbox_1
I0925 19:23:49.059895 11544 net.cpp:434] conv8_2_mbox_priorbox_1 <- conv8_2_conv8_2_bn_0_split_3
I0925 19:23:49.059895 11544 net.cpp:434] conv8_2_mbox_priorbox_1 <- data_data_0_split_5
I0925 19:23:49.059895 11544 net.cpp:408] conv8_2_mbox_priorbox_1 -> conv8_2_mbox_priorbox_1
I0925 19:23:49.059895 11544 net.cpp:150] Setting up conv8_2_mbox_priorbox_1
I0925 19:23:49.060895 11544 net.cpp:157] Top shape: 1 2 144 (288)
I0925 19:23:49.060895 11544 net.cpp:165] Memory required for data: 3111719680
I0925 19:23:49.060895 11544 layer_factory.hpp:77] Creating layer pool6_mbox_loc_1
I0925 19:23:49.060895 11544 net.cpp:100] Creating Layer pool6_mbox_loc_1
I0925 19:23:49.060895 11544 net.cpp:434] pool6_mbox_loc_1 <- pool6_pool6_0_split_0
I0925 19:23:49.061895 11544 net.cpp:408] pool6_mbox_loc_1 -> pool6_mbox_loc_1
I0925 19:23:49.066895 11544 net.cpp:150] Setting up pool6_mbox_loc_1
I0925 19:23:49.067895 11544 net.cpp:157] Top shape: 32 24 1 1 (768)
I0925 19:23:49.067895 11544 net.cpp:165] Memory required for data: 3111722752
I0925 19:23:49.067895 11544 layer_factory.hpp:77] Creating layer pool6_mbox_loc_perm_1
I0925 19:23:49.067895 11544 net.cpp:100] Creating Layer pool6_mbox_loc_perm_1
I0925 19:23:49.067895 11544 net.cpp:434] pool6_mbox_loc_perm_1 <- pool6_mbox_loc_1
I0925 19:23:49.068895 11544 net.cpp:408] pool6_mbox_loc_perm_1 -> pool6_mbox_loc_perm_1
I0925 19:23:49.068895 11544 net.cpp:150] Setting up pool6_mbox_loc_perm_1
I0925 19:23:49.068895 11544 net.cpp:157] Top shape: 32 1 1 24 (768)
I0925 19:23:49.068895 11544 net.cpp:165] Memory required for data: 3111725824
I0925 19:23:49.068895 11544 layer_factory.hpp:77] Creating layer pool6_mbox_loc_flat_1
I0925 19:23:49.069895 11544 net.cpp:100] Creating Layer pool6_mbox_loc_flat_1
I0925 19:23:49.069895 11544 net.cpp:434] pool6_mbox_loc_flat_1 <- pool6_mbox_loc_perm_1
I0925 19:23:49.069895 11544 net.cpp:408] pool6_mbox_loc_flat_1 -> pool6_mbox_loc_flat_1
I0925 19:23:49.069895 11544 net.cpp:150] Setting up pool6_mbox_loc_flat_1
I0925 19:23:49.070896 11544 net.cpp:157] Top shape: 32 24 (768)
I0925 19:23:49.070896 11544 net.cpp:165] Memory required for data: 3111728896
I0925 19:23:49.070896 11544 layer_factory.hpp:77] Creating layer pool6_mbox_conf_0
I0925 19:23:49.070896 11544 net.cpp:100] Creating Layer pool6_mbox_conf_0
I0925 19:23:49.070896 11544 net.cpp:434] pool6_mbox_conf_0 <- pool6_pool6_0_split_1
I0925 19:23:49.071897 11544 net.cpp:408] pool6_mbox_conf_0 -> pool6_mbox_conf_0
I0925 19:23:49.072896 11544 net.cpp:150] Setting up pool6_mbox_conf_0
I0925 19:23:49.072896 11544 net.cpp:157] Top shape: 32 64 1 1 (2048)
I0925 19:23:49.073896 11544 net.cpp:165] Memory required for data: 3111737088
I0925 19:23:49.073896 11544 layer_factory.hpp:77] Creating layer pool6_mbox_conf_0_relu
I0925 19:23:49.073896 11544 net.cpp:100] Creating Layer pool6_mbox_conf_0_relu
I0925 19:23:49.073896 11544 net.cpp:434] pool6_mbox_conf_0_relu <- pool6_mbox_conf_0
I0925 19:23:49.073896 11544 net.cpp:395] pool6_mbox_conf_0_relu -> pool6_mbox_conf_0 (in-place)
I0925 19:23:49.074897 11544 net.cpp:150] Setting up pool6_mbox_conf_0_relu
I0925 19:23:49.074897 11544 net.cpp:157] Top shape: 32 64 1 1 (2048)
I0925 19:23:49.074897 11544 net.cpp:165] Memory required for data: 3111745280
I0925 19:23:49.074897 11544 layer_factory.hpp:77] Creating layer pool6_mbox_conf_0_bn
I0925 19:23:49.075896 11544 net.cpp:100] Creating Layer pool6_mbox_conf_0_bn
I0925 19:23:49.075896 11544 net.cpp:434] pool6_mbox_conf_0_bn <- pool6_mbox_conf_0
I0925 19:23:49.075896 11544 net.cpp:395] pool6_mbox_conf_0_bn -> pool6_mbox_conf_0 (in-place)
I0925 19:23:49.076896 11544 net.cpp:150] Setting up pool6_mbox_conf_0_bn
I0925 19:23:49.076896 11544 net.cpp:157] Top shape: 32 64 1 1 (2048)
I0925 19:23:49.076896 11544 net.cpp:165] Memory required for data: 3111753472
I0925 19:23:49.076896 11544 layer_factory.hpp:77] Creating layer pool6_mbox_conf_2
I0925 19:23:49.076896 11544 net.cpp:100] Creating Layer pool6_mbox_conf_2
I0925 19:23:49.077896 11544 net.cpp:434] pool6_mbox_conf_2 <- pool6_mbox_conf_0
I0925 19:23:49.077896 11544 net.cpp:408] pool6_mbox_conf_2 -> pool6_mbox_conf_2
I0925 19:23:49.078896 11544 net.cpp:150] Setting up pool6_mbox_conf_2
I0925 19:23:49.079896 11544 net.cpp:157] Top shape: 32 64 1 1 (2048)
I0925 19:23:49.079896 11544 net.cpp:165] Memory required for data: 3111761664
I0925 19:23:49.079896 11544 layer_factory.hpp:77] Creating layer pool6_mbox_conf_2_relu
I0925 19:23:49.079896 11544 net.cpp:100] Creating Layer pool6_mbox_conf_2_relu
I0925 19:23:49.079896 11544 net.cpp:434] pool6_mbox_conf_2_relu <- pool6_mbox_conf_2
I0925 19:23:49.080896 11544 net.cpp:395] pool6_mbox_conf_2_relu -> pool6_mbox_conf_2 (in-place)
I0925 19:23:49.080896 11544 net.cpp:150] Setting up pool6_mbox_conf_2_relu
I0925 19:23:49.080896 11544 net.cpp:157] Top shape: 32 64 1 1 (2048)
I0925 19:23:49.081897 11544 net.cpp:165] Memory required for data: 3111769856
I0925 19:23:49.081897 11544 layer_factory.hpp:77] Creating layer pool6_mbox_conf_2_bn
I0925 19:23:49.081897 11544 net.cpp:100] Creating Layer pool6_mbox_conf_2_bn
I0925 19:23:49.081897 11544 net.cpp:434] pool6_mbox_conf_2_bn <- pool6_mbox_conf_2
I0925 19:23:49.081897 11544 net.cpp:395] pool6_mbox_conf_2_bn -> pool6_mbox_conf_2 (in-place)
I0925 19:23:49.082896 11544 net.cpp:150] Setting up pool6_mbox_conf_2_bn
I0925 19:23:49.082896 11544 net.cpp:157] Top shape: 32 64 1 1 (2048)
I0925 19:23:49.082896 11544 net.cpp:165] Memory required for data: 3111778048
I0925 19:23:49.082896 11544 layer_factory.hpp:77] Creating layer pool6_mbox_conf_3
I0925 19:23:49.083896 11544 net.cpp:100] Creating Layer pool6_mbox_conf_3
I0925 19:23:49.083896 11544 net.cpp:434] pool6_mbox_conf_3 <- pool6_mbox_conf_2
I0925 19:23:49.083896 11544 net.cpp:408] pool6_mbox_conf_3 -> pool6_mbox_conf_3
I0925 19:23:49.085896 11544 net.cpp:150] Setting up pool6_mbox_conf_3
I0925 19:23:49.085896 11544 net.cpp:157] Top shape: 32 12 1 1 (384)
I0925 19:23:49.085896 11544 net.cpp:165] Memory required for data: 3111779584
I0925 19:23:49.085896 11544 layer_factory.hpp:77] Creating layer pool6_mbox_conf_perm_1
I0925 19:23:49.085896 11544 net.cpp:100] Creating Layer pool6_mbox_conf_perm_1
I0925 19:23:49.086896 11544 net.cpp:434] pool6_mbox_conf_perm_1 <- pool6_mbox_conf_3
I0925 19:23:49.086896 11544 net.cpp:408] pool6_mbox_conf_perm_1 -> pool6_mbox_conf_perm_1
I0925 19:23:49.086896 11544 net.cpp:150] Setting up pool6_mbox_conf_perm_1
I0925 19:23:49.086896 11544 net.cpp:157] Top shape: 32 1 1 12 (384)
I0925 19:23:49.086896 11544 net.cpp:165] Memory required for data: 3111781120
I0925 19:23:49.087898 11544 layer_factory.hpp:77] Creating layer pool6_mbox_conf_flat_1
I0925 19:23:49.087898 11544 net.cpp:100] Creating Layer pool6_mbox_conf_flat_1
I0925 19:23:49.087898 11544 net.cpp:434] pool6_mbox_conf_flat_1 <- pool6_mbox_conf_perm_1
I0925 19:23:49.087898 11544 net.cpp:408] pool6_mbox_conf_flat_1 -> pool6_mbox_conf_flat_1
I0925 19:23:49.088897 11544 net.cpp:150] Setting up pool6_mbox_conf_flat_1
I0925 19:23:49.088897 11544 net.cpp:157] Top shape: 32 12 (384)
I0925 19:23:49.088897 11544 net.cpp:165] Memory required for data: 3111782656
I0925 19:23:49.088897 11544 layer_factory.hpp:77] Creating layer pool6_mbox_priorbox_1
I0925 19:23:49.089897 11544 net.cpp:100] Creating Layer pool6_mbox_priorbox_1
I0925 19:23:49.089897 11544 net.cpp:434] pool6_mbox_priorbox_1 <- pool6_pool6_0_split_2
I0925 19:23:49.089897 11544 net.cpp:434] pool6_mbox_priorbox_1 <- data_data_0_split_6
I0925 19:23:49.089897 11544 net.cpp:408] pool6_mbox_priorbox_1 -> pool6_mbox_priorbox_1
I0925 19:23:49.090898 11544 net.cpp:150] Setting up pool6_mbox_priorbox_1
I0925 19:23:49.090898 11544 net.cpp:157] Top shape: 1 2 24 (48)
I0925 19:23:49.090898 11544 net.cpp:165] Memory required for data: 3111782848
I0925 19:23:49.090898 11544 layer_factory.hpp:77] Creating layer mbox_loc_1
I0925 19:23:49.090898 11544 net.cpp:100] Creating Layer mbox_loc_1
I0925 19:23:49.090898 11544 net.cpp:434] mbox_loc_1 <- conv4_3_norm_mbox_loc_flat_1
I0925 19:23:49.091897 11544 net.cpp:434] mbox_loc_1 <- fc7_mbox_loc_flat_1
I0925 19:23:49.091897 11544 net.cpp:434] mbox_loc_1 <- conv6_2_mbox_loc_flat_1
I0925 19:23:49.091897 11544 net.cpp:434] mbox_loc_1 <- conv7_2_mbox_loc_flat_1
I0925 19:23:49.091897 11544 net.cpp:434] mbox_loc_1 <- conv8_2_mbox_loc_flat_1
I0925 19:23:49.091897 11544 net.cpp:434] mbox_loc_1 <- pool6_mbox_loc_flat_1
I0925 19:23:49.091897 11544 net.cpp:408] mbox_loc_1 -> mbox_loc_1
I0925 19:23:49.092897 11544 net.cpp:150] Setting up mbox_loc_1
I0925 19:23:49.092897 11544 net.cpp:157] Top shape: 32 49128 (1572096)
I0925 19:23:49.092897 11544 net.cpp:165] Memory required for data: 3118071232
I0925 19:23:49.092897 11544 layer_factory.hpp:77] Creating layer mbox_loc_1_mbox_loc_1_0_split
I0925 19:23:49.092897 11544 net.cpp:100] Creating Layer mbox_loc_1_mbox_loc_1_0_split
I0925 19:23:49.093897 11544 net.cpp:434] mbox_loc_1_mbox_loc_1_0_split <- mbox_loc_1
I0925 19:23:49.093897 11544 net.cpp:408] mbox_loc_1_mbox_loc_1_0_split -> mbox_loc_1_mbox_loc_1_0_split_0
I0925 19:23:49.093897 11544 net.cpp:408] mbox_loc_1_mbox_loc_1_0_split -> mbox_loc_1_mbox_loc_1_0_split_1
I0925 19:23:49.093897 11544 net.cpp:150] Setting up mbox_loc_1_mbox_loc_1_0_split
I0925 19:23:49.094897 11544 net.cpp:157] Top shape: 32 49128 (1572096)
I0925 19:23:49.094897 11544 net.cpp:157] Top shape: 32 49128 (1572096)
I0925 19:23:49.094897 11544 net.cpp:165] Memory required for data: 3130648000
I0925 19:23:49.094897 11544 layer_factory.hpp:77] Creating layer mbox_conf_1
I0925 19:23:49.094897 11544 net.cpp:100] Creating Layer mbox_conf_1
I0925 19:23:49.095897 11544 net.cpp:434] mbox_conf_1 <- conv4_3_norm_mbox_conf_flat_1
I0925 19:23:49.095897 11544 net.cpp:434] mbox_conf_1 <- fc7_mbox_conf_flat_1
I0925 19:23:49.095897 11544 net.cpp:434] mbox_conf_1 <- conv6_2_mbox_conf_flat_1
I0925 19:23:49.095897 11544 net.cpp:434] mbox_conf_1 <- conv7_2_mbox_conf_flat_1
I0925 19:23:49.095897 11544 net.cpp:434] mbox_conf_1 <- conv8_2_mbox_conf_flat_1
I0925 19:23:49.096897 11544 net.cpp:434] mbox_conf_1 <- pool6_mbox_conf_flat_1
I0925 19:23:49.096897 11544 net.cpp:408] mbox_conf_1 -> mbox_conf_1
I0925 19:23:49.096897 11544 net.cpp:150] Setting up mbox_conf_1
I0925 19:23:49.096897 11544 net.cpp:157] Top shape: 32 24564 (786048)
I0925 19:23:49.096897 11544 net.cpp:165] Memory required for data: 3133792192
I0925 19:23:49.097898 11544 layer_factory.hpp:77] Creating layer mbox_conf_1_mbox_conf_1_0_split
I0925 19:23:49.097898 11544 net.cpp:100] Creating Layer mbox_conf_1_mbox_conf_1_0_split
I0925 19:23:49.097898 11544 net.cpp:434] mbox_conf_1_mbox_conf_1_0_split <- mbox_conf_1
I0925 19:23:49.097898 11544 net.cpp:408] mbox_conf_1_mbox_conf_1_0_split -> mbox_conf_1_mbox_conf_1_0_split_0
I0925 19:23:49.098897 11544 net.cpp:408] mbox_conf_1_mbox_conf_1_0_split -> mbox_conf_1_mbox_conf_1_0_split_1
I0925 19:23:49.098897 11544 net.cpp:150] Setting up mbox_conf_1_mbox_conf_1_0_split
I0925 19:23:49.098897 11544 net.cpp:157] Top shape: 32 24564 (786048)
I0925 19:23:49.098897 11544 net.cpp:157] Top shape: 32 24564 (786048)
I0925 19:23:49.098897 11544 net.cpp:165] Memory required for data: 3140080576
I0925 19:23:49.099897 11544 layer_factory.hpp:77] Creating layer mbox_priorbox_1
I0925 19:23:49.099897 11544 net.cpp:100] Creating Layer mbox_priorbox_1
I0925 19:23:49.099897 11544 net.cpp:434] mbox_priorbox_1 <- conv4_3_norm_mbox_priorbox_1
I0925 19:23:49.099897 11544 net.cpp:434] mbox_priorbox_1 <- fc7_mbox_priorbox_1
I0925 19:23:49.099897 11544 net.cpp:434] mbox_priorbox_1 <- conv6_2_mbox_priorbox_1
I0925 19:23:49.100898 11544 net.cpp:434] mbox_priorbox_1 <- conv7_2_mbox_priorbox_1
I0925 19:23:49.100898 11544 net.cpp:434] mbox_priorbox_1 <- conv8_2_mbox_priorbox_1
I0925 19:23:49.100898 11544 net.cpp:434] mbox_priorbox_1 <- pool6_mbox_priorbox_1
I0925 19:23:49.100898 11544 net.cpp:408] mbox_priorbox_1 -> mbox_priorbox_1
I0925 19:23:49.101897 11544 net.cpp:150] Setting up mbox_priorbox_1
I0925 19:23:49.101897 11544 net.cpp:157] Top shape: 1 2 49128 (98256)
I0925 19:23:49.101897 11544 net.cpp:165] Memory required for data: 3140473600
I0925 19:23:49.101897 11544 layer_factory.hpp:77] Creating layer mbox_priorbox_1_mbox_priorbox_1_0_split
I0925 19:23:49.101897 11544 net.cpp:100] Creating Layer mbox_priorbox_1_mbox_priorbox_1_0_split
I0925 19:23:49.102897 11544 net.cpp:434] mbox_priorbox_1_mbox_priorbox_1_0_split <- mbox_priorbox_1
I0925 19:23:49.102897 11544 net.cpp:408] mbox_priorbox_1_mbox_priorbox_1_0_split -> mbox_priorbox_1_mbox_priorbox_1_0_split_0
I0925 19:23:49.102897 11544 net.cpp:408] mbox_priorbox_1_mbox_priorbox_1_0_split -> mbox_priorbox_1_mbox_priorbox_1_0_split_1
I0925 19:23:49.102897 11544 net.cpp:150] Setting up mbox_priorbox_1_mbox_priorbox_1_0_split
I0925 19:23:49.103898 11544 net.cpp:157] Top shape: 1 2 49128 (98256)
I0925 19:23:49.103898 11544 net.cpp:157] Top shape: 1 2 49128 (98256)
I0925 19:23:49.103898 11544 net.cpp:165] Memory required for data: 3141259648
I0925 19:23:49.103898 11544 layer_factory.hpp:77] Creating layer mbox_loss_1
I0925 19:23:49.103898 11544 net.cpp:100] Creating Layer mbox_loss_1
I0925 19:23:49.104897 11544 net.cpp:434] mbox_loss_1 <- mbox_loc_1_mbox_loc_1_0_split_0
I0925 19:23:49.104897 11544 net.cpp:434] mbox_loss_1 <- mbox_conf_1_mbox_conf_1_0_split_0
…
I0925 19:23:49.108898 11544 net.cpp:434] silence <- mbox_loss_1
I0925 19:23:49.108898 11544 net.cpp:150] Setting up silence
I0925 19:23:49.108898 11544 net.cpp:165] Memory required for data: 3141259652
I0925 19:23:49.108898 11544 layer_factory.hpp:77] Creating layer mbox_conf_reshape_1
I0925 19:23:49.108898 11544 net.cpp:100] Creating Layer mbox_conf_reshape_1
I0925 19:23:49.109899 11544 net.cpp:434] mbox_conf_reshape_1 <- mbox_conf_1_mbox_conf_1_0_split_1
I0925 19:23:49.109899 11544 net.cpp:408] mbox_conf_reshape_1 -> mbox_conf_reshape_1
I0925 19:23:49.109899 11544 net.cpp:150] Setting up mbox_conf_reshape_1
I0925 19:23:49.109899 11544 net.cpp:157] Top shape: 32 12282 2 (786048)
I0925 19:23:49.109899 11544 net.cpp:165] Memory required for data: 3144403844
I0925 19:23:49.110898 11544 layer_factory.hpp:77] Creating layer mbox_conf_softmax_1
I0925 19:23:49.110898 11544 net.cpp:100] Creating Layer mbox_conf_softmax_1
I0925 19:23:49.110898 11544 net.cpp:434] mbox_conf_softmax_1 <- mbox_conf_reshape_1
I0925 19:23:49.110898 11544 net.cpp:408] mbox_conf_softmax_1 -> mbox_conf_softmax_1
I0925 19:23:49.111898 11544 net.cpp:150] Setting up mbox_conf_softmax_1
I0925 19:23:49.111898 11544 net.cpp:157] Top shape: 32 12282 2 (786048)
I0925 19:23:49.111898 11544 net.cpp:165] Memory required for data: 3147548036
I0925 19:23:49.111898 11544 layer_factory.hpp:77] Creating layer mbox_conf_flatten_1
I0925 19:23:49.112898 11544 net.cpp:100] Creating Layer mbox_conf_flatten_1
I0925 19:23:49.112898 11544 net.cpp:434] mbox_conf_flatten_1 <- mbox_conf_softmax_1
I0925 19:23:49.112898 11544 net.cpp:408] mbox_conf_flatten_1 -> mbox_conf_flatten_1
I0925 19:23:49.112898 11544 net.cpp:150] Setting up mbox_conf_flatten_1
I0925 19:23:49.113898 11544 net.cpp:157] Top shape: 32 24564 (786048)
I0925 19:23:49.113898 11544 net.cpp:165] Memory required for data: 3150692228
I0925 19:23:49.113898 11544 layer_factory.hpp:77] Creating layer detection_out
I0925 19:23:49.113898 11544 net.cpp:100] Creating Layer detection_out
I0925 19:23:49.113898 11544 net.cpp:434] detection_out <- mbox_loc_1_mbox_loc_1_0_split_1
I0925 19:23:49.113898 11544 net.cpp:434] detection_out <- mbox_conf_flatten_1
I0925 19:23:49.114898 11544 net.cpp:434] detection_out <- mbox_priorbox_1_mbox_priorbox_1_0_split_1
I0925 19:23:49.114898 11544 net.cpp:434] detection_out <- label_data_1_split_1
I0925 19:23:49.114898 11544 net.cpp:408] detection_out -> detection_out
I0925 19:23:49.114898 11544 net.cpp:150] Setting up detection_out
I0925 19:23:49.114898 11544 net.cpp:157] Top shape: 1 1 1 7 (7)
I0925 19:23:49.115898 11544 net.cpp:165] Memory required for data: 3150692256
I0925 19:23:49.115898 11544 layer_factory.hpp:77] Creating layer detection_eval
I0925 19:23:49.115898 11544 net.cpp:100] Creating Layer detection_eval
I0925 19:23:49.115898 11544 net.cpp:434] detection_eval <- detection_out
I0925 19:23:49.115898 11544 net.cpp:434] detection_eval <- label_data_1_split_2
I0925 19:23:49.115898 11544 net.cpp:408] detection_eval -> detection_eval
I0925 19:23:49.116899 11544 net.cpp:150] Setting up detection_eval
I0925 19:23:49.116899 11544 net.cpp:157] Top shape: 1 1 2 5 (10)
I0925 19:23:49.116899 11544 net.cpp:165] Memory required for data: 3150692296
I0925 19:23:49.116899 11544 net.cpp:228] detection_eval does not need backward computation.
I0925 19:23:49.117898 11544 net.cpp:228] detection_out does not need backward computation.
I0925 19:23:49.117898 11544 net.cpp:228] mbox_conf_flatten_1 does not need backward computation.
I0925 19:23:49.117898 11544 net.cpp:228] mbox_conf_softmax_1 does not need backward computation.
…
