…
        min_scale: 0.3
        max_scale: 1
        min_aspect_ratio: 0.5
        max_aspect_ratio: 2
      }
      sample_constraint {
        min_jaccard_overlap: 0.9
      }
      max_sample: 1
      max_trials: 50
    }
    batch_sampler {
      sampler {
        min_scale: 0.3
        max_scale: 1
        min_aspect_ratio: 0.5
        max_aspect_ratio: 2
      }
      sample_constraint {
        max_jaccard_overlap: 1
      }
      max_sample: 1
      max_trials: 50
    }
    label_map_file: "E:/tyang/Pedestrian/labelmap_VehicleFull.prototxt"
  }
}
layer {
  name: "conv1"
  type: "Convolution"
  bottom: "data"
  top: "conv1"
  convolution_param {
    num_output: 64
    pad: 1
    kernel_size: 3
    stride: 2
    weight_filler {
      type: "xavier"
    }
  }
}
layer {
  name: "relu_conv1"
  type: "ReLU"
  bottom: "conv1"
  top: "conv1"
}
layer {
  name: "pool1"
  type: "Pooling"
  bottom: "conv1"
  top: "pool1"
  pooling_param {
    pool: MAX
    kernel_size: 3
    stride: 2
  }
}
layer {
  name: "conv1_bn"
  type: "BatchNorm"
  bottom: "pool1"
  top: "pool1"
  include {
    phase: TRAIN
  }
  batch_norm_param {
    use_global_stats: false
    moving_average_fraction: 0.95
  }
}
layer {
  name: "fire2/squeeze1x1"
  type: "Convolution"
  bottom: "pool1"
  top: "fire2/squeeze1x1"
  convolution_param {
    num_output: 16
    kernel_size: 1
    weight_filler {
      type: "xavier"
    }
  }
}
layer {
  name: "fire2/relu_squeeze1x1"
  type: "ReLU"
  bottom: "fire2/squeeze1x1"
  top: "fire2/squeeze1x1"
}
layer {
  name: "fire2/expand1x1"
  type: "Convolution"
  bottom: "fire2/squeeze1x1"
  top: "fire2/expand1x1"
  convolution_param {
    num_output: 64
    kernel_size: 1
    weight_filler {
      type: "xavier"
    }
  }
}
layer {
  name: "fire2/relu_expand1x1"
  type: "ReLU"
  bottom: "fire2/expand1x1"
  top: "fire2/expand1x1"
}
layer {
  name: "fire2/expand3x3"
  type: "Convolution"
  bottom: "fire2/squeeze1x1"
  top: "fire2/expand3x3"
  convolution_param {
    num_output: 64
    pad: 1
    kernel_size: 3
    weight_filler {
      type: "xavier"
    }
  }
}
layer {
  name: "fire2/relu_expand3x3"
  type: "ReLU"
  bottom: "fire2/expand3x3"
  top: "fire2/expand3x3"
}
layer {
  name: "fire2/concat"
  type: "Concat"
  bottom: "fire2/expand1x1"
  bottom: "fire2/expand3x3"
  top: "fire2/concat"
}
layer {
  name: "fire2/concat_bn"
  type: "BatchNorm"
  bottom: "fire2/concat"
  top: "fire2/concat"
  include {
    phase: TRAIN
  }
  batch_norm_param {
    use_global_stats: false
    moving_average_fraction: 0.95
  }
}
layer {
  name: "fire3/squeeze1x1"
  type: "Convolution"
  bottom: "fire2/concat"
  top: "fire3/squeeze1x1"
  convolution_param {
    num_output: 16
    kernel_size: 1
    weight_filler {
      type: "xavier"
    }
  }
}
layer {
  name: "fire3/relu_squeeze1x1"
  type: "ReLU"
  bottom: "fire3/squeeze1x1"
  top: "fire3/squeeze1x1"
}
layer {
  name: "fire3/expand1x1"
  type: "Convolution"
  bottom: "fire3/squeeze1x1"
  top: "fire3/expand1x1"
  convolution_param {
    num_output: 64
    kernel_size: 1
    weight_filler {
      type: "xavier"
    }
  }
}
layer {
  name: "fire3/relu_expand1x1"
  type: "ReLU"
  bottom: "fire3/expand1x1"
  top: "fire3/expand1x1"
}
layer {
  name: "fire3/expand3x3"
  type: "Convolution"
  bottom: "fire3/squeeze1x1"
  top: "fire3/expand3x3"
  convolution_param {
    num_output: 64
    pad: 1
    kernel_size: 3
    weight_filler {
      type: "xavier"
    }
  }
}
layer {
  name: "fire3/relu_expand3x3"
  type: "ReLU"
  bottom: "fire3/expand3x3"
  top: "fire3/expand3x3"
}
layer {
  name: "fire3/concat"
  type: "Concat"
  bottom: "fire3/expand1x1"
  bottom: "fire3/expand3x3"
  top: "fire3/concat"
}
layer {
  name: "pool3"
  type: "Pooling"
  bottom: "fire3/concat"
  top: "pool3"
  pooling_param {
    pool: MAX
    kernel_size: 2
    stride: 2
  }
}
layer {
  name: "fire3/concat_bn"
  type: "BatchNorm"
  bottom: "pool3"
  top: "pool3"
  include {
    phase: TRAIN
  }
  batch_norm_param {
    use_global_stats: false
    moving_average_fraction: 0.95
  }
}
layer {
  name: "fire4/squeeze1x1"
  type: "Convolution"
  bottom: "pool3"
  top: "fire4/squeeze1x1"
  convolution_param {
    num_output: 32
    kernel_size: 1
    weight_filler {
      type: "xavier"
    }
  }
}
layer {
  name: "fire4/relu_squeeze1x1"
  type: "ReLU"
  bottom: "fire4/squeeze1x1"
  top: "fire4/squeeze1x1"
}
layer {
  name: "fire4/expand1x1"
  type: "Convolution"
  bottom: "fire4/squeeze1x1"
  top: "fire4/expand1x1"
  convolution_param {
    num_output: 128
    kernel_size: 1
    weight_filler {
      type: "xavier"
    }
  }
}
layer {
  name: "fire4/relu_expand1x1"
  type: "ReLU"
  bottom: "fire4/expand1x1"
  top: "fire4/expand1x1"
}
layer {
  name: "fire4/expand3x3"
  type: "Convolution"
  bottom: "fire4/squeeze1x1"
  top: "fire4/expand3x3"
  convolution_param {
    num_output: 128
    pad: 1
    kernel_size: 3
    weight_filler {
      type: "xavier"
    }
  }
}
layer {
  name: "fire4/relu_expand3x3"
  type: "ReLU"
  bottom: "fire4/expand3x3"
  top: "fire4/expand3x3"
}
layer {
  name: "fire4/concat"
  type: "Concat"
  bottom: "fire4/expand1x1"
  bottom: "fire4/expand3x3"
  top: "fire4/concat"
}
layer {
  name: "fire4/concat_bn"
  type: "BatchNorm"
  bottom: "fire4/concat"
  top: "fire4/concat"
  include {
    phase: TRAIN
  }
  batch_norm_param {
    use_global_stats: false
    moving_average_fraction: 0.95
  }
}
layer {
  name: "fire5/squeeze1x1"
  type: "Convolution"
  bottom: "fire4/concat"
  top: "fire5/squeeze1x1"
  convolution_param {
    num_output: 32
    kernel_size: 1
    weight_filler {
      type: "xavier"
    }
  }
}
layer {
  name: "fire5/relu_squeeze1x1"
  type: "ReLU"
  bottom: "fire5/squeeze1x1"
  top: "fire5/squeeze1x1"
}
layer {
  name: "fire5/expand1x1"
  type: "Convolution"
  bottom: "fire5/squeeze1x1"
  top: "fire5/expand1x1"
  convolution_param {
    num_output: 128
    kernel_size: 1
    weight_filler {
      type: "xavier"
    }
  }
}
layer {
  name: "fire5/relu_expand1x1"
  type: "ReLU"
  bottom: "fire5/expand1x1"
  top: "fire5/expand1x1"
}
layer {
  name: "fire5/expand3x3"
  type: "Convolution"
  bottom: "fire5/squeeze1x1"
  top: "fire5/expand3x3"
  convolution_param {
    num_output: 128
    pad: 1
    kernel_size: 3
    weight_filler {
      type: "xavier"
    }
  }
}
layer {
  name: "fire5/relu_expand3x3"
  type: "ReLU"
  bottom: "fire5/expand3x3"
  top: "fire5/expand3x3"
}
layer {
  name: "fire5/concat"
  type: "Concat"
  bottom: "fire5/expand1x1"
  bottom: "fire5/expand3x3"
  top: "fire5/concat"
}
layer {
  name: "pool5"
  type: "Pooling"
  bottom: "fire5/concat"
  top: "pool5"
  pooling_param {
    pool: MAX
    kernel_size: 2
    stride: 2
  }
}
layer {
  name: "fire5/concat_bn"
  type: "BatchNorm"
  bottom: "pool5"
  top: "pool5"
  include {
    phase: TRAIN
  }
  batch_norm_param {
    use_global_stats: false
    moving_average_fraction: 0.95
  }
}
layer {
  name: "fire6/squeeze1x1"
  type: "Convolution"
  bottom: "pool5"
  top: "fire6/squeeze1x1"
  convolution_param {
    num_output: 48
    kernel_size: 1
    weight_filler {
      type: "xavier"
    }
  }
}
layer {
  name: "fire6/relu_squeeze1x1"
  type: "ReLU"
  bottom: "fire6/squeeze1x1"
  top: "fire6/squeeze1x1"
}
layer {
  name: "fire6/expand1x1"
  type: "Convolution"
  bottom: "fire6/squeeze1x1"
  top: "fire6/expand1x1"
  convolution_param {
    num_output: 192
    kernel_size: 1
    weight_filler {
      type: "xavier"
    }
  }
}
layer {
  name: "fire6/relu_expand1x1"
  type: "ReLU"
  bottom: "fire6/expand1x1"
  top: "fire6/expand1x1"
}
layer {
  name: "fire6/expand3x3"
  type: "Convolution"
  bottom: "fire6/squeeze1x1"
  top: "fire6/expand3x3"
  convolution_param {
    num_output: 192
    pad: 1
    kernel_size: 3
    weight_filler {
      type: "xavier"
    }
  }
}
layer {
  name: "fire6/relu_expand3x3"
  type: "ReLU"
  bottom: "fire6/expand3x3"
  top: "fire6/expand3x3"
}
layer {
  name: "fire6/concat"
  type: "Concat"
  bottom: "fire6/expand1x1"
  bottom: "fire6/expand3x3"
  top: "fire6/concat"
}
layer {
  name: "fire6/concat_bn"
  type: "BatchNorm"
  bottom: "fire6/concat"
  top: "fire6/concat"
  include {
    phase: TRAIN
  }
  batch_norm_param {
    use_global_stats: false
    moving_average_fraction: 0.95
  }
}
layer {
  name: "fire7/squeeze1x1"
  type: "Convolution"
  bottom: "fire6/concat"
  top: "fire7/squeeze1x1"
  convolution_param {
    num_output: 48
    kernel_size: 1
    weight_filler {
      type: "xavier"
    }
  }
}
layer {
  name: "fire7/relu_squeeze1x1"
  type: "ReLU"
  bottom: "fire7/squeeze1x1"
  top: "fire7/squeeze1x1"
}
layer {
  name: "fire7/expand1x1"
  type: "Convolution"
  bottom: "fire7/squeeze1x1"
  top: "fire7/expand1x1"
  convolution_param {
    num_output: 192
    kernel_size: 1
    weight_filler {
      type: "xavier"
    }
  }
}
layer {
  name: "fire7/relu_expand1x1"
  type: "ReLU"
  bottom: "fire7/expand1x1"
  top: "fire7/expand1x1"
}
layer {
  name: "fire7/expand3x3"
  type: "Convolution"
  bottom: "fire7/squeeze1x1"
  top: "fire7/expand3x3"
  convolution_param {
    num_output: 192
    pad: 1
    kernel_size: 3
    weight_filler {
      type: "xavier"
    }
  }
}
layer {
  name: "fire7/relu_expand3x3"
  type: "ReLU"
  bottom: "fire7/expand3x3"
  top: "fire7/expand3x3"
}
layer {
  name: "fire7/concat"
  type: "Concat"
  bottom: "fire7/expand1x1"
  bottom: "fire7/expand3x3"
  top: "fire7/concat"
}
layer {
  name: "fire7/concat_bn"
  type: "BatchNorm"
  bottom: "fire7/concat"
  top: "fire7/concat"
  include {
    phase: TRAIN
  }
  batch_norm_param {
    use_global_stats: false
    moving_average_fraction: 0.95
  }
}
layer {
  name: "fire8/squeeze1x1"
  type: "Convolution"
  bottom: "fire7/concat"
  top: "fire8/squeeze1x1"
  convolution_param {
    num_output: 64
    kernel_size: 1
    weight_filler {
      type: "xavier"
    }
  }
}
layer {
  name: "fire8/relu_squeeze1x1"
  type: "ReLU"
  bottom: "fire8/squeeze1x1"
  top: "fire8/squeeze1x1"
}
layer {
  name: "fire8/expand1x1"
  type: "Convolution"
  bottom: "fire8/squeeze1x1"
  top: "fire8/expand1x1"
  convolution_param {
    num_output: 256
    kernel_size: 1
    weight_filler {
      type: "xavier"
    }
  }
}
layer {
  name: "fire8/relu_expand1x1"
  type: "ReLU"
  bottom: "fire8/expand1x1"
  top: "fire8/expand1x1"
}
layer {
  name: "fire8/expand3x3"
  type: "Convolution"
  bottom: "fire8/squeeze1x1"
  top: "fire8/expand3x3"
  convolution_param {
    num_output: 256
    pad: 1
    kernel_size: 3
    weight_filler {
      type: "xavier"
    }
  }
}
layer {
  name: "fire8/relu_expand3x3"
  type: "ReLU"
  bottom: "fire8/expand3x3"
  top: "fire8/expand3x3"
}
layer {
  name: "fire8/concat"
  type: "Concat"
  bottom: "fire8/expand1x1"
  bottom: "fire8/expand3x3"
  top: "fire8/concat"
}
layer {
  name: "fire8/concat_bn"
  type: "BatchNorm"
  bottom: "fire8/concat"
  top: "fire8/concat"
  include {
    phase: TRAIN
  }
  batch_norm_param {
    use_global_stats: false
    moving_average_fraction: 0.95
  }
}
layer {
  name: "fire9/squeeze1x1"
  type: "Convolution"
  bottom: "fire8/concat"
  top: "fire9/squeeze1x1"
  convolution_param {
    num_output: 64
    kernel_size: 1
    weight_filler {
      type: "xavier"
    }
  }
}
layer {
  name: "fire9/relu_squeeze1x1"
  type: "ReLU"
  bottom: "fire9/squeeze1x1"
  top: "fire9/squeeze1x1"
}
layer {
  name: "fire9/expand1x1"
  type: "Convolution"
  bottom: "fire9/squeeze1x1"
  top: "fire9/expand1x1"
  convolution_param {
    num_output: 256
    kernel_size: 1
    weight_filler {
      type: "xavier"
    }
  }
}
layer {
  name: "fire9/relu_expand1x1"
  type: "ReLU"
  bottom: "fire9/expand1x1"
  top: "fire9/expand1x1"
}
layer {
  name: "fire9/expand3x3"
  type: "Convolution"
  bottom: "fire9/squeeze1x1"
  top: "fire9/expand3x3"
  convolution_param {
    num_output: 256
    pad: 1
    kernel_size: 3
    weight_filler {
      type: "xavier"
    }
  }
}
layer {
  name: "fire9/relu_expand3x3"
  type: "ReLU"
  bottom: "fire9/expand3x3"
  top: "fire9/expand3x3"
}
layer {
  name: "fire9/concat"
  type: "Concat"
  bottom: "fire9/expand1x1"
  bottom: "fire9/expand3x3"
  top: "fire9/concat"
}
layer {
  name: "fire9/concat_bn"
  type: "BatchNorm"
  bottom: "fire9/concat"
  top: "fire9/concat"
  include {
    phase: TRAIN
  }
  batch_norm_param {
    use_global_stats: false
    moving_average_fraction: 0.95
  }
}
layer {
  name: "conv6_1"
  type: "Convolution"
  bottom: "fire9/concat"
  top: "conv6_1"
  param {
    lr_mult: 1
    decay_mult: 1
  }
  param {
    lr_mult: 2
    decay_mult: 0
  }
  convolution_param {
    num_output: 256
    pad: 0
    kernel_size: 1
    stride: 1
    weight_filler {
      type: "xavier"
    }
    bias_filler {
      type: "constant"
      value: 0
    }
  }
}
layer {
  name: "conv6_1_relu"
  type: "ReLU"
  bottom: "conv6_1"
  top: "conv6_1"
}
layer {
  name: "conv6_1_bn"
  type: "BatchNorm"
  bottom: "conv6_1"
  top: "conv6_1"
  include {
    phase: TRAIN
  }
  batch_norm_param {
    use_global_stats: false
    moving_average_fraction: 0.95
  }
}
layer {
  name: "conv6_2"
  type: "Convolution"
  bottom: "conv6_1"
  top: "conv6_2"
  param {
    lr_mult: 1
    decay_mult: 1
  }
  param {
    lr_mult: 2
    decay_mult: 0
  }
  convolution_param {
    num_output: 512
    pad: 1
    kernel_size: 3
    stride: 2
    weight_filler {
      type: "xavier"
    }
    bias_filler {
      type: "constant"
      value: 0
    }
  }
}
layer {
  name: "conv6_2_relu"
  type: "ReLU"
  bottom: "conv6_2"
  top: "conv6_2"
}
layer {
  name: "conv6_2_bn"
  type: "BatchNorm"
  bottom: "conv6_2"
  top: "conv6_2"
  include {
    phase: TRAIN
  }
  batch_norm_param {
    use_global_stats: false
    moving_average_fraction: 0.95
  }
}
layer {
  name: "conv7_1"
  type: "Convolution"
  bottom: "conv6_2"
  top: "conv7_1"
  param {
    lr_mult: 1
    decay_mult: 1
  }
  param {
    lr_mult: 2
    decay_mult: 0
  }
  convolution_param {
    num_output: 128
    pad: 0
    kernel_size: 1
    stride: 1
    weight_filler {
      type: "xavier"
    }
    bias_filler {
      type: "constant"
      value: 0
    }
  }
}
layer {
  name: "conv7_1_relu"
  type: "ReLU"
  bottom: "conv7_1"
  top: "conv7_1"
}
layer {
  name: "conv7_1_bn"
  type: "BatchNorm"
  bottom: "conv7_1"
  top: "conv7_1"
  include {
    phase: TRAIN
  }
  batch_norm_param {
    use_global_stats: false
    moving_average_fraction: 0.95
  }
}
layer {
  name: "conv7_2"
  type: "Convolution"
  bottom: "conv7_1"
  top: "conv7_2"
  param {
    lr_mult: 1
    decay_mult: 1
  }
  param {
    lr_mult: 2
    decay_mult: 0
  }
  convolution_param {
    num_output: 256
    pad: 1
    kernel_size: 3
    stride: 2
    weight_filler {
      type: "xavier"
    }
    bias_filler {
      type: "constant"
      value: 0
    }
  }
}
layer {
  name: "conv7_2_relu"
  type: "ReLU"
  bottom: "conv7_2"
  top: "conv7_2"
}
layer {
  name: "conv7_2_bn"
  type: "BatchNorm"
  bottom: "conv7_2"
  top: "conv7_2"
  include {
    phase: TRAIN
  }
  batch_norm_param {
    use_global_stats: false
    moving_average_fraction: 0.95
  }
}
layer {
  name: "conv8_1"
  type: "Convolution"
  bottom: "conv7_2"
  top: "conv8_1"
  param {
    lr_mult: 1
    decay_mult: 1
  }
  param {
    lr_mult: 2
    decay_mult: 0
  }
  convolution_param {
    num_output: 128
    pad: 0
    kernel_size: 1
    stride: 1
    weight_filler {
      type: "xavier"
    }
    bias_filler {
      type: "constant"
      value: 0
    }
  }
}
layer {
  name: "conv8_1_relu"
  type: "ReLU"
  bottom: "conv8_1"
  top: "conv8_1"
}
layer {
  name: "conv8_1_bn"
  type: "BatchNorm"
  bottom: "conv8_1"
  top: "conv8_1"
  include {
    phase: TRAIN
  }
  batch_norm_param {
    use_global_stats: false
    moving_average_fraction: 0.95
  }
}
layer {
  name: "conv8_2"
  type: "Convolution"
  bottom: "conv8_1"
  top: "conv8_2"
  param {
    lr_mult: 1
    decay_mult: 1
  }
  param {
    lr_mult: 2
    decay_mult: 0
  }
  convolution_param {
    num_output: 256
    pad: 1
    kernel_size: 3
    stride: 2
    weight_filler {
      type: "xavier"
    }
    bias_filler {
      type: "constant"
      value: 0
    }
  }
}
layer {
  name: "conv8_2_relu"
  type: "ReLU"
  bottom: "conv8_2"
  top: "conv8_2"
}
layer {
  name: "conv8_2_bn"
  type: "BatchNorm"
  bottom: "conv8_2"
  top: "conv8_2"
  include {
    phase: TRAIN
  }
  batch_norm_param {
    use_global_stats: false
    moving_average_fraction: 0.95
  }
}
layer {
  name: "pool6"
  type: "Pooling"
  bottom: "conv8_2"
  top: "pool6"
  pooling_param {
    pool: AVE
    global_pooling: true
  }
}
layer {
  name: "conv4_3_norm_1"
  type: "Normalize"
  bottom: "fire5/concat"
  top: "conv4_3_norm_1"
  norm_param {
    across_spatial: false
    scale_filler {
      type: "constant"
      value: 20
    }
    channel_shared: false
  }
}
layer {
  name: "conv4_3_norm_mbox_loc_1"
  type: "Convolution"
  bottom: "conv4_3_norm_1"
  top: "conv4_3_norm_mbox_loc_1"
  param {
    lr_mult: 1
    decay_mult: 1
  }
  param {
    lr_mult: 2
    decay_mult: 0
  }
  convolution_param {
    num_output: 24
    pad: 1
    kernel_size: 3
    stride: 1
    weight_filler {
      type: "xavier"
    }
    bias_filler {
      type: "constant"
      value: 0
    }
  }
}
layer {
  name: "conv4_3_norm_mbox_loc_perm_1"
  type: "Permute"
  bottom: "conv4_3_norm_mbox_loc_1"
  top: "conv4_3_norm_mbox_loc_perm_1"
  permute_param {
    order: 0
    order: 2
    order: 3
    order: 1
  }
}
layer {
  name: "conv4_3_norm_mbox_loc_flat_1"
  type: "Flatten"
  bottom: "conv4_3_norm_mbox_loc_perm_1"
  top: "conv4_3_norm_mbox_loc_flat_1"
  flatten_param {
    axis: 1
  }
}
layer {
  name: "conv4_3_norm_mbox_conf_1"
  type: "Convolution"
  bottom: "conv4_3_norm_1"
  top: "conv4_3_norm_mbox_conf_1"
  param {
    lr_mult: 1
    decay_mult: 1
  }
  param {
    lr_mult: 2
    decay_mult: 0
  }
  convolution_param {
    num_output: 12
    pad: 1
    kernel_size: 3
    stride: 1
    weight_filler {
      type: "xavier"
    }
    bias_filler {
      type: "constant"
      value: 0
    }
  }
}
layer {
  name: "conv4_3_norm_mbox_conf_perm_1"
  type: "Permute"
  bottom: "conv4_3_norm_mbox_conf_1"
  top: "conv4_3_norm_mbox_conf_perm_1"
  permute_param {
    order: 0
    order: 2
    order: 3
    order: 1
  }
}
layer {
  name: "conv4_3_norm_mbox_conf_flat_1"
  type: "Flatten"
  bottom: "conv4_3_norm_mbox_conf_perm_1"
  top: "conv4_3_norm_mbox_conf_flat_1"
  flatten_param {
    axis: 1
  }
}
layer {
  name: "conv4_3_norm_mbox_priorbox_1"
  type: "PriorBox"
  bottom: "conv4_3_norm_1"
  bottom: "data"
  top: "conv4_3_norm_mbox_priorbox_1"
  prior_box_param {
    min_size: 25
    max_size: 51
    aspect_ratio: 0.25
    aspect_ratio: 0.5
    aspect_ratio: 0.75
    aspect_ratio: 1.25
    flip: false
    clip: true
    variance: 0.1
    variance: 0.1
    variance: 0.2
    variance: 0.2
  }
}
layer {
  name: "fc7_mbox_loc_1"
  type: "Convolution"
  bottom: "fire9/concat"
  top: "fc7_mbox_loc_1"
  param {
    lr_mult: 1
    decay_mult: 1
  }
  param {
    lr_mult: 2
    decay_mult: 0
  }
  convolution_param {
    num_output: 24
    pad: 1
    kernel_size: 3
    stride: 1
    weight_filler {
      type: "xavier"
    }
    bias_filler {
      type: "constant"
      value: 0
    }
  }
}
layer {
  name: "fc7_mbox_loc_perm_1"
  type: "Permute"
  bottom: "fc7_mbox_loc_1"
  top: "fc7_mbox_loc_perm_1"
  permute_param {
    order: 0
    order: 2
    order: 3
    order: 1
  }
}
layer {
  name: "fc7_mbox_loc_flat_1"
  type: "Flatten"
  bottom: "fc7_mbox_loc_perm_1"
  top: "fc7_mbox_loc_flat_1"
  flatten_param {
    axis: 1
  }
}
layer {
  name: "fc7_mbox_conf_1"
  type: "Convolution"
  bottom: "fire9/concat"
  top: "fc7_mbox_conf_1"
  param {
    lr_mult: 1
    decay_mult: 1
  }
  param {
    lr_mult: 2
    decay_mult: 0
  }
  convolution_param {
    num_output: 12
    pad: 1
    kernel_size: 3
    stride: 1
    weight_filler {
      type: "xavier"
    }
    bias_filler {
      type: "constant"
      value: 0
    }
  }
}
layer {
  name: "fc7_mbox_conf_perm_1"
  type: "Permute"
  bottom: "fc7_mbox_conf_1"
  top: "fc7_mbox_conf_perm_1"
  permute_param {
    order: 0
    order: 2
    order: 3
    order: 1
  }
}
layer {
  name: "fc7_mbox_conf_flat_1"
  type: "Flatten"
  bottom: "fc7_mbox_conf_perm_1"
  top: "fc7_mbox_conf_flat_1"
  flatten_param {
    axis: 1
  }
}
layer {
  name: "fc7_mbox_priorbox_1"
  type: "PriorBox"
  bottom: "fire9/concat"
  bottom: "data"
  top: "fc7_mbox_priorbox_1"
  prior_box_param {
    min_size: 51
    max_size: 97
    aspect_ratio: 0.25
    aspect_ratio: 0.5
    aspect_ratio: 0.75
    aspect_ratio: 1.25
    flip: false
    clip: true
    variance: 0.1
    variance: 0.1
    variance: 0.2
    variance: 0.2
  }
}
layer {
  name: "conv6_2_mbox_loc_1"
  type: "Convolution"
  bottom: "conv6_2"
  top: "conv6_2_mbox_loc_1"
  param {
    lr_mult: 1
    decay_mult: 1
  }
  param {
    lr_mult: 2
    decay_mult: 0
  }
  convolution_param {
    num_output: 24
    pad: 1
    kernel_size: 3
    stride: 1
    weight_filler {
      type: "xavier"
    }
    bias_filler {
      type: "constant"
      value: 0
    }
  }
}
layer {
  name: "conv6_2_mbox_loc_perm_1"
  type: "Permute"
  bottom: "conv6_2_mbox_loc_1"
  top: "conv6_2_mbox_loc_perm_1"
  permute_param {
    order: 0
    order: 2
    order: 3
    order: 1
  }
}
layer {
  name: "conv6_2_mbox_loc_flat_1"
  type: "Flatten"
  bottom: "conv6_2_mbox_loc_perm_1"
  top: "conv6_2_mbox_loc_flat_1"
  flatten_param {
    axis: 1
  }
}
layer {
  name: "conv6_2_mbox_conf_1"
  type: "Convolution"
  bottom: "conv6_2"
  top: "conv6_2_mbox_conf_1"
  param {
    lr_mult: 1
    decay_mult: 1
  }
  param {
    lr_mult: 2
    decay_mult: 0
  }
  convolution_param {
    num_output: 12
    pad: 1
    kernel_size: 3
    stride: 1
    weight_filler {
      type: "xavier"
    }
    bias_filler {
      type: "constant"
      value: 0
    }
  }
}
layer {
  name: "conv6_2_mbox_conf_perm_1"
  type: "Permute"
  bottom: "conv6_2_mbox_conf_1"
  top: "conv6_2_mbox_conf_perm_1"
  permute_param {
    order: 0
    order: 2
    order: 3
    order: 1
  }
}
layer {
  name: "conv6_2_mbox_conf_flat_1"
  type: "Flatten"
  bottom: "conv6_2_mbox_conf_perm_1"
  top: "conv6_2_mbox_conf_flat_1"
  flatten_param {
    axis: 1
  }
}
layer {
  name: "conv6_2_mbox_priorbox_1"
  type: "PriorBox"
  bottom: "conv6_2"
  bottom: "data"
  top: "conv6_2_mbox_priorbox_1"
  prior_box_param {
    min_size: 97
    max_size: 138
    aspect_ratio: 0.25
    aspect_ratio: 0.5
    aspect_ratio: 0.75
    aspect_ratio: 1.25
    flip: false
    clip: true
    variance: 0.1
    variance: 0.1
    variance: 0.2
    variance: 0.2
  }
}
layer {
  name: "conv7_2_mbox_loc_1"
  type: "Convolution"
  bottom: "conv7_2"
  top: "conv7_2_mbox_loc_1"
  param {
    lr_mult: 1
    decay_mult: 1
  }
  param {
    lr_mult: 2
    decay_mult: 0
  }
  convolution_param {
    num_output: 24
    pad: 1
    kernel_size: 3
    stride: 1
    weight_filler {
      type: "xavier"
    }
    bias_filler {
      type: "constant"
      value: 0
    }
  }
}
layer {
  name: "conv7_2_mbox_loc_perm_1"
  type: "Permute"
  bottom: "conv7_2_mbox_loc_1"
  top: "conv7_2_mbox_loc_perm_1"
  permute_param {
    order: 0
    order: 2
    order: 3
    order: 1
  }
}
layer {
  name: "conv7_2_mbox_loc_flat_1"
  type: "Flatten"
  bottom: "conv7_2_mbox_loc_perm_1"
  top: "conv7_2_mbox_loc_flat_1"
  flatten_param {
    axis: 1
  }
}
layer {
  name: "conv7_2_mbox_conf_1"
  type: "Convolution"
  bottom: "conv7_2"
  top: "conv7_2_mbox_conf_1"
  param {
    lr_mult: 1
    decay_mult: 1
  }
  param {
    lr_mult: 2
    decay_mult: 0
  }
  convolution_param {
    num_output: 12
    pad: 1
    kernel_size: 3
    stride: 1
    weight_filler {
      type: "xavier"
    }
    bias_filler {
      type: "constant"
      value: 0
    }
  }
}
layer {
  name: "conv7_2_mbox_conf_perm_1"
  type: "Permute"
  bottom: "conv7_2_mbox_conf_1"
  top: "conv7_2_mbox_conf_perm_1"
  permute_param {
    order: 0
    order: 2
    order: 3
    order: 1
  }
}
layer {
  name: "conv7_2_mbox_conf_flat_1"
  type: "Flatten"
  bottom: "conv7_2_mbox_conf_perm_1"
  top: "conv7_2_mbox_conf_flat_1"
  flatten_param {
    axis: 1
  }
}
layer {
  name: "conv7_2_mbox_priorbox_1"
  type: "PriorBox"
  bottom: "conv7_2"
  bottom: "data"
  top: "conv7_2_mbox_priorbox_1"
  prior_box_param {
    min_size: 138
    max_size: 184
    aspect_ratio: 0.25
    aspect_ratio: 0.5
    aspect_ratio: 0.75
    aspect_ratio: 1.25
    flip: false
    clip: true
    variance: 0.1
    variance: 0.1
    variance: 0.2
    variance: 0.2
  }
}
layer {
  name: "conv8_2_mbox_loc_1"
  type: "Convolution"
  bottom: "conv8_2"
  top: "conv8_2_mbox_loc_1"
  param {
    lr_mult: 1
    decay_mult: 1
  }
  param {
    lr_mult: 2
    decay_mult: 0
  }
  convolution_param {
    num_output: 24
    pad: 1
    kernel_size: 3
    stride: 1
    weight_filler {
      type: "xavier"
    }
    bias_filler {
      type: "constant"
      value: 0
    }
  }
}
layer {
  name: "conv8_2_mbox_loc_perm_1"
  type: "Permute"
  bottom: "conv8_2_mbox_loc_1"
  top: "conv8_2_mbox_loc_perm_1"
  permute_param {
    order: 0
    order: 2
    order: 3
    order: 1
  }
}
layer {
  name: "conv8_2_mbox_loc_flat_1"
  type: "Flatten"
  bottom: "conv8_2_mbox_loc_perm_1"
  top: "conv8_2_mbox_loc_flat_1"
  flatten_param {
    axis: 1
  }
}
layer {
  name: "conv8_2_mbox_conf_1"
  type: "Convolution"
  bottom: "conv8_2"
  top: "conv8_2_mbox_conf_1"
  param {
    lr_mult: 1
    decay_mult: 1
  }
  param {
    lr_mult: 2
    decay_mult: 0
  }
  convolution_param {
    num_output: 12
    pad: 1
    kernel_size: 3
    stride: 1
    weight_filler {
      type: "xavier"
    }
    bias_filler {
      type: "constant"
      value: 0
    }
  }
}
layer {
  name: "conv8_2_mbox_conf_perm_1"
  type: "Permute"
  bottom: "conv8_2_mbox_conf_1"
  top: "conv8_2_mbox_conf_perm_1"
  permute_param {
    order: 0
    order: 2
    order: 3
    order: 1
  }
}
layer {
  name: "conv8_2_mbox_conf_flat_1"
  type: "Flatten"
  bottom: "conv8_2_mbox_conf_perm_1"
  top: "conv8_2_mbox_conf_flat_1"
  flatten_param {
    axis: 1
  }
}
layer {
  name: "conv8_2_mbox_priorbox_1"
  type: "PriorBox"
  bottom: "conv8_2"
  bottom: "data"
  top: "conv8_2_mbox_priorbox_1"
  prior_box_param {
    min_size: 184
    max_size: 230
    aspect_ratio: 0.25
    aspect_ratio: 0.5
    aspect_ratio: 0.75
    aspect_ratio: 1.25
    flip: false
    clip: true
    variance: 0.1
    variance: 0.1
    variance: 0.2
    variance: 0.2
  }
}
layer {
  name: "pool6_mbox_loc_1"
  type: "Convolution"
  bottom: "pool6"
  top: "pool6_mbox_loc_1"
  param {
    lr_mult: 1
    decay_mult: 1
  }
  param {
    lr_mult: 2
    decay_mult: 0
  }
  convolution_param {
    num_output: 24
    pad: 1
    kernel_size: 3
    stride: 1
    weight_filler {
      type: "xavier"
    }
    bias_filler {
      type: "constant"
      value: 0
    }
  }
}
layer {
  name: "pool6_mbox_loc_perm_1"
  type: "Permute"
  bottom: "pool6_mbox_loc_1"
  top: "pool6_mbox_loc_perm_1"
  permute_param {
    order: 0
    order: 2
    order: 3
    order: 1
  }
}
layer {
  name: "pool6_mbox_loc_flat_1"
  type: "Flatten"
  bottom: "pool6_mbox_loc_perm_1"
  top: "pool6_mbox_loc_flat_1"
  flatten_param {
    axis: 1
  }
}
layer {
  name: "pool6_mbox_conf_1"
  type: "Convolution"
  bottom: "pool6"
  top: "pool6_mbox_conf_1"
  param {
    lr_mult: 1
    decay_mult: 1
  }
  param {
    lr_mult: 2
    decay_mult: 0
  }
  convolution_param {
    num_output: 12
    pad: 1
    kernel_size: 3
    stride: 1
    weight_filler {
      type: "xavier"
    }
    bias_filler {
      type: "constant"
      value: 0
    }
  }
}
layer {
  name: "pool6_mbox_conf_perm_1"
  type: "Permute"
  bottom: "pool6_mbox_conf_1"
  top: "pool6_mbox_conf_perm_1"
  permute_param {
    order: 0
    order: 2
    order: 3
    order: 1
  }
}
layer {
  name: "pool6_mbox_conf_flat_1"
  type: "Flatten"
  bottom: "pool6_mbox_conf_perm_1"
  top: "pool6_mbox_conf_flat_1"
  flatten_param {
    axis: 1
  }
}
layer {
  name: "pool6_mbox_priorbox_1"
  type: "PriorBox"
  bottom: "pool6"
  bottom: "data"
  top: "poo
I0801 23:20:03.518113  5612 layer_factory.hpp:77] Creating layer data
I0801 23:20:03.519114  5612 common.cpp:42] System entropy source not available, using fallback algor
ithm to generate seed instead.
I0801 23:20:03.519114  5612 net.cpp:100] Creating Layer data
I0801 23:20:03.519114  5612 net.cpp:408] data -> data
I0801 23:20:03.519114  5156 common.cpp:42] System entropy source not available, using fallback algor
ithm to generate seed instead.
I0801 23:20:03.519114  5612 net.cpp:408] data -> label
I0801 23:20:03.520113  5156 db_lmdb.cpp:51] Opened lmdb E:/tyang/Pedestrian/Data_0728/train_lmdb
I0801 23:20:03.545114  5612 annotated_data_layer.cpp:62] output data size: 32,3,256,384
I0801 23:20:03.733125  5612 net.cpp:150] Setting up data
I0801 23:20:03.733125  1708 common.cpp:42] System entropy source not available, using fallback algor
ithm to generate seed instead.
I0801 23:20:03.733125  5612 net.cpp:157] Top shape: 32 3 256 384 (9437184)
I0801 23:20:03.734125  5612 net.cpp:157] Top shape: 1 1 2 8 (16)
I0801 23:20:03.734125  5612 net.cpp:165] Memory required for data: 37748800
I0801 23:20:03.734125  5612 layer_factory.hpp:77] Creating layer data_data_0_split
I0801 23:20:03.734125  5612 net.cpp:100] Creating Layer data_data_0_split
I0801 23:20:03.734125  5612 net.cpp:434] data_data_0_split <- data
I0801 23:20:03.735126  5612 net.cpp:408] data_data_0_split -> data_data_0_split_0
I0801 23:20:03.735126  5612 net.cpp:408] data_data_0_split -> data_data_0_split_1
I0801 23:20:03.735126  5612 net.cpp:408] data_data_0_split -> data_data_0_split_2
I0801 23:20:03.735126  5612 net.cpp:408] data_data_0_split -> data_data_0_split_3
I0801 23:20:03.735126  5612 net.cpp:408] data_data_0_split -> data_data_0_split_4
I0801 23:20:03.736125  5612 net.cpp:408] data_data_0_split -> data_data_0_split_5
I0801 23:20:03.736125  5612 net.cpp:408] data_data_0_split -> data_data_0_split_6
I0801 23:20:03.741127  5612 net.cpp:150] Setting up data_data_0_split
I0801 23:20:03.741127  5612 net.cpp:157] Top shape: 32 3 256 384 (9437184)
I0801 23:20:03.741127  5612 net.cpp:157] Top shape: 32 3 256 384 (9437184)
I0801 23:20:03.742126  5612 net.cpp:157] Top shape: 32 3 256 384 (9437184)
I0801 23:20:03.742126  5612 net.cpp:157] Top shape: 32 3 256 384 (9437184)
I0801 23:20:03.742126  5612 net.cpp:157] Top shape: 32 3 256 384 (9437184)
I0801 23:20:03.742126  5612 net.cpp:157] Top shape: 32 3 256 384 (9437184)
I0801 23:20:03.742126  5612 net.cpp:157] Top shape: 32 3 256 384 (9437184)
I0801 23:20:03.743126  5612 net.cpp:165] Memory required for data: 301989952
I0801 23:20:03.743126  5612 layer_factory.hpp:77] Creating layer conv1
I0801 23:20:03.743126  5612 net.cpp:100] Creating Layer conv1
I0801 23:20:03.743126  5612 net.cpp:434] conv1 <- data_data_0_split_0
I0801 23:20:03.743126  5612 net.cpp:408] conv1 -> conv1
I0801 23:20:03.930136  5612 net.cpp:150] Setting up conv1
I0801 23:20:03.930136  5612 net.cpp:157] Top shape: 32 64 128 192 (50331648)
I0801 23:20:03.931136  5612 net.cpp:165] Memory required for data: 503316544
I0801 23:20:03.931136  5612 layer_factory.hpp:77] Creating layer relu_conv1
I0801 23:20:03.931136  5612 net.cpp:100] Creating Layer relu_conv1
I0801 23:20:03.931136  5612 net.cpp:434] relu_conv1 <- conv1
I0801 23:20:03.931136  5612 net.cpp:395] relu_conv1 -> conv1 (in-place)
I0801 23:20:03.932137  5612 net.cpp:150] Setting up relu_conv1
I0801 23:20:03.932137  5612 net.cpp:157] Top shape: 32 64 128 192 (50331648)
I0801 23:20:03.932137  5612 net.cpp:165] Memory required for data: 704643136
I0801 23:20:03.932137  5612 layer_factory.hpp:77] Creating layer pool1
I0801 23:20:03.933137  5612 net.cpp:100] Creating Layer pool1
I0801 23:20:03.933137  5612 net.cpp:434] pool1 <- conv1
I0801 23:20:03.933137  5612 net.cpp:408] pool1 -> pool1
I0801 23:20:03.933137  5612 net.cpp:150] Setting up pool1
I0801 23:20:03.934137  5612 net.cpp:157] Top shape: 32 64 64 96 (12582912)
I0801 23:20:03.934137  5612 net.cpp:165] Memory required for data: 754974784
I0801 23:20:03.934137  5612 layer_factory.hpp:77] Creating layer conv1_bn
I0801 23:20:03.934137  5612 net.cpp:100] Creating Layer conv1_bn
I0801 23:20:03.934137  5612 net.cpp:434] conv1_bn <- pool1
I0801 23:20:03.935137  5612 net.cpp:395] conv1_bn -> pool1 (in-place)
I0801 23:20:03.935137  5612 net.cpp:150] Setting up conv1_bn
I0801 23:20:03.936137  5612 net.cpp:157] Top shape: 32 64 64 96 (12582912)
I0801 23:20:03.936137  5612 net.cpp:165] Memory required for data: 805306432
I0801 23:20:03.936137  5612 layer_factory.hpp:77] Creating layer fire2/squeeze1x1
I0801 23:20:03.936137  5612 net.cpp:100] Creating Layer fire2/squeeze1x1
I0801 23:20:03.936137  5612 net.cpp:434] fire2/squeeze1x1 <- pool1
I0801 23:20:03.937137  5612 net.cpp:408] fire2/squeeze1x1 -> fire2/squeeze1x1
I0801 23:20:03.938138  5612 net.cpp:150] Setting up fire2/squeeze1x1
I0801 23:20:03.938138  5612 net.cpp:157] Top shape: 32 16 64 96 (3145728)
I0801 23:20:03.939137  5612 net.cpp:165] Memory required for data: 817889344
I0801 23:20:03.939137  5612 layer_factory.hpp:77] Creating layer fire2/relu_squeeze1x1
I0801 23:20:03.939137  5612 net.cpp:100] Creating Layer fire2/relu_squeeze1x1
I0801 23:20:03.939137  5612 net.cpp:434] fire2/relu_squeeze1x1 <- fire2/squeeze1x1
I0801 23:20:03.939137  5612 net.cpp:395] fire2/relu_squeeze1x1 -> fire2/squeeze1x1 (in-place)
I0801 23:20:03.940137  5612 net.cpp:150] Setting up fire2/relu_squeeze1x1
I0801 23:20:03.940137  5612 net.cpp:157] Top shape: 32 16 64 96 (3145728)
I0801 23:20:03.940137  5612 net.cpp:165] Memory required for data: 830472256
I0801 23:20:03.940137  5612 layer_factory.hpp:77] Creating layer fire2/squeeze1x1_fire2/relu_squeeze
1x1_0_split
I0801 23:20:03.941138  5612 net.cpp:100] Creating Layer fire2/squeeze1x1_fire2/relu_squeeze1x1_0_spl
it
I0801 23:20:03.941138  5612 net.cpp:434] fire2/squeeze1x1_fire2/relu_squeeze1x1_0_split <- fire2/squ
eeze1x1
I0801 23:20:03.941138  5612 net.cpp:408] fire2/squeeze1x1_fire2/relu_squeeze1x1_0_split -> fire2/squ
eeze1x1_fire2/relu_squeeze1x1_0_split_0
I0801 23:20:03.942137  5612 net.cpp:408] fire2/squeeze1x1_fire2/relu_squeeze1x1_0_split -> fire2/squ
eeze1x1_fire2/relu_squeeze1x1_0_split_1
I0801 23:20:03.942137  5612 net.cpp:150] Setting up fire2/squeeze1x1_fire2/relu_squeeze1x1_0_split
I0801 23:20:03.942137  5612 net.cpp:157] Top shape: 32 16 64 96 (3145728)
I0801 23:20:03.942137  5612 net.cpp:157] Top shape: 32 16 64 96 (3145728)
I0801 23:20:03.943137  5612 net.cpp:165] Memory required for data: 855638080
I0801 23:20:03.943137  5612 layer_factory.hpp:77] Creating layer fire2/expand1x1
I0801 23:20:03.943137  5612 net.cpp:100] Creating Layer fire2/expand1x1
I0801 23:20:03.943137  5612 net.cpp:434] fire2/expand1x1 <- fire2/squeeze1x1_fire2/relu_squeeze1x1_0
_split_0
I0801 23:20:03.944138  5612 net.cpp:408] fire2/expand1x1 -> fire2/expand1x1
I0801 23:20:03.945137  5612 net.cpp:150] Setting up fire2/expand1x1
I0801 23:20:03.945137  5612 net.cpp:157] Top shape: 32 64 64 96 (12582912)
I0801 23:20:03.945137  5612 net.cpp:165] Memory required for data: 905969728
I0801 23:20:03.945137  5612 layer_factory.hpp:77] Creating layer fire2/relu_expand1x1
I0801 23:20:03.946137  5612 net.cpp:100] Creating Layer fire2/relu_expand1x1
I0801 23:20:03.946137  5612 net.cpp:434] fire2/relu_expand1x1 <- fire2/expand1x1
I0801 23:20:03.946137  5612 net.cpp:395] fire2/relu_expand1x1 -> fire2/expand1x1 (in-place)
I0801 23:20:03.946137  5612 net.cpp:150] Setting up fire2/relu_expand1x1
I0801 23:20:03.947137  5612 net.cpp:157] Top shape: 32 64 64 96 (12582912)
I0801 23:20:03.947137  5612 net.cpp:165] Memory required for data: 956301376
I0801 23:20:03.947137  5612 layer_factory.hpp:77] Creating layer fire2/expand3x3
I0801 23:20:03.948137  5612 net.cpp:100] Creating Layer fire2/expand3x3
I0801 23:20:03.948137  5612 net.cpp:434] fire2/expand3x3 <- fire2/squeeze1x1_fire2/relu_squeeze1x1_0
_split_1
I0801 23:20:03.948137  5612 net.cpp:408] fire2/expand3x3 -> fire2/expand3x3
I0801 23:20:03.949137  5612 net.cpp:150] Setting up fire2/expand3x3
I0801 23:20:03.950139  5612 net.cpp:157] Top shape: 32 64 64 96 (12582912)
I0801 23:20:03.950139  5612 net.cpp:165] Memory required for data: 1006633024
I0801 23:20:03.950139  5612 layer_factory.hpp:77] Creating layer fire2/relu_expand3x3
I0801 23:20:03.950139  5612 net.cpp:100] Creating Layer fire2/relu_expand3x3
I0801 23:20:03.950139  5612 net.cpp:434] fire2/relu_expand3x3 <- fire2/expand3x3
I0801 23:20:03.951138  5612 net.cpp:395] fire2/relu_expand3x3 -> fire2/expand3x3 (in-place)
I0801 23:20:03.951138  5612 net.cpp:150] Setting up fire2/relu_expand3x3
I0801 23:20:03.951138  5612 net.cpp:157] Top shape: 32 64 64 96 (12582912)
I0801 23:20:03.951138  5612 net.cpp:165] Memory required for data: 1056964672
I0801 23:20:03.952138  5612 layer_factory.hpp:77] Creating layer fire2/concat
I0801 23:20:03.952138  5612 net.cpp:100] Creating Layer fire2/concat
I0801 23:20:03.952138  5612 net.cpp:434] fire2/concat <- fire2/expand1x1
I0801 23:20:03.952138  5612 net.cpp:434] fire2/concat <- fire2/expand3x3
I0801 23:20:03.952138  5612 net.cpp:408] fire2/concat -> fire2/concat
I0801 23:20:03.953138  5612 net.cpp:150] Setting up fire2/concat
I0801 23:20:03.953138  5612 net.cpp:157] Top shape: 32 128 64 96 (25165824)
I0801 23:20:03.953138  5612 net.cpp:165] Memory required for data: 1157627968
I0801 23:20:03.953138  5612 layer_factory.hpp:77] Creating layer fire2/concat_bn
I0801 23:20:03.953138  5612 net.cpp:100] Creating Layer fire2/concat_bn
I0801 23:20:03.954138  5612 net.cpp:434] fire2/concat_bn <- fire2/concat
I0801 23:20:03.954138  5612 net.cpp:395] fire2/concat_bn -> fire2/concat (in-place)
I0801 23:20:03.954138  5612 net.cpp:150] Setting up fire2/concat_bn
I0801 23:20:03.954138  5612 net.cpp:157] Top shape: 32 128 64 96 (25165824)
I0801 23:20:03.955138  5612 net.cpp:165] Memory required for data: 1258291264
I0801 23:20:03.955138  5612 layer_factory.hpp:77] Creating layer fire3/squeeze1x1
I0801 23:20:03.955138  5612 net.cpp:100] Creating Layer fire3/squeeze1x1
I0801 23:20:03.955138  5612 net.cpp:434] fire3/squeeze1x1 <- fire2/concat
I0801 23:20:03.955138  5612 net.cpp:408] fire3/squeeze1x1 -> fire3/squeeze1x1
I0801 23:20:03.957139  5612 net.cpp:150] Setting up fire3/squeeze1x1
I0801 23:20:03.957139  5612 net.cpp:157] Top shape: 32 16 64 96 (3145728)
I0801 23:20:03.957139  5612 net.cpp:165] Memory required for data: 1270874176
I0801 23:20:03.957139  5612 layer_factory.hpp:77] Creating layer fire3/relu_squeeze1x1
I0801 23:20:03.957139  5612 net.cpp:100] Creating Layer fire3/relu_squeeze1x1
I0801 23:20:03.958138  5612 net.cpp:434] fire3/relu_squeeze1x1 <- fire3/squeeze1x1
I0801 23:20:03.958138  5612 net.cpp:395] fire3/relu_squeeze1x1 -> fire3/squeeze1x1 (in-place)
I0801 23:20:03.958138  5612 net.cpp:150] Setting up fire3/relu_squeeze1x1
I0801 23:20:03.959138  5612 net.cpp:157] Top shape: 32 16 64 96 (3145728)
I0801 23:20:03.959138  5612 net.cpp:165] Memory required for data: 1283457088
I0801 23:20:03.959138  5612 layer_factory.hpp:77] Creating layer fire3/squeeze1x1_fire3/relu_squeeze
1x1_0_split
I0801 23:20:03.959138  5612 net.cpp:100] Creating Layer fire3/squeeze1x1_fire3/relu_squeeze1x1_0_spl
it
I0801 23:20:03.960139  5612 net.cpp:434] fire3/squeeze1x1_fire3/relu_squeeze1x1_0_split <- fire3/squ
eeze1x1
I0801 23:20:03.960139  5612 net.cpp:408] fire3/squeeze1x1_fire3/relu_squeeze1x1_0_split -> fire3/squ
eeze1x1_fire3/relu_squeeze1x1_0_split_0
I0801 23:20:03.960139  5612 net.cpp:408] fire3/squeeze1x1_fire3/relu_squeeze1x1_0_split -> fire3/squ
eeze1x1_fire3/relu_squeeze1x1_0_split_1
I0801 23:20:03.960139  5612 net.cpp:150] Setting up fire3/squeeze1x1_fire3/relu_squeeze1x1_0_split
I0801 23:20:03.961138  5612 net.cpp:157] Top shape: 32 16 64 96 (3145728)
I0801 23:20:03.961138  5612 net.cpp:157] Top shape: 32 16 64 96 (3145728)
I0801 23:20:03.961138  5612 net.cpp:165] Memory required for data: 1308622912
I0801 23:20:03.961138  5612 layer_factory.hpp:77] Creating layer fire3/expand1x1
I0801 23:20:03.961138  5612 net.cpp:100] Creating Layer fire3/expand1x1
I0801 23:20:03.962138  5612 net.cpp:434] fire3/expand1x1 <- fire3/squeeze1x1_fire3/relu_squeeze1x1_0
_split_0
I0801 23:20:03.962138  5612 net.cpp:408] fire3/expand1x1 -> fire3/expand1x1
I0801 23:20:03.963138  5612 net.cpp:150] Setting up fire3/expand1x1
I0801 23:20:03.963138  5612 net.cpp:157] Top shape: 32 64 64 96 (12582912)
I0801 23:20:03.964138  5612 net.cpp:165] Memory required for data: 1358954560
I0801 23:20:03.964138  5612 layer_factory.hpp:77] Creating layer fire3/relu_expand1x1
I0801 23:20:03.964138  5612 net.cpp:100] Creating Layer fire3/relu_expand1x1
I0801 23:20:03.964138  5612 net.cpp:434] fire3/relu_expand1x1 <- fire3/expand1x1
I0801 23:20:03.965138  5612 net.cpp:395] fire3/relu_expand1x1 -> fire3/expand1x1 (in-place)
I0801 23:20:03.965138  5612 net.cpp:150] Setting up fire3/relu_expand1x1
I0801 23:20:03.965138  5612 net.cpp:157] Top shape: 32 64 64 96 (12582912)
I0801 23:20:03.966138  5612 net.cpp:165] Memory required for data: 1409286208
I0801 23:20:03.966138  5612 layer_factory.hpp:77] Creating layer fire3/expand3x3
I0801 23:20:03.966138  5612 net.cpp:100] Creating Layer fire3/expand3x3
I0801 23:20:03.966138  5612 net.cpp:434] fire3/expand3x3 <- fire3/squeeze1x1_fire3/relu_squeeze1x1_0
_split_1
I0801 23:20:03.966138  5612 net.cpp:408] fire3/expand3x3 -> fire3/expand3x3
I0801 23:20:03.968139  5612 net.cpp:150] Setting up fire3/expand3x3
I0801 23:20:03.968139  5612 net.cpp:157] Top shape: 32 64 64 96 (12582912)
I0801 23:20:03.968139  5612 net.cpp:165] Memory required for data: 1459617856
I0801 23:20:03.968139  5612 layer_factory.hpp:77] Creating layer fire3/relu_expand3x3
I0801 23:20:03.968139  5612 net.cpp:100] Creating Layer fire3/relu_expand3x3
I0801 23:20:03.969139  5612 net.cpp:434] fire3/relu_expand3x3 <- fire3/expand3x3
I0801 23:20:03.969139  5612 net.cpp:395] fire3/relu_expand3x3 -> fire3/expand3x3 (in-place)
I0801 23:20:03.969139  5612 net.cpp:150] Setting up fire3/relu_expand3x3
I0801 23:20:03.970139  5612 net.cpp:157] Top shape: 32 64 64 96 (12582912)
I0801 23:20:03.970139  5612 net.cpp:165] Memory required for data: 1509949504
I0801 23:20:03.970139  5612 layer_factory.hpp:77] Creating layer fire3/concat
I0801 23:20:03.970139  5612 net.cpp:100] Creating Layer fire3/concat
I0801 23:20:03.970139  5612 net.cpp:434] fire3/concat <- fire3/expand1x1
I0801 23:20:03.971139  5612 net.cpp:434] fire3/concat <- fire3/expand3x3
I0801 23:20:03.971139  5612 net.cpp:408] fire3/concat -> fire3/concat
I0801 23:20:03.971139  5612 net.cpp:150] Setting up fire3/concat
I0801 23:20:03.971139  5612 net.cpp:157] Top shape: 32 128 64 96 (25165824)
I0801 23:20:03.971139  5612 net.cpp:165] Memory required for data: 1610612800
I0801 23:20:03.972139  5612 layer_factory.hpp:77] Creating layer pool3
I0801 23:20:03.972139  5612 net.cpp:100] Creating Layer pool3
I0801 23:20:03.972139  5612 net.cpp:434] pool3 <- fire3/concat
I0801 23:20:03.972139  5612 net.cpp:408] pool3 -> pool3
I0801 23:20:03.972139  5612 net.cpp:150] Setting up pool3
I0801 23:20:03.973140  5612 net.cpp:157] Top shape: 32 128 32 48 (6291456)
I0801 23:20:03.973140  5612 net.cpp:165] Memory required for data: 1635778624
I0801 23:20:03.973140  5612 layer_factory.hpp:77] Creating layer fire3/concat_bn
I0801 23:20:03.973140  5612 net.cpp:100] Creating Layer fire3/concat_bn
I0801 23:20:03.973140  5612 net.cpp:434] fire3/concat_bn <- pool3
I0801 23:20:03.974139  5612 net.cpp:395] fire3/concat_bn -> pool3 (in-place)
I0801 23:20:03.974139  5612 net.cpp:150] Setting up fire3/concat_bn
I0801 23:20:03.974139  5612 net.cpp:157] Top shape: 32 128 32 48 (6291456)
I0801 23:20:03.975139  5612 net.cpp:165] Memory required for data: 1660944448
I0801 23:20:03.975139  5612 layer_factory.hpp:77] Creating layer fire4/squeeze1x1
I0801 23:20:03.975139  5612 net.cpp:100] Creating Layer fire4/squeeze1x1
I0801 23:20:03.975139  5612 net.cpp:434] fire4/squeeze1x1 <- pool3
I0801 23:20:03.975139  5612 net.cpp:408] fire4/squeeze1x1 -> fire4/squeeze1x1
I0801 23:20:03.977139  5612 net.cpp:150] Setting up fire4/squeeze1x1
I0801 23:20:03.977139  5612 net.cpp:157] Top shape: 32 32 32 48 (1572864)
I0801 23:20:03.977139  5612 net.cpp:165] Memory required for data: 1667235904
I0801 23:20:03.977139  5612 layer_factory.hpp:77] Creating layer fire4/relu_squeeze1x1
I0801 23:20:03.977139  5612 net.cpp:100] Creating Layer fire4/relu_squeeze1x1
I0801 23:20:03.978139  5612 net.cpp:434] fire4/relu_squeeze1x1 <- fire4/squeeze1x1
I0801 23:20:03.978139  5612 net.cpp:395] fire4/relu_squeeze1x1 -> fire4/squeeze1x1 (in-place)
I0801 23:20:03.978139  5612 net.cpp:150] Setting up fire4/relu_squeeze1x1
I0801 23:20:03.978139  5612 net.cpp:157] Top shape: 32 32 32 48 (1572864)
I0801 23:20:03.979140  5612 net.cpp:165] Memory required for data: 1673527360
I0801 23:20:03.979140  5612 layer_factory.hpp:77] Creating layer fire4/squeeze1x1_fire4/relu_squeeze
1x1_0_split
I0801 23:20:03.979140  5612 net.cpp:100] Creating Layer fire4/squeeze1x1_fire4/relu_squeeze1x1_0_spl
it
I0801 23:20:03.979140  5612 net.cpp:434] fire4/squeeze1x1_fire4/relu_squeeze1x1_0_split <- fire4/squ
eeze1x1
I0801 23:20:03.980139  5612 net.cpp:408] fire4/squeeze1x1_fire4/relu_squeeze1x1_0_split -> fire4/squ
eeze1x1_fire4/relu_squeeze1x1_0_split_0
I0801 23:20:03.980139  5612 net.cpp:408] fire4/squeeze1x1_fire4/relu_squeeze1x1_0_split -> fire4/squ
eeze1x1_fire4/relu_squeeze1x1_0_split_1
I0801 23:20:03.981139  5612 net.cpp:150] Setting up fire4/squeeze1x1_fire4/relu_squeeze1x1_0_split
I0801 23:20:03.981139  5612 net.cpp:157] Top shape: 32 32 32 48 (1572864)
I0801 23:20:03.981139  5612 net.cpp:157] Top shape: 32 32 32 48 (1572864)
I0801 23:20:03.981139  5612 net.cpp:165] Memory required for data: 1686110272
I0801 23:20:03.981139  5612 layer_factory.hpp:77] Creating layer fire4/expand1x1
I0801 23:20:03.982139  5612 net.cpp:100] Creating Layer fire4/expand1x1
I0801 23:20:03.982139  5612 net.cpp:434] fire4/expand1x1 <- fire4/squeeze1x1_fire4/relu_squeeze1x1_0
_split_0
I0801 23:20:03.982139  5612 net.cpp:408] fire4/expand1x1 -> fire4/expand1x1
I0801 23:20:03.983139  5612 net.cpp:150] Setting up fire4/expand1x1
I0801 23:20:03.983139  5612 net.cpp:157] Top shape: 32 128 32 48 (6291456)
I0801 23:20:03.984139  5612 net.cpp:165] Memory required for data: 1711276096
I0801 23:20:03.984139  5612 layer_factory.hpp:77] Creating layer fire4/relu_expand1x1
I0801 23:20:03.984139  5612 net.cpp:100] Creating Layer fire4/relu_expand1x1
I0801 23:20:03.984139  5612 net.cpp:434] fire4/relu_expand1x1 <- fire4/expand1x1
I0801 23:20:03.984139  5612 net.cpp:395] fire4/relu_expand1x1 -> fire4/expand1x1 (in-place)
I0801 23:20:03.985141  5612 net.cpp:150] Setting up fire4/relu_expand1x1
I0801 23:20:03.985141  5612 net.cpp:157] Top shape: 32 128 32 48 (6291456)
I0801 23:20:03.985141  5612 net.cpp:165] Memory required for data: 1736441920
I0801 23:20:03.985141  5612 layer_factory.hpp:77] Creating layer fire4/expand3x3
I0801 23:20:03.986140  5612 net.cpp:100] Creating Layer fire4/expand3x3
I0801 23:20:03.986140  5612 net.cpp:434] fire4/expand3x3 <- fire4/squeeze1x1_fire4/relu_squeeze1x1_0
_split_1
I0801 23:20:03.986140  5612 net.cpp:408] fire4/expand3x3 -> fire4/expand3x3
I0801 23:20:03.988140  5612 net.cpp:150] Setting up fire4/expand3x3
I0801 23:20:03.988140  5612 net.cpp:157] Top shape: 32 128 32 48 (6291456)
I0801 23:20:03.988140  5612 net.cpp:165] Memory required for data: 1761607744
I0801 23:20:03.988140  5612 layer_factory.hpp:77] Creating layer fire4/relu_expand3x3
I0801 23:20:03.988140  5612 net.cpp:100] Creating Layer fire4/relu_expand3x3
I0801 23:20:03.989140  5612 net.cpp:434] fire4/relu_expand3x3 <- fire4/expand3x3
I0801 23:20:03.989140  5612 net.cpp:395] fire4/relu_expand3x3 -> fire4/expand3x3 (in-place)
I0801 23:20:03.989140  5612 net.cpp:150] Setting up fire4/relu_expand3x3
I0801 23:20:03.990140  5612 net.cpp:157] Top shape: 32 128 32 48 (6291456)
I0801 23:20:03.990140  5612 net.cpp:165] Memory required for data: 1786773568
I0801 23:20:03.990140  5612 layer_factory.hpp:77] Creating layer fire4/concat
I0801 23:20:03.990140  5612 net.cpp:100] Creating Layer fire4/concat
I0801 23:20:03.990140  5612 net.cpp:434] fire4/concat <- fire4/expand1x1
I0801 23:20:03.991140  5612 net.cpp:434] fire4/concat <- fire4/expand3x3
I0801 23:20:03.991140  5612 net.cpp:408] fire4/concat -> fire4/concat
I0801 23:20:03.991140  5612 net.cpp:150] Setting up fire4/concat
I0801 23:20:03.991140  5612 net.cpp:157] Top shape: 32 256 32 48 (12582912)
I0801 23:20:03.991140  5612 net.cpp:165] Memory required for data: 1837105216
I0801 23:20:03.992141  5612 layer_factory.hpp:77] Creating layer fire4/concat_bn
I0801 23:20:03.992141  5612 net.cpp:100] Creating Layer fire4/concat_bn
I0801 23:20:03.992141  5612 net.cpp:434] fire4/concat_bn <- fire4/concat
I0801 23:20:03.992141  5612 net.cpp:395] fire4/concat_bn -> fire4/concat (in-place)
I0801 23:20:03.993140  5612 net.cpp:150] Setting up fire4/concat_bn
I0801 23:20:03.993140  5612 net.cpp:157] Top shape: 32 256 32 48 (12582912)
I0801 23:20:03.993140  5612 net.cpp:165] Memory required for data: 1887436864
I0801 23:20:03.993140  5612 layer_factory.hpp:77] Creating layer fire5/squeeze1x1
I0801 23:20:03.993140  5612 net.cpp:100] Creating Layer fire5/squeeze1x1
I0801 23:20:03.994140  5612 net.cpp:434] fire5/squeeze1x1 <- fire4/concat
I0801 23:20:03.994140  5612 net.cpp:408] fire5/squeeze1x1 -> fire5/squeeze1x1
I0801 23:20:03.995141  5612 net.cpp:150] Setting up fire5/squeeze1x1
I0801 23:20:03.995141  5612 net.cpp:157] Top shape: 32 32 32 48 (1572864)
I0801 23:20:03.996140  5612 net.cpp:165] Memory required for data: 1893728320
I0801 23:20:03.996140  5612 layer_factory.hpp:77] Creating layer fire5/relu_squeeze1x1
I0801 23:20:03.996140  5612 net.cpp:100] Creating Layer fire5/relu_squeeze1x1
I0801 23:20:03.996140  5612 net.cpp:434] fire5/relu_squeeze1x1 <- fire5/squeeze1x1
I0801 23:20:03.996140  5612 net.cpp:395] fire5/relu_squeeze1x1 -> fire5/squeeze1x1 (in-place)
I0801 23:20:03.997140  5612 net.cpp:150] Setting up fire5/relu_squeeze1x1
I0801 23:20:03.997140  5612 net.cpp:157] Top shape: 32 32 32 48 (1572864)
I0801 23:20:03.997140  5612 net.cpp:165] Memory required for data: 1900019776
I0801 23:20:03.997140  5612 layer_factory.hpp:77] Creating layer fire5/squeeze1x1_fire5/relu_squeeze
1x1_0_split
I0801 23:20:03.998141  5612 net.cpp:100] Creating Layer fire5/squeeze1x1_fire5/relu_squeeze1x1_0_spl
it
I0801 23:20:03.998141  5612 net.cpp:434] fire5/squeeze1x1_fire5/relu_squeeze1x1_0_split <- fire5/squ
eeze1x1
I0801 23:20:03.998141  5612 net.cpp:408] fire5/squeeze1x1_fire5/relu_squeeze1x1_0_split -> fire5/squ
eeze1x1_fire5/relu_squeeze1x1_0_split_0
I0801 23:20:03.999140  5612 net.cpp:408] fire5/squeeze1x1_fire5/relu_squeeze1x1_0_split -> fire5/squ
eeze1x1_fire5/relu_squeeze1x1_0_split_1
I0801 23:20:03.999140  5612 net.cpp:150] Setting up fire5/squeeze1x1_fire5/relu_squeeze1x1_0_split
I0801 23:20:03.999140  5612 net.cpp:157] Top shape: 32 32 32 48 (1572864)
I0801 23:20:03.999140  5612 net.cpp:157] Top shape: 32 32 32 48 (1572864)
I0801 23:20:03.999140  5612 net.cpp:165] Memory required for data: 1912602688
I0801 23:20:04.000140  5612 layer_factory.hpp:77] Creating layer fire5/expand1x1
I0801 23:20:04.000140  5612 net.cpp:100] Creating Layer fire5/expand1x1
I0801 23:20:04.000140  5612 net.cpp:434] fire5/expand1x1 <- fire5/squeeze1x1_fire5/relu_squeeze1x1_0
_split_0
I0801 23:20:04.001140  5612 net.cpp:408] fire5/expand1x1 -> fire5/expand1x1
I0801 23:20:04.002140  5612 net.cpp:150] Setting up fire5/expand1x1
I0801 23:20:04.002140  5612 net.cpp:157] Top shape: 32 128 32 48 (6291456)
I0801 23:20:04.002140  5612 net.cpp:165] Memory required for data: 1937768512
I0801 23:20:04.002140  5612 layer_factory.hpp:77] Creating layer fire5/relu_expand1x1
I0801 23:20:04.003141  5612 net.cpp:100] Creating Layer fire5/relu_expand1x1
I0801 23:20:04.003141  5612 net.cpp:434] fire5/relu_expand1x1 <- fire5/expand1x1
I0801 23:20:04.003141  5612 net.cpp:395] fire5/relu_expand1x1 -> fire5/expand1x1 (in-place)
I0801 23:20:04.003141  5612 net.cpp:150] Setting up fire5/relu_expand1x1
I0801 23:20:04.004142  5612 net.cpp:157] Top shape: 32 128 32 48 (6291456)
I0801 23:20:04.004142  5612 net.cpp:165] Memory required for data: 1962934336
I0801 23:20:04.004142  5612 layer_factory.hpp:77] Creating layer fire5/expand3x3
I0801 23:20:04.004142  5612 net.cpp:100] Creating Layer fire5/expand3x3
I0801 23:20:04.005141  5612 net.cpp:434] fire5/expand3x3 <- fire5/squeeze1x1_fire5/relu_squeeze1x1_0
_split_1
I0801 23:20:04.005141  5612 net.cpp:408] fire5/expand3x3 -> fire5/expand3x3
I0801 23:20:04.006141  5612 net.cpp:150] Setting up fire5/expand3x3
I0801 23:20:04.007141  5612 net.cpp:157] Top shape: 32 128 32 48 (6291456)
I0801 23:20:04.007141  5612 net.cpp:165] Memory required for data: 1988100160
I0801 23:20:04.007141  5612 layer_factory.hpp:77] Creating layer fire5/relu_expand3x3
I0801 23:20:04.007141  5612 net.cpp:100] Creating Layer fire5/relu_expand3x3
I0801 23:20:04.007141  5612 net.cpp:434] fire5/relu_expand3x3 <- fire5/expand3x3
I0801 23:20:04.008141  5612 net.cpp:395] fire5/relu_expand3x3 -> fire5/expand3x3 (in-place)
I0801 23:20:04.008141  5612 net.cpp:150] Setting up fire5/relu_expand3x3
I0801 23:20:04.008141  5612 net.cpp:157] Top shape: 32 128 32 48 (6291456)
I0801 23:20:04.008141  5612 net.cpp:165] Memory required for data: 2013265984
I0801 23:20:04.009141  5612 layer_factory.hpp:77] Creating layer fire5/concat
I0801 23:20:04.009141  5612 net.cpp:100] Creating Layer fire5/concat
I0801 23:20:04.009141  5612 net.cpp:434] fire5/concat <- fire5/expand1x1
I0801 23:20:04.009141  5612 net.cpp:434] fire5/concat <- fire5/expand3x3
I0801 23:20:04.009141  5612 net.cpp:408] fire5/concat -> fire5/concat
I0801 23:20:04.010141  5612 net.cpp:150] Setting up fire5/concat
I0801 23:20:04.010141  5612 net.cpp:157] Top shape: 32 256 32 48 (12582912)
I0801 23:20:04.010141  5612 net.cpp:165] Memory required for data: 2063597632
I0801 23:20:04.010141  5612 layer_factory.hpp:77] Creating layer fire5/concat_fire5/concat_0_split
I0801 23:20:04.011142  5612 net.cpp:100] Creating Layer fire5/concat_fire5/concat_0_split
I0801 23:20:04.011142  5612 net.cpp:434] fire5/concat_fire5/concat_0_split <- fire5/concat
I0801 23:20:04.011142  5612 net.cpp:408] fire5/concat_fire5/concat_0_split -> fire5/concat_fire5/con
cat_0_split_0
I0801 23:20:04.011142  5612 net.cpp:408] fire5/concat_fire5/concat_0_split -> fire5/concat_fire5/con
cat_0_split_1
I0801 23:20:04.012141  5612 net.cpp:150] Setting up fire5/concat_fire5/concat_0_split
I0801 23:20:04.012141  5612 net.cpp:157] Top shape: 32 256 32 48 (12582912)
I0801 23:20:04.012141  5612 net.cpp:157] Top shape: 32 256 32 48 (12582912)
I0801 23:20:04.012141  5612 net.cpp:165] Memory required for data: 2164260928
I0801 23:20:04.012141  5612 layer_factory.hpp:77] Creating layer pool5
I0801 23:20:04.013141  5612 net.cpp:100] Creating Layer pool5
I0801 23:20:04.013141  5612 net.cpp:434] pool5 <- fire5/concat_fire5/concat_0_split_0
I0801 23:20:04.013141  5612 net.cpp:408] pool5 -> pool5
I0801 23:20:04.013141  5612 net.cpp:150] Setting up pool5
I0801 23:20:04.013141  5612 net.cpp:157] Top shape: 32 256 16 24 (3145728)
I0801 23:20:04.014142  5612 net.cpp:165] Memory required for data: 2176843840
I0801 23:20:04.014142  5612 layer_factory.hpp:77] Creating layer fire5/concat_bn
I0801 23:20:04.014142  5612 net.cpp:100] Creating Layer fire5/concat_bn
I0801 23:20:04.014142  5612 net.cpp:434] fire5/concat_bn <- pool5
I0801 23:20:04.014142  5612 net.cpp:395] fire5/concat_bn -> pool5 (in-place)
I0801 23:20:04.015141  5612 net.cpp:150] Setting up fire5/concat_bn
I0801 23:20:04.015141  5612 net.cpp:157] Top shape: 32 256 16 24 (3145728)
I0801 23:20:04.015141  5612 net.cpp:165] Memory required for data: 2189426752
I0801 23:20:04.015141  5612 layer_factory.hpp:77] Creating layer fire6/squeeze1x1
I0801 23:20:04.016141  5612 net.cpp:100] Creating Layer fire6/squeeze1x1
I0801 23:20:04.016141  5612 net.cpp:434] fire6/squeeze1x1 <- pool5
I0801 23:20:04.016141  5612 net.cpp:408] fire6/squeeze1x1 -> fire6/squeeze1x1
I0801 23:20:04.017141  5612 net.cpp:150] Setting up fire6/squeeze1x1
I0801 23:20:04.017141  5612 net.cpp:157] Top shape: 32 48 16 24 (589824)
I0801 23:20:04.018141  5612 net.cpp:165] Memory required for data: 2191786048
I0801 23:20:04.018141  5612 layer_factory.hpp:77] Creating layer fire6/relu_squeeze1x1
I0801 23:20:04.018141  5612 net.cpp:100] Creating Layer fire6/relu_squeeze1x1
I0801 23:20:04.018141  5612 net.cpp:434] fire6/relu_squeeze1x1 <- fire6/squeeze1x1
I0801 23:20:04.018141  5612 net.cpp:395] fire6/relu_squeeze1x1 -> fire6/squeeze1x1 (in-place)
I0801 23:20:04.019141  5612 net.cpp:150] Setting up fire6/relu_squeeze1x1
I0801 23:20:04.019141  5612 net.cpp:157] Top shape: 32 48 16 24 (589824)
I0801 23:20:04.019141  5612 net.cpp:165] Memory required for data: 2194145344
I0801 23:20:04.020143  5612 layer_factory.hpp:77] Creating layer fire6/squeeze1x1_fire6/relu_squeeze
1x1_0_split
I0801 23:20:04.020143  5612 net.cpp:100] Creating Layer fire6/squeeze1x1_fire6/relu_squeeze1x1_0_spl
it
I0801 23:20:04.020143  5612 net.cpp:434] fire6/squeeze1x1_fire6/relu_squeeze1x1_0_split <- fire6/squ
eeze1x1
I0801 23:20:04.020143  5612 net.cpp:408] fire6/squeeze1x1_fire6/relu_squeeze1x1_0_split -> fire6/squ
eeze1x1_fire6/relu_squeeze1x1_0_split_0
I0801 23:20:04.021142  5612 net.cpp:408] fire6/squeeze1x1_fire6/relu_squeeze1x1_0_split -> fire6/squ
eeze1x1_fire6/relu_squeeze1x1_0_split_1
I0801 23:20:04.021142  5612 net.cpp:150] Setting up fire6/squeeze1x1_fire6/relu_squeeze1x1_0_split
I0801 23:20:04.021142  5612 net.cpp:157] Top shape: 32 48 16 24 (589824)
I0801 23:20:04.021142  5612 net.cpp:157] Top shape: 32 48 16 24 (589824)
I0801 23:20:04.022142  5612 net.cpp:165] Memory required for data: 2198863936
I0801 23:20:04.022142  5612 layer_factory.hpp:77] Creating layer fire6/expand1x1
I0801 23:20:04.022142  5612 net.cpp:100] Creating Layer fire6/expand1x1
I0801 23:20:04.022142  5612 net.cpp:434] fire6/expand1x1 <- fire6/squeeze1x1_fire6/relu_squeeze1x1_0
_split_0
I0801 23:20:04.023142  5612 net.cpp:408] fire6/expand1x1 -> fire6/expand1x1
I0801 23:20:04.024142  5612 net.cpp:150] Setting up fire6/expand1x1
I0801 23:20:04.024142  5612 net.cpp:157] Top shape: 32 192 16 24 (2359296)
I0801 23:20:04.024142  5612 net.cpp:165] Memory required for data: 2208301120
I0801 23:20:04.025142  5612 layer_factory.hpp:77] Creating layer fire6/relu_expand1x1
I0801 23:20:04.025142  5612 net.cpp:100] Creating Layer fire6/relu_expand1x1
I0801 23:20:04.025142  5612 net.cpp:434] fire6/relu_expand1x1 <- fire6/expand1x1
I0801 23:20:04.025142  5612 net.cpp:395] fire6/relu_expand1x1 -> fire6/expand1x1 (in-place)
I0801 23:20:04.026142  5612 net.cpp:150] Setting up fire6/relu_expand1x1
I0801 23:20:04.026142  5612 net.cpp:157] Top shape: 32 192 16 24 (2359296)
I0801 23:20:04.027143  5612 net.cpp:165] Memory required for data: 2217738304
I0801 23:20:04.027143  5612 layer_factory.hpp:77] Creating layer fire6/expand3x3
I0801 23:20:04.027143  5612 net.cpp:100] Creating Layer fire6/expand3x3
I0801 23:20:04.027143  5612 net.cpp:434] fire6/expand3x3 <- fire6/squeeze1x1_fire6/relu_squeeze1x1_0
_split_1
I0801 23:20:04.028142  5612 net.cpp:408] fire6/expand3x3 -> fire6/expand3x3
I0801 23:20:04.030143  5612 net.cpp:150] Setting up fire6/expand3x3
I0801 23:20:04.030143  5612 net.cpp:157] Top shape: 32 192 16 24 (2359296)
I0801 23:20:04.030143  5612 net.cpp:165] Memory required for data: 2227175488
I0801 23:20:04.030143  5612 layer_factory.hpp:77] Creating layer fire6/relu_expand3x3
I0801 23:20:04.031142  5612 net.cpp:100] Creating Layer fire6/relu_expand3x3
I0801 23:20:04.031142  5612 net.cpp:434] fire6/relu_expand3x3 <- fire6/expand3x3
I0801 23:20:04.031142  5612 net.cpp:395] fire6/relu_expand3x3 -> fire6/expand3x3 (in-place)
I0801 23:20:04.032142  5612 net.cpp:150] Setting up fire6/relu_expand3x3
I0801 23:20:04.032142  5612 net.cpp:157] Top shape: 32 192 16 24 (2359296)
I0801 23:20:04.032142  5612 net.cpp:165] Memory required for data: 2236612672
I0801 23:20:04.032142  5612 layer_factory.hpp:77] Creating layer fire6/concat
I0801 23:20:04.032142  5612 net.cpp:100] Creating Layer fire6/concat
I0801 23:20:04.033143  5612 net.cpp:434] fire6/concat <- fire6/expand1x1
I0801 23:20:04.033143  5612 net.cpp:434] fire6/concat <- fire6/expand3x3
I0801 23:20:04.033143  5612 net.cpp:408] fire6/concat -> fire6/concat
I0801 23:20:04.033143  5612 net.cpp:150] Setting up fire6/concat
I0801 23:20:04.033143  5612 net.cpp:157] Top shape: 32 384 16 24 (4718592)
I0801 23:20:04.034142  5612 net.cpp:165] Memory required for data: 2255487040
I0801 23:20:04.034142  5612 layer_factory.hpp:77] Creating layer fire6/concat_bn
I0801 23:20:04.034142  5612 net.cpp:100] Creating Layer fire6/concat_bn
I0801 23:20:04.034142  5612 net.cpp:434] fire6/concat_bn <- fire6/concat
I0801 23:20:04.035142  5612 net.cpp:395] fire6/concat_bn -> fire6/concat (in-place)
I0801 23:20:04.035142  5612 net.cpp:150] Setting up fire6/concat_bn
I0801 23:20:04.035142  5612 net.cpp:157] Top shape: 32 384 16 24 (4718592)
I0801 23:20:04.035142  5612 net.cpp:165] Memory required for data: 2274361408
I0801 23:20:04.036142  5612 layer_factory.hpp:77] Creating layer fire7/squeeze1x1
I0801 23:20:04.036142  5612 net.cpp:100] Creating Layer fire7/squeeze1x1
I0801 23:20:04.036142  5612 net.cpp:434] fire7/squeeze1x1 <- fire6/concat
I0801 23:20:04.036142  5612 net.cpp:408] fire7/squeeze1x1 -> fire7/squeeze1x1
I0801 23:20:04.037142  5612 net.cpp:150] Setting up fire7/squeeze1x1
I0801 23:20:04.038143  5612 net.cpp:157] Top shape: 32 48 16 24 (589824)
I0801 23:20:04.038143  5612 net.cpp:165] Memory required for data: 2276720704
I0801 23:20:04.038143  5612 layer_factory.hpp:77] Creating layer fire7/relu_squeeze1x1
I0801 23:20:04.038143  5612 net.cpp:100] Creating Layer fire7/relu_squeeze1x1
I0801 23:20:04.039144  5612 net.cpp:434] fire7/relu_squeeze1x1 <- fire7/squeeze1x1
I0801 23:20:04.039144  5612 net.cpp:395] fire7/relu_squeeze1x1 -> fire7/squeeze1x1 (in-place)
I0801 23:20:04.039144  5612 net.cpp:150] Setting up fire7/relu_squeeze1x1
I0801 23:20:04.039144  5612 net.cpp:157] Top shape: 32 48 16 24 (589824)
I0801 23:20:04.040143  5612 net.cpp:165] Memory required for data: 2279080000
I0801 23:20:04.040143  5612 layer_factory.hpp:77] Creating layer fire7/squeeze1x1_fire7/relu_squeeze
1x1_0_split
I0801 23:20:04.040143  5612 net.cpp:100] Creating Layer fire7/squeeze1x1_fire7/relu_squeeze1x1_0_spl
it
I0801 23:20:04.040143  5612 net.cpp:434] fire7/squeeze1x1_fire7/relu_squeeze1x1_0_split <- fire7/squ
eeze1x1
I0801 23:20:04.041143  5612 net.cpp:408] fire7/squeeze1x1_fire7/relu_squeeze1x1_0_split -> fire7/squ
eeze1x1_fire7/relu_squeeze1x1_0_split_0
I0801 23:20:04.041143  5612 net.cpp:408] fire7/squeeze1x1_fire7/relu_squeeze1x1_0_split -> fire7/squ
eeze1x1_fire7/relu_squeeze1x1_0_split_1
I0801 23:20:04.041143  5612 net.cpp:150] Setting up fire7/squeeze1x1_fire7/relu_squeeze1x1_0_split
I0801 23:20:04.042143  5612 net.cpp:157] Top shape: 32 48 16 24 (589824)
I0801 23:20:04.042143  5612 net.cpp:157] Top shape: 32 48 16 24 (589824)
I0801 23:20:04.042143  5612 net.cpp:165] Memory required for data: 2283798592
I0801 23:20:04.042143  5612 layer_factory.hpp:77] Creating layer fire7/expand1x1
I0801 23:20:04.042143  5612 net.cpp:100] Creating Layer fire7/expand1x1
I0801 23:20:04.043143  5612 net.cpp:434] fire7/expand1x1 <- fire7/squeeze1x1_fire7/relu_squeeze1x1_0
_split_0
I0801 23:20:04.043143  5612 net.cpp:408] fire7/expand1x1 -> fire7/expand1x1
I0801 23:20:04.050143  5612 net.cpp:150] Setting up fire7/expand1x1
I0801 23:20:04.050143  5612 net.cpp:157] Top shape: 32 192 16 24 (2359296)
I0801 23:20:04.050143  5612 net.cpp:165] Memory required for data: 2293235776
I0801 23:20:04.050143  5612 layer_factory.hpp:77] Creating layer fire7/relu_expand1x1
I0801 23:20:04.051143  5612 net.cpp:100] Creating Layer fire7/relu_expand1x1
I0801 23:20:04.051143  5612 net.cpp:434] fire7/relu_expand1x1 <- fire7/expand1x1
I0801 23:20:04.051143  5612 net.cpp:395] fire7/relu_expand1x1 -> fire7/expand1x1 (in-place)
I0801 23:20:04.051143  5612 net.cpp:150] Setting up fire7/relu_expand1x1
I0801 23:20:04.052144  5612 net.cpp:157] Top shape: 32 192 16 24 (2359296)
I0801 23:20:04.052144  5612 net.cpp:165] Memory required for data: 2302672960
I0801 23:20:04.052144  5612 layer_factory.hpp:77] Creating layer fire7/expand3x3
I0801 23:20:04.052144  5612 net.cpp:100] Creating Layer fire7/expand3x3
I0801 23:20:04.052144  5612 net.cpp:434] fire7/expand3x3 <- fire7/squeeze1x1_fire7/relu_squeeze1x1_0
_split_1
I0801 23:20:04.053143  5612 net.cpp:408] fire7/expand3x3 -> fire7/expand3x3
I0801 23:20:04.055145  5612 net.cpp:150] Setting up fire7/expand3x3
I0801 23:20:04.055145  5612 net.cpp:157] Top shape: 32 192 16 24 (2359296)
I0801 23:20:04.055145  5612 net.cpp:165] Memory required for data: 2312110144
I0801 23:20:04.055145  5612 layer_factory.hpp:77] Creating layer fire7/relu_expand3x3
I0801 23:20:04.055145  5612 net.cpp:100] Creating Layer fire7/relu_expand3x3
I0801 23:20:04.056144  5612 net.cpp:434] fire7/relu_expand3x3 <- fire7/expand3x3
I0801 23:20:04.056144  5612 net.cpp:395] fire7/relu_expand3x3 -> fire7/expand3x3 (in-place)
I0801 23:20:04.056144  5612 net.cpp:150] Setting up fire7/relu_expand3x3
I0801 23:20:04.057144  5612 net.cpp:157] Top shape: 32 192 16 24 (2359296)
I0801 23:20:04.057144  5612 net.cpp:165] Memory required for data: 2321547328
I0801 23:20:04.057144  5612 layer_factory.hpp:77] Creating layer fire7/concat
I0801 23:20:04.057144  5612 net.cpp:100] Creating Layer fire7/concat
I0801 23:20:04.057144  5612 net.cpp:434] fire7/concat <- fire7/expand1x1
I0801 23:20:04.058145  5612 net.cpp:434] fire7/concat <- fire7/expand3x3
I0801 23:20:04.058145  5612 net.cpp:408] fire7/concat -> fire7/concat
I0801 23:20:04.058145  5612 net.cpp:150] Setting up fire7/concat
I0801 23:20:04.058145  5612 net.cpp:157] Top shape: 32 384 16 24 (4718592)
I0801 23:20:04.058145  5612 net.cpp:165] Memory required for data: 2340421696
I0801 23:20:04.059144  5612 layer_factory.hpp:77] Creating layer fire7/concat_bn
I0801 23:20:04.059144  5612 net.cpp:100] Creating Layer fire7/concat_bn
I0801 23:20:04.059144  5612 net.cpp:434] fire7/concat_bn <- fire7/concat
I0801 23:20:04.059144  5612 net.cpp:395] fire7/concat_bn -> fire7/concat (in-place)
I0801 23:20:04.060144  5612 net.cpp:150] Setting up fire7/concat_bn
I0801 23:20:04.060144  5612 net.cpp:157] Top shape: 32 384 16 24 (4718592)
I0801 23:20:04.060144  5612 net.cpp:165] Memory required for data: 2359296064
I0801 23:20:04.060144  5612 layer_factory.hpp:77] Creating layer fire8/squeeze1x1
I0801 23:20:04.060144  5612 net.cpp:100] Creating Layer fire8/squeeze1x1
I0801 23:20:04.061144  5612 net.cpp:434] fire8/squeeze1x1 <- fire7/concat
I0801 23:20:04.061144  5612 net.cpp:408] fire8/squeeze1x1 -> fire8/squeeze1x1
I0801 23:20:04.062144  5612 net.cpp:150] Setting up fire8/squeeze1x1
I0801 23:20:04.062144  5612 net.cpp:157] Top shape: 32 64 16 24 (786432)
I0801 23:20:04.062144  5612 net.cpp:165] Memory required for data: 2362441792
I0801 23:20:04.063144  5612 layer_factory.hpp:77] Creating layer fire8/relu_squeeze1x1
I0801 23:20:04.063144  5612 net.cpp:100] Creating Layer fire8/relu_squeeze1x1
I0801 23:20:04.063144  5612 net.cpp:434] fire8/relu_squeeze1x1 <- fire8/squeeze1x1
I0801 23:20:04.063144  5612 net.cpp:395] fire8/relu_squeeze1x1 -> fire8/squeeze1x1 (in-place)
I0801 23:20:04.064144  5612 net.cpp:150] Setting up fire8/relu_squeeze1x1
I0801 23:20:04.064144  5612 net.cpp:157] Top shape: 32 64 16 24 (786432)
I0801 23:20:04.064144  5612 net.cpp:165] Memory required for data: 2365587520
I0801 23:20:04.064144  5612 layer_factory.hpp:77] Creating layer fire8/squeeze1x1_fire8/relu_squeeze
1x1_0_split
I0801 23:20:04.065145  5612 net.cpp:100] Creating Layer fire8/squeeze1x1_fire8/relu_squeeze1x1_0_spl
it
I0801 23:20:04.065145  5612 net.cpp:434] fire8/squeeze1x1_fire8/relu_squeeze1x1_0_split <- fire8/squ
eeze1x1
I0801 23:20:04.065145  5612 net.cpp:408] fire8/squeeze1x1_fire8/relu_squeeze1x1_0_split -> fire8/squ
eeze1x1_fire8/relu_squeeze1x1_0_split_0
I0801 23:20:04.066144  5612 net.cpp:408] fire8/squeeze1x1_fire8/relu_squeeze1x1_0_split -> fire8/squ
eeze1x1_fire8/relu_squeeze1x1_0_split_1
I0801 23:20:04.066144  5612 net.cpp:150] Setting up fire8/squeeze1x1_fire8/relu_squeeze1x1_0_split
I0801 23:20:04.066144  5612 net.cpp:157] Top shape: 32 64 16 24 (786432)
I0801 23:20:04.066144  5612 net.cpp:157] Top shape: 32 64 16 24 (786432)
I0801 23:20:04.067144  5612 net.cpp:165] Memory required for data: 2371878976
I0801 23:20:04.067144  5612 layer_factory.hpp:77] Creating layer fire8/expand1x1
I0801 23:20:04.067144  5612 net.cpp:100] Creating Layer fire8/expand1x1
I0801 23:20:04.067144  5612 net.cpp:434] fire8/expand1x1 <- fire8/squeeze1x1_fire8/relu_squeeze1x1_0
_split_0
I0801 23:20:04.068145  5612 net.cpp:408] fire8/expand1x1 -> fire8/expand1x1
I0801 23:20:04.069144  5612 net.cpp:150] Setting up fire8/expand1x1
I0801 23:20:04.069144  5612 net.cpp:157] Top shape: 32 256 16 24 (3145728)
I0801 23:20:04.069144  5612 net.cpp:165] Memory required for data: 2384461888
I0801 23:20:04.069144  5612 layer_factory.hpp:77] Creating layer fire8/relu_expand1x1
I0801 23:20:04.070144  5612 net.cpp:100] Creating Layer fire8/relu_expand1x1
I0801 23:20:04.070144  5612 net.cpp:434] fire8/relu_expand1x1 <- fire8/expand1x1
I0801 23:20:04.070144  5612 net.cpp:395] fire8/relu_expand1x1 -> fire8/expand1x1 (in-place)
I0801 23:20:04.070144  5612 net.cpp:150] Setting up fire8/relu_expand1x1
I0801 23:20:04.071144  5612 net.cpp:157] Top shape: 32 256 16 24 (3145728)
I0801 23:20:04.071144  5612 net.cpp:165] Memory required for data: 2397044800
I0801 23:20:04.071144  5612 layer_factory.hpp:77] Creating layer fire8/expand3x3
I0801 23:20:04.071144  5612 net.cpp:100] Creating Layer fire8/expand3x3
I0801 23:20:04.071144  5612 net.cpp:434] fire8/expand3x3 <- fire8/squeeze1x1_fire8/relu_squeeze1x1_0
_split_1
I0801 23:20:04.072144  5612 net.cpp:408] fire8/expand3x3 -> fire8/expand3x3
I0801 23:20:04.074146  5612 net.cpp:150] Setting up fire8/expand3x3
I0801 23:20:04.075145  5612 net.cpp:157] Top shape: 32 256 16 24 (3145728)
I0801 23:20:04.075145  5612 net.cpp:165] Memory required for data: 2409627712
I0801 23:20:04.075145  5612 layer_factory.hpp:77] Creating layer fire8/relu_expand3x3
I0801 23:20:04.075145  5612 net.cpp:100] Creating Layer fire8/relu_expand3x3
I0801 23:20:04.075145  5612 net.cpp:434] fire8/relu_expand3x3 <- fire8/expand3x3
I0801 23:20:04.076145  5612 net.cpp:395] fire8/relu_expand3x3 -> fire8/expand3x3 (in-place)
I0801 23:20:04.076145  5612 net.cpp:150] Setting up fire8/relu_expand3x3
I0801 23:20:04.076145  5612 net.cpp:157] Top shape: 32 256 16 24 (3145728)
I0801 23:20:04.077145  5612 net.cpp:165] Memory required for data: 2422210624
I0801 23:20:04.077145  5612 layer_factory.hpp:77] Creating layer fire8/concat
I0801 23:20:04.077145  5612 net.cpp:100] Creating Layer fire8/concat
I0801 23:20:04.077145  5612 net.cpp:434] fire8/concat <- fire8/expand1x1
I0801 23:20:04.077145  5612 net.cpp:434] fire8/concat <- fire8/expand3x3
I0801 23:20:04.078145  5612 net.cpp:408] fire8/concat -> fire8/concat
I0801 23:20:04.078145  5612 net.cpp:150] Setting up fire8/concat
I0801 23:20:04.078145  5612 net.cpp:157] Top shape: 32 512 16 24 (6291456)
I0801 23:20:04.078145  5612 net.cpp:165] Memory required for data: 2447376448
I0801 23:20:04.078145  5612 layer_factory.hpp:77] Creating layer fire8/concat_bn
I0801 23:20:04.079145  5612 net.cpp:100] Creating Layer fire8/concat_bn
I0801 23:20:04.079145  5612 net.cpp:434] fire8/concat_bn <- fire8/concat
I0801 23:20:04.079145  5612 net.cpp:395] fire8/concat_bn -> fire8/concat (in-place)
I0801 23:20:04.079145  5612 net.cpp:150] Setting up fire8/concat_bn
I0801 23:20:04.080145  5612 net.cpp:157] Top shape: 32 512 16 24 (6291456)
I0801 23:20:04.080145  5612 net.cpp:165] Memory required for data: 2472542272
I0801 23:20:04.080145  5612 layer_factory.hpp:77] Creating layer fire9/squeeze1x1
I0801 23:20:04.080145  5612 net.cpp:100] Creating Layer fire9/squeeze1x1
I0801 23:20:04.080145  5612 net.cpp:434] fire9/squeeze1x1 <- fire8/concat
I0801 23:20:04.081146  5612 net.cpp:408] fire9/squeeze1x1 -> fire9/squeeze1x1
I0801 23:20:04.082145  5612 net.cpp:150] Setting up fire9/squeeze1x1
I0801 23:20:04.082145  5612 net.cpp:157] Top shape: 32 64 16 24 (786432)
I0801 23:20:04.083145  5612 net.cpp:165] Memory required for data: 2475688000
I0801 23:20:04.083145  5612 layer_factory.hpp:77] Creating layer fire9/relu_squeeze1x1
I0801 23:20:04.083145  5612 net.cpp:100] Creating Layer fire9/relu_squeeze1x1
I0801 23:20:04.083145  5612 net.cpp:434] fire9/relu_squeeze1x1 <- fire9/squeeze1x1
I0801 23:20:04.083145  5612 net.cpp:395] fire9/relu_squeeze1x1 -> fire9/squeeze1x1 (in-place)
I0801 23:20:04.084146  5612 net.cpp:150] Setting up fire9/relu_squeeze1x1
I0801 23:20:04.084146  5612 net.cpp:157] Top shape: 32 64 16 24 (786432)
I0801 23:20:04.084146  5612 net.cpp:165] Memory required for data: 2478833728
I0801 23:20:04.085145  5612 layer_factory.hpp:77] Creating layer fire9/squeeze1x1_fire9/relu_squeeze
1x1_0_split
I0801 23:20:04.085145  5612 net.cpp:100] Creating Layer fire9/squeeze1x1_fire9/relu_squeeze1x1_0_spl
it
I0801 23:20:04.085145  5612 net.cpp:434] fire9/squeeze1x1_fire9/relu_squeeze1x1_0_split <- fire9/squ
eeze1x1
I0801 23:20:04.086145  5612 net.cpp:408] fire9/squeeze1x1_fire9/relu_squeeze1x1_0_split -> fire9/squ
eeze1x1_fire9/relu_squeeze1x1_0_split_0
I0801 23:20:04.086145  5612 net.cpp:408] fire9/squeeze1x1_fire9/relu_squeeze1x1_0_split -> fire9/squ
eeze1x1_fire9/relu_squeeze1x1_0_split_1
I0801 23:20:04.086145  5612 net.cpp:150] Setting up fire9/squeeze1x1_fire9/relu_squeeze1x1_0_split
I0801 23:20:04.086145  5612 net.cpp:157] Top shape: 32 64 16 24 (786432)
I0801 23:20:04.087146  5612 net.cpp:157] Top shape: 32 64 16 24 (786432)
I0801 23:20:04.087146  5612 net.cpp:165] Memory required for data: 2485125184
I0801 23:20:04.087146  5612 layer_factory.hpp:77] Creating layer fire9/expand1x1
I0801 23:20:04.087146  5612 net.cpp:100] Creating Layer fire9/expand1x1
I0801 23:20:04.087146  5612 net.cpp:434] fire9/expand1x1 <- fire9/squeeze1x1_fire9/relu_squeeze1x1_0
_split_0
I0801 23:20:04.088145  5612 net.cpp:408] fire9/expand1x1 -> fire9/expand1x1
I0801 23:20:04.089145  5612 net.cpp:150] Setting up fire9/expand1x1
I0801 23:20:04.089145  5612 net.cpp:157] Top shape: 32 256 16 24 (3145728)
I0801 23:20:04.089145  5612 net.cpp:165] Memory required for data: 2497708096
I0801 23:20:04.090147  5612 layer_factory.hpp:77] Creating layer fire9/relu_expand1x1
I0801 23:20:04.090147  5612 net.cpp:100] Creating Layer fire9/relu_expand1x1
I0801 23:20:04.090147  5612 net.cpp:434] fire9/relu_expand1x1 <- fire9/expand1x1
I0801 23:20:04.090147  5612 net.cpp:395] fire9/relu_expand1x1 -> fire9/expand1x1 (in-place)
I0801 23:20:04.091146  5612 net.cpp:150] Setting up fire9/relu_expand1x1
I0801 23:20:04.091146  5612 net.cpp:157] Top shape: 32 256 16 24 (3145728)
I0801 23:20:04.091146  5612 net.cpp:165] Memory required for data: 2510291008
I0801 23:20:04.091146  5612 layer_factory.hpp:77] Creating layer fire9/expand3x3
I0801 23:20:04.091146  5612 net.cpp:100] Creating Layer fire9/expand3x3
I0801 23:20:04.092146  5612 net.cpp:434] fire9/expand3x3 <- fire9/squeeze1x1_fire9/relu_squeeze1x1_0
_split_1
I0801 23:20:04.092146  5612 net.cpp:408] fire9/expand3x3 -> fire9/expand3x3
I0801 23:20:04.095146  5612 net.cpp:150] Setting up fire9/expand3x3
I0801 23:20:04.095146  5612 net.cpp:157] Top shape: 32 256 16 24 (3145728)
I0801 23:20:04.095146  5612 net.cpp:165] Memory required for data: 2522873920
I0801 23:20:04.095146  5612 layer_factory.hpp:77] Creating layer fire9/relu_expand3x3
I0801 23:20:04.096146  5612 net.cpp:100] Creating Layer fire9/relu_expand3x3
I0801 23:20:04.096146  5612 net.cpp:434] fire9/relu_expand3x3 <- fire9/expand3x3
I0801 23:20:04.096146  5612 net.cpp:395] fire9/relu_expand3x3 -> fire9/expand3x3 (in-place)
I0801 23:20:04.096146  5612 net.cpp:150] Setting up fire9/relu_expand3x3
I0801 23:20:04.097146  5612 net.cpp:157] Top shape: 32 256 16 24 (3145728)
I0801 23:20:04.097146  5612 net.cpp:165] Memory required for data: 2535456832
I0801 23:20:04.097146  5612 layer_factory.hpp:77] Creating layer fire9/concat
I0801 23:20:04.097146  5612 net.cpp:100] Creating Layer fire9/concat
I0801 23:20:04.097146  5612 net.cpp:434] fire9/concat <- fire9/expand1x1
I0801 23:20:04.098146  5612 net.cpp:434] fire9/concat <- fire9/expand3x3
I0801 23:20:04.098146  5612 net.cpp:408] fire9/concat -> fire9/concat
I0801 23:20:04.098146  5612 net.cpp:150] Setting up fire9/concat
I0801 23:20:04.098146  5612 net.cpp:157] Top shape: 32 512 16 24 (6291456)
I0801 23:20:04.099146  5612 net.cpp:165] Memory required for data: 2560622656
I0801 23:20:04.099146  5612 layer_factory.hpp:77] Creating layer fire9/concat_bn
I0801 23:20:04.099146  5612 net.cpp:100] Creating Layer fire9/concat_bn
I0801 23:20:04.099146  5612 net.cpp:434] fire9/concat_bn <- fire9/concat
I0801 23:20:04.099146  5612 net.cpp:395] fire9/concat_bn -> fire9/concat (in-place)
I0801 23:20:04.100147  5612 net.cpp:150] Setting up fire9/concat_bn
I0801 23:20:04.100147  5612 net.cpp:157] Top shape: 32 512 16 24 (6291456)
I0801 23:20:04.100147  5612 net.cpp:165] Memory required for data: 2585788480
I0801 23:20:04.100147  5612 layer_factory.hpp:77] Creating layer fire9/concat_fire9/concat_bn_0_spli
t
I0801 23:20:04.101146  5612 net.cpp:100] Creating Layer fire9/concat_fire9/concat_bn_0_split
I0801 23:20:04.101146  5612 net.cpp:434] fire9/concat_fire9/concat_bn_0_split <- fire9/concat
I0801 23:20:04.101146  5612 net.cpp:408] fire9/concat_fire9/concat_bn_0_split -> fire9/concat_fire9/
concat_bn_0_split_0
I0801 23:20:04.101146  5612 net.cpp:408] fire9/concat_fire9/concat_bn_0_split -> fire9/concat_fire9/
concat_bn_0_split_1
I0801 23:20:04.102146  5612 net.cpp:408] fire9/concat_fire9/concat_bn_0_split -> fire9/concat_fire9/
concat_bn_0_split_2
I0801 23:20:04.102146  5612 net.cpp:408] fire9/concat_fire9/concat_bn_0_split -> fire9/concat_fire9/
concat_bn_0_split_3
I0801 23:20:04.102146  5612 net.cpp:150] Setting up fire9/concat_fire9/concat_bn_0_split
I0801 23:20:04.103147  5612 net.cpp:157] Top shape: 32 512 16 24 (6291456)
I0801 23:20:04.103147  5612 net.cpp:157] Top shape: 32 512 16 24 (6291456)
I0801 23:20:04.103147  5612 net.cpp:157] Top shape: 32 512 16 24 (6291456)
I0801 23:20:04.103147  5612 net.cpp:157] Top shape: 32 512 16 24 (6291456)
I0801 23:20:04.103147  5612 net.cpp:165] Memory required for data: 2686451776
I0801 23:20:04.104146  5612 layer_factory.hpp:77] Creating layer conv6_1
I0801 23:20:04.104146  5612 net.cpp:100] Creating Layer conv6_1
I0801 23:20:04.104146  5612 net.cpp:434] conv6_1 <- fire9/concat_fire9/concat_bn_0_split_0
I0801 23:20:04.104146  5612 net.cpp:408] conv6_1 -> conv6_1
I0801 23:20:04.107146  5612 net.cpp:150] Setting up conv6_1
I0801 23:20:04.107146  5612 net.cpp:157] Top shape: 32 256 16 24 (3145728)
I0801 23:20:04.107146  5612 net.cpp:165] Memory required for data: 2699034688
I0801 23:20:04.107146  5612 layer_factory.hpp:77] Creating layer conv6_1_relu
I0801 23:20:04.108147  5612 net.cpp:100] Creating Layer conv6_1_relu
I0801 23:20:04.108147  5612 net.cpp:434] conv6_1_relu <- conv6_1
I0801 23:20:04.108147  5612 net.cpp:395] conv6_1_relu -> conv6_1 (in-place)
I0801 23:20:04.109148  5612 net.cpp:150] Setting up conv6_1_relu
I0801 23:20:04.109148  5612 net.cpp:157] Top shape: 32 256 16 24 (3145728)
I0801 23:20:04.109148  5612 net.cpp:165] Memory required for data: 2711617600
I0801 23:20:04.109148  5612 layer_factory.hpp:77] Creating layer conv6_1_bn
I0801 23:20:04.109148  5612 net.cpp:100] Creating Layer conv6_1_bn
I0801 23:20:04.110147  5612 net.cpp:434] conv6_1_bn <- conv6_1
I0801 23:20:04.110147  5612 net.cpp:395] conv6_1_bn -> conv6_1 (in-place)
I0801 23:20:04.110147  5612 net.cpp:150] Setting up conv6_1_bn
I0801 23:20:04.110147  5612 net.cpp:157] Top shape: 32 256 16 24 (3145728)
I0801 23:20:04.111147  5612 net.cpp:165] Memory required for data: 2724200512
I0801 23:20:04.111147  5612 layer_factory.hpp:77] Creating layer conv6_2
I0801 23:20:04.111147  5612 net.cpp:100] Creating Layer conv6_2
I0801 23:20:04.111147  5612 net.cpp:434] conv6_2 <- conv6_1
I0801 23:20:04.111147  5612 net.cpp:408] conv6_2 -> conv6_2
I0801 23:20:04.123147  5612 net.cpp:150] Setting up conv6_2
I0801 23:20:04.123147  5612 net.cpp:157] Top shape: 32 512 8 12 (1572864)
I0801 23:20:04.124147  5612 net.cpp:165] Memory required for data: 2730491968
I0801 23:20:04.124147  5612 layer_factory.hpp:77] Creating layer conv6_2_relu
I0801 23:20:04.124147  5612 net.cpp:100] Creating Layer conv6_2_relu
I0801 23:20:04.124147  5612 net.cpp:434] conv6_2_relu <- conv6_2
I0801 23:20:04.124147  5612 net.cpp:395] conv6_2_relu -> conv6_2 (in-place)
I0801 23:20:04.125149  5612 net.cpp:150] Setting up conv6_2_relu
I0801 23:20:04.125149  5612 net.cpp:157] Top shape: 32 512 8 12 (1572864)
I0801 23:20:04.125149  5612 net.cpp:165] Memory required for data: 2736783424
I0801 23:20:04.125149  5612 layer_factory.hpp:77] Creating layer conv6_2_bn
I0801 23:20:04.126148  5612 net.cpp:100] Creating Layer conv6_2_bn
I0801 23:20:04.126148  5612 net.cpp:434] conv6_2_bn <- conv6_2
I0801 23:20:04.126148  5612 net.cpp:395] conv6_2_bn -> conv6_2 (in-place)
I0801 23:20:04.126148  5612 net.cpp:150] Setting up conv6_2_bn
I0801 23:20:04.127148  5612 net.cpp:157] Top shape: 32 512 8 12 (1572864)
I0801 23:20:04.127148  5612 net.cpp:165] Memory required for data: 2743074880
I0801 23:20:04.127148  5612 layer_factory.hpp:77] Creating layer conv6_2_conv6_2_bn_0_split
I0801 23:20:04.127148  5612 net.cpp:100] Creating Layer conv6_2_conv6_2_bn_0_split
I0801 23:20:04.127148  5612 net.cpp:434] conv6_2_conv6_2_bn_0_split <- conv6_2
I0801 23:20:04.128149  5612 net.cpp:408] conv6_2_conv6_2_bn_0_split -> conv6_2_conv6_2_bn_0_split_0
I0801 23:20:04.128149  5612 net.cpp:408] conv6_2_conv6_2_bn_0_split -> conv6_2_conv6_2_bn_0_split_1
I0801 23:20:04.128149  5612 net.cpp:408] conv6_2_conv6_2_bn_0_split -> conv6_2_conv6_2_bn_0_split_2
I0801 23:20:04.128149  5612 net.cpp:408] conv6_2_conv6_2_bn_0_split -> conv6_2_conv6_2_bn_0_split_3
I0801 23:20:04.128149  5612 net.cpp:150] Setting up conv6_2_conv6_2_bn_0_split
I0801 23:20:04.129148  5612 net.cpp:157] Top shape: 32 512 8 12 (1572864)
I0801 23:20:04.129148  5612 net.cpp:157] Top shape: 32 512 8 12 (1572864)
I0801 23:20:04.129148  5612 net.cpp:157] Top shape: 32 512 8 12 (1572864)
I0801 23:20:04.129148  5612 net.cpp:157] Top shape: 32 512 8 12 (1572864)
I0801 23:20:04.129148  5612 net.cpp:165] Memory required for data: 2768240704
I0801 23:20:04.130148  5612 layer_factory.hpp:77] Creating layer conv7_1
I0801 23:20:04.130148  5612 net.cpp:100] Creating Layer conv7_1
I0801 23:20:04.130148  5612 net.cpp:434] conv7_1 <- conv6_2_conv6_2_bn_0_split_0
I0801 23:20:04.130148  5612 net.cpp:408] conv7_1 -> conv7_1
I0801 23:20:04.132148  5612 net.cpp:150] Setting up conv7_1
I0801 23:20:04.132148  5612 net.cpp:157] Top shape: 32 128 8 12 (393216)
I0801 23:20:04.132148  5612 net.cpp:165] Memory required for data: 2769813568
I0801 23:20:04.133148  5612 layer_factory.hpp:77] Creating layer conv7_1_relu
I0801 23:20:04.133148  5612 net.cpp:100] Creating Layer conv7_1_relu
I0801 23:20:04.133148  5612 net.cpp:434] conv7_1_relu <- conv7_1
I0801 23:20:04.133148  5612 net.cpp:395] conv7_1_relu -> conv7_1 (in-place)
I0801 23:20:04.134148  5612 net.cpp:150] Setting up conv7_1_relu
I0801 23:20:04.134148  5612 net.cpp:157] Top shape: 32 128 8 12 (393216)
I0801 23:20:04.134148  5612 net.cpp:165] Memory required for data: 2771386432
I0801 23:20:04.134148  5612 layer_factory.hpp:77] Creating layer conv7_1_bn
I0801 23:20:04.135149  5612 net.cpp:100] Creating Layer conv7_1_bn
I0801 23:20:04.135149  5612 net.cpp:434] conv7_1_bn <- conv7_1
I0801 23:20:04.135149  5612 net.cpp:395] conv7_1_bn -> conv7_1 (in-place)
I0801 23:20:04.135149  5612 net.cpp:150] Setting up conv7_1_bn
I0801 23:20:04.136148  5612 net.cpp:157] Top shape: 32 128 8 12 (393216)
I0801 23:20:04.136148  5612 net.cpp:165] Memory required for data: 2772959296
I0801 23:20:04.136148  5612 layer_factory.hpp:77] Creating layer conv7_2
I0801 23:20:04.136148  5612 net.cpp:100] Creating Layer conv7_2
I0801 23:20:04.136148  5612 net.cpp:434] conv7_2 <- conv7_1
I0801 23:20:04.137148  5612 net.cpp:408] conv7_2 -> conv7_2
I0801 23:20:04.141149  5612 net.cpp:150] Setting up conv7_2
I0801 23:20:04.141149  5612 net.cpp:157] Top shape: 32 256 4 6 (196608)
I0801 23:20:04.141149  5612 net.cpp:165] Memory required for data: 2773745728
I0801 23:20:04.141149  5612 layer_factory.hpp:77] Creating layer conv7_2_relu
I0801 23:20:04.141149  5612 net.cpp:100] Creating Layer conv7_2_relu
I0801 23:20:04.141149  5612 net.cpp:434] conv7_2_relu <- conv7_2
I0801 23:20:04.142148  5612 net.cpp:395] conv7_2_relu -> conv7_2 (in-place)
I0801 23:20:04.142148  5612 net.cpp:150] Setting up conv7_2_relu
I0801 23:20:04.142148  5612 net.cpp:157] Top shape: 32 256 4 6 (196608)
I0801 23:20:04.143149  5612 net.cpp:165] Memory required for data: 2774532160
I0801 23:20:04.143149  5612 layer_factory.hpp:77] Creating layer conv7_2_bn
I0801 23:20:04.143149  5612 net.cpp:100] Creating Layer conv7_2_bn
I0801 23:20:04.143149  5612 net.cpp:434] conv7_2_bn <- conv7_2
I0801 23:20:04.143149  5612 net.cpp:395] conv7_2_bn -> conv7_2 (in-place)
I0801 23:20:04.144150  5612 net.cpp:150] Setting up conv7_2_bn
I0801 23:20:04.144150  5612 net.cpp:157] Top shape: 32 256 4 6 (196608)
I0801 23:20:04.144150  5612 net.cpp:165] Memory required for data: 2775318592
I0801 23:20:04.144150  5612 layer_factory.hpp:77] Creating layer conv7_2_conv7_2_bn_0_split
I0801 23:20:04.145149  5612 net.cpp:100] Creating Layer conv7_2_conv7_2_bn_0_split
I0801 23:20:04.145149  5612 net.cpp:434] conv7_2_conv7_2_bn_0_split <- conv7_2
I0801 23:20:04.145149  5612 net.cpp:408] conv7_2_conv7_2_bn_0_split -> conv7_2_conv7_2_bn_0_split_0
I0801 23:20:04.145149  5612 net.cpp:408] conv7_2_conv7_2_bn_0_split -> conv7_2_conv7_2_bn_0_split_1
I0801 23:20:04.145149  5612 net.cpp:408] conv7_2_conv7_2_bn_0_split -> conv7_2_conv7_2_bn_0_split_2
I0801 23:20:04.146149  5612 net.cpp:408] conv7_2_conv7_2_bn_0_split -> conv7_2_conv7_2_bn_0_split_3
I0801 23:20:04.146149  5612 net.cpp:150] Setting up conv7_2_conv7_2_bn_0_split
I0801 23:20:04.146149  5612 net.cpp:157] Top shape: 32 256 4 6 (196608)
I0801 23:20:04.146149  5612 net.cpp:157] Top shape: 32 256 4 6 (196608)
I0801 23:20:04.146149  5612 net.cpp:157] Top shape: 32 256 4 6 (196608)
I0801 23:20:04.147150  5612 net.cpp:157] Top shape: 32 256 4 6 (196608)
I0801 23:20:04.147150  5612 net.cpp:165] Memory required for data: 2778464320
I0801 23:20:04.147150  5612 layer_factory.hpp:77] Creating layer conv8_1
I0801 23:20:04.147150  5612 net.cpp:100] Creating Layer conv8_1
I0801 23:20:04.147150  5612 net.cpp:434] conv8_1 <- conv7_2_conv7_2_bn_0_split_0
I0801 23:20:04.148149  5612 net.cpp:408] conv8_1 -> conv8_1
I0801 23:20:04.150149  5612 net.cpp:150] Setting up conv8_1
I0801 23:20:04.150149  5612 net.cpp:157] Top shape: 32 128 4 6 (98304)
I0801 23:20:04.150149  5612 net.cpp:165] Memory required for data: 2778857536
I0801 23:20:04.150149  5612 layer_factory.hpp:77] Creating layer conv8_1_relu
I0801 23:20:04.150149  5612 net.cpp:100] Creating Layer conv8_1_relu
I0801 23:20:04.150149  5612 net.cpp:434] conv8_1_relu <- conv8_1
I0801 23:20:04.151149  5612 net.cpp:395] conv8_1_relu -> conv8_1 (in-place)
I0801 23:20:04.151149  5612 net.cpp:150] Setting up conv8_1_relu
I0801 23:20:04.151149  5612 net.cpp:157] Top shape: 32 128 4 6 (98304)
I0801 23:20:04.152149  5612 net.cpp:165] Memory required for data: 2779250752
I0801 23:20:04.152149  5612 layer_factory.hpp:77] Creating layer conv8_1_bn
I0801 23:20:04.152149  5612 net.cpp:100] Creating Layer conv8_1_bn
I0801 23:20:04.152149  5612 net.cpp:434] conv8_1_bn <- conv8_1
I0801 23:20:04.152149  5612 net.cpp:395] conv8_1_bn -> conv8_1 (in-place)
I0801 23:20:04.153149  5612 net.cpp:150] Setting up conv8_1_bn
I0801 23:20:04.153149  5612 net.cpp:157] Top shape: 32 128 4 6 (98304)
I0801 23:20:04.153149  5612 net.cpp:165] Memory required for data: 2779643968
I0801 23:20:04.153149  5612 layer_factory.hpp:77] Creating layer conv8_2
I0801 23:20:04.154150  5612 net.cpp:100] Creating Layer conv8_2
I0801 23:20:04.154150  5612 net.cpp:434] conv8_2 <- conv8_1
I0801 23:20:04.154150  5612 net.cpp:408] conv8_2 -> conv8_2
I0801 23:20:04.158149  5612 net.cpp:150] Setting up conv8_2
I0801 23:20:04.158149  5612 net.cpp:157] Top shape: 32 256 2 3 (49152)
I0801 23:20:04.159149  5612 net.cpp:165] Memory required for data: 2779840576
I0801 23:20:04.159149  5612 layer_factory.hpp:77] Creating layer conv8_2_relu
I0801 23:20:04.159149  5612 net.cpp:100] Creating Layer conv8_2_relu
I0801 23:20:04.159149  5612 net.cpp:434] conv8_2_relu <- conv8_2
I0801 23:20:04.159149  5612 net.cpp:395] conv8_2_relu -> conv8_2 (in-place)
I0801 23:20:04.160151  5612 net.cpp:150] Setting up conv8_2_relu
I0801 23:20:04.160151  5612 net.cpp:157] Top shape: 32 256 2 3 (49152)
I0801 23:20:04.160151  5612 net.cpp:165] Memory required for data: 2780037184
I0801 23:20:04.160151  5612 layer_factory.hpp:77] Creating layer conv8_2_bn
I0801 23:20:04.161150  5612 net.cpp:100] Creating Layer conv8_2_bn
I0801 23:20:04.161150  5612 net.cpp:434] conv8_2_bn <- conv8_2
I0801 23:20:04.161150  5612 net.cpp:395] conv8_2_bn -> conv8_2 (in-place)
I0801 23:20:04.162150  5612 net.cpp:150] Setting up conv8_2_bn
I0801 23:20:04.162150  5612 net.cpp:157] Top shape: 32 256 2 3 (49152)
I0801 23:20:04.162150  5612 net.cpp:165] Memory required for data: 2780233792
I0801 23:20:04.162150  5612 layer_factory.hpp:77] Creating layer conv8_2_conv8_2_bn_0_split
I0801 23:20:04.163151  5612 net.cpp:100] Creating Layer conv8_2_conv8_2_bn_0_split
I0801 23:20:04.163151  5612 net.cpp:434] conv8_2_conv8_2_bn_0_split <- conv8_2
I0801 23:20:04.163151  5612 net.cpp:408] conv8_2_conv8_2_bn_0_split -> conv8_2_conv8_2_bn_0_split_0
I0801 23:20:04.163151  5612 net.cpp:408] conv8_2_conv8_2_bn_0_split -> conv8_2_conv8_2_bn_0_split_1
I0801 23:20:04.163151  5612 net.cpp:408] conv8_2_conv8_2_bn_0_split -> conv8_2_conv8_2_bn_0_split_2
I0801 23:20:04.164150  5612 net.cpp:408] conv8_2_conv8_2_bn_0_split -> conv8_2_conv8_2_bn_0_split_3
I0801 23:20:04.164150  5612 net.cpp:150] Setting up conv8_2_conv8_2_bn_0_split
I0801 23:20:04.164150  5612 net.cpp:157] Top shape: 32 256 2 3 (49152)
I0801 23:20:04.164150  5612 net.cpp:157] Top shape: 32 256 2 3 (49152)
I0801 23:20:04.164150  5612 net.cpp:157] Top shape: 32 256 2 3 (49152)
I0801 23:20:04.165150  5612 net.cpp:157] Top shape: 32 256 2 3 (49152)
I0801 23:20:04.165150  5612 net.cpp:165] Memory required for data: 2781020224
I0801 23:20:04.165150  5612 layer_factory.hpp:77] Creating layer pool6
I0801 23:20:04.165150  5612 net.cpp:100] Creating Layer pool6
I0801 23:20:04.165150  5612 net.cpp:434] pool6 <- conv8_2_conv8_2_bn_0_split_0
I0801 23:20:04.166151  5612 net.cpp:408] pool6 -> pool6
I0801 23:20:04.166151  5612 net.cpp:150] Setting up pool6
I0801 23:20:04.166151  5612 net.cpp:157] Top shape: 32 256 1 1 (8192)
I0801 23:20:04.166151  5612 net.cpp:165] Memory required for data: 2781052992
I0801 23:20:04.167150  5612 layer_factory.hpp:77] Creating layer pool6_pool6_0_split
I0801 23:20:04.167150  5612 net.cpp:100] Creating Layer pool6_pool6_0_split
I0801 23:20:04.167150  5612 net.cpp:434] pool6_pool6_0_split <- pool6
I0801 23:20:04.167150  5612 net.cpp:408] pool6_pool6_0_split -> pool6_pool6_0_split_0
I0801 23:20:04.167150  5612 net.cpp:408] pool6_pool6_0_split -> pool6_pool6_0_split_1
I0801 23:20:04.168150  5612 net.cpp:408] pool6_pool6_0_split -> pool6_pool6_0_split_2
I0801 23:20:04.168150  5612 net.cpp:150] Setting up pool6_pool6_0_split
I0801 23:20:04.168150  5612 net.cpp:157] Top shape: 32 256 1 1 (8192)
I0801 23:20:04.168150  5612 net.cpp:157] Top shape: 32 256 1 1 (8192)
I0801 23:20:04.169150  5612 net.cpp:157] Top shape: 32 256 1 1 (8192)
I0801 23:20:04.169150  5612 net.cpp:165] Memory required for data: 2781151296
I0801 23:20:04.169150  5612 layer_factory.hpp:77] Creating layer conv4_3_norm_1
I0801 23:20:04.169150  5612 net.cpp:100] Creating Layer conv4_3_norm_1
I0801 23:20:04.169150  5612 net.cpp:434] conv4_3_norm_1 <- fire5/concat_fire5/concat_0_split_1
I0801 23:20:04.170150  5612 net.cpp:408] conv4_3_norm_1 -> conv4_3_norm_1
I0801 23:20:04.170150  5612 net.cpp:150] Setting up conv4_3_norm_1
I0801 23:20:04.170150  5612 net.cpp:157] Top shape: 32 256 32 48 (12582912)
I0801 23:20:04.170150  5612 net.cpp:165] Memory required for data: 2831482944
I0801 23:20:04.171150  5612 layer_factory.hpp:77] Creating layer conv4_3_norm_1_conv4_3_norm_1_0_spl
it
I0801 23:20:04.171150  5612 net.cpp:100] Creating Layer conv4_3_norm_1_conv4_3_norm_1_0_split
I0801 23:20:04.171150  5612 net.cpp:434] conv4_3_norm_1_conv4_3_norm_1_0_split <- conv4_3_norm_1
I0801 23:20:04.171150  5612 net.cpp:408] conv4_3_norm_1_conv4_3_norm_1_0_split -> conv4_3_norm_1_con
v4_3_norm_1_0_split_0
I0801 23:20:04.172150  5612 net.cpp:408] conv4_3_norm_1_conv4_3_norm_1_0_split -> conv4_3_norm_1_con
v4_3_norm_1_0_split_1
I0801 23:20:04.172150  5612 net.cpp:408] conv4_3_norm_1_conv4_3_norm_1_0_split -> conv4_3_norm_1_con
v4_3_norm_1_0_split_2
I0801 23:20:04.172150  5612 net.cpp:150] Setting up conv4_3_norm_1_conv4_3_norm_1_0_split
I0801 23:20:04.172150  5612 net.cpp:157] Top shape: 32 256 32 48 (12582912)
I0801 23:20:04.173151  5612 net.cpp:157] Top shape: 32 256 32 48 (12582912)
I0801 23:20:04.173151  5612 net.cpp:157] Top shape: 32 256 32 48 (12582912)
I0801 23:20:04.173151  5612 net.cpp:165] Memory required for data: 2982477888
I0801 23:20:04.173151  5612 layer_factory.hpp:77] Creating layer conv4_3_norm_mbox_loc_1
I0801 23:20:04.173151  5612 net.cpp:100] Creating Layer conv4_3_norm_mbox_loc_1
I0801 23:20:04.174150  5612 net.cpp:434] conv4_3_norm_mbox_loc_1 <- conv4_3_norm_1_conv4_3_norm_1_0_
split_0
I0801 23:20:04.174150  5612 net.cpp:408] conv4_3_norm_mbox_loc_1 -> conv4_3_norm_mbox_loc_1
I0801 23:20:04.176151  5612 net.cpp:150] Setting up conv4_3_norm_mbox_loc_1
I0801 23:20:04.176151  5612 net.cpp:157] Top shape: 32 24 32 48 (1179648)
I0801 23:20:04.176151  5612 net.cpp:165] Memory required for data: 2987196480
I0801 23:20:04.176151  5612 layer_factory.hpp:77] Creating layer conv4_3_norm_mbox_loc_perm_1
I0801 23:20:04.176151  5612 net.cpp:100] Creating Layer conv4_3_norm_mbox_loc_perm_1
I0801 23:20:04.177150  5612 net.cpp:434] conv4_3_norm_mbox_loc_perm_1 <- conv4_3_norm_mbox_loc_1
I0801 23:20:04.177150  5612 net.cpp:408] conv4_3_norm_mbox_loc_perm_1 -> conv4_3_norm_mbox_loc_perm_
1
I0801 23:20:04.177150  5612 net.cpp:150] Setting up conv4_3_norm_mbox_loc_perm_1
I0801 23:20:04.178151  5612 net.cpp:157] Top shape: 32 32 48 24 (1179648)
I0801 23:20:04.178151  5612 net.cpp:165] Memory required for data: 2991915072
I0801 23:20:04.178151  5612 layer_factory.hpp:77] Creating layer conv4_3_norm_mbox_loc_flat_1
I0801 23:20:04.178151  5612 net.cpp:100] Creating Layer conv4_3_norm_mbox_loc_flat_1
I0801 23:20:04.178151  5612 net.cpp:434] conv4_3_norm_mbox_loc_flat_1 <- conv4_3_norm_mbox_loc_perm_
1
I0801 23:20:04.179152  5612 net.cpp:408] conv4_3_norm_mbox_loc_flat_1 -> conv4_3_norm_mbox_loc_flat_
1
I0801 23:20:04.179152  5612 net.cpp:150] Setting up conv4_3_norm_mbox_loc_flat_1
I0801 23:20:04.179152  5612 net.cpp:157] Top shape: 32 36864 (1179648)
I0801 23:20:04.179152  5612 net.cpp:165] Memory required for data: 2996633664
I0801 23:20:04.180151  5612 layer_factory.hpp:77] Creating layer conv4_3_norm_mbox_conf_1
I0801 23:20:04.180151  5612 net.cpp:100] Creating Layer conv4_3_norm_mbox_conf_1
I0801 23:20:04.180151  5612 net.cpp:434] conv4_3_norm_mbox_conf_1 <- conv4_3_norm_1_conv4_3_norm_1_0
_split_1
I0801 23:20:04.180151  5612 net.cpp:408] conv4_3_norm_mbox_conf_1 -> conv4_3_norm_mbox_conf_1
I0801 23:20:04.182152  5612 net.cpp:150] Setting up conv4_3_norm_mbox_conf_1
I0801 23:20:04.182152  5612 net.cpp:157] Top shape: 32 12 32 48 (589824)
I0801 23:20:04.182152  5612 net.cpp:165] Memory required for data: 2998992960
I0801 23:20:04.183151  5612 layer_factory.hpp:77] Creating layer conv4_3_norm_mbox_conf_perm_1
I0801 23:20:04.183151  5612 net.cpp:100] Creating Layer conv4_3_norm_mbox_conf_perm_1
I0801 23:20:04.183151  5612 net.cpp:434] conv4_3_norm_mbox_conf_perm_1 <- conv4_3_norm_mbox_conf_1
I0801 23:20:04.183151  5612 net.cpp:408] conv4_3_norm_mbox_conf_perm_1 -> conv4_3_norm_mbox_conf_per
m_1
I0801 23:20:04.184151  5612 net.cpp:150] Setting up conv4_3_norm_mbox_conf_perm_1
I0801 23:20:04.184151  5612 net.cpp:157] Top shape: 32 32 48 12 (589824)
I0801 23:20:04.184151  5612 net.cpp:165] Memory required for data: 3001352256
I0801 23:20:04.184151  5612 layer_factory.hpp:77] Creating layer conv4_3_norm_mbox_conf_flat_1
I0801 23:20:04.184151  5612 net.cpp:100] Creating Layer conv4_3_norm_mbox_conf_flat_1
I0801 23:20:04.185151  5612 net.cpp:434] conv4_3_norm_mbox_conf_flat_1 <- conv4_3_norm_mbox_conf_per
m_1
I0801 23:20:04.185151  5612 net.cpp:408] conv4_3_norm_mbox_conf_flat_1 -> conv4_3_norm_mbox_conf_fla
t_1
I0801 23:20:04.185151  5612 net.cpp:150] Setting up conv4_3_norm_mbox_conf_flat_1
I0801 23:20:04.185151  5612 net.cpp:157] Top shape: 32 18432 (589824)
I0801 23:20:04.186151  5612 net.cpp:165] Memory required for data: 3003711552
I0801 23:20:04.186151  5612 layer_factory.hpp:77] Creating layer conv4_3_norm_mbox_priorbox_1
I0801 23:20:04.186151  5612 net.cpp:100] Creating Layer conv4_3_norm_mbox_priorbox_1
I0801 23:20:04.186151  5612 net.cpp:434] conv4_3_norm_mbox_priorbox_1 <- conv4_3_norm_1_conv4_3_norm
_1_0_split_2
I0801 23:20:04.186151  5612 net.cpp:434] conv4_3_norm_mbox_priorbox_1 <- data_data_0_split_1
I0801 23:20:04.187151  5612 net.cpp:408] conv4_3_norm_mbox_priorbox_1 -> conv4_3_norm_mbox_priorbox_
1
I0801 23:20:04.187151  5612 net.cpp:150] Setting up conv4_3_norm_mbox_priorbox_1
I0801 23:20:04.187151  5612 net.cpp:157] Top shape: 1 2 36864 (73728)
I0801 23:20:04.187151  5612 net.cpp:165] Memory required for data: 3004006464
I0801 23:20:04.188151  5612 layer_factory.hpp:77] Creating layer fc7_mbox_loc_1
I0801 23:20:04.188151  5612 net.cpp:100] Creating Layer fc7_mbox_loc_1
I0801 23:20:04.188151  5612 net.cpp:434] fc7_mbox_loc_1 <- fire9/concat_fire9/concat_bn_0_split_1
I0801 23:20:04.188151  5612 net.cpp:408] fc7_mbox_loc_1 -> fc7_mbox_loc_1
I0801 23:20:04.190151  5612 net.cpp:150] Setting up fc7_mbox_loc_1
I0801 23:20:04.191151  5612 net.cpp:157] Top shape: 32 24 16 24 (294912)
I0801 23:20:04.191151  5612 net.cpp:165] Memory required for data: 3005186112
I0801 23:20:04.191151  5612 layer_factory.hpp:77] Creating layer fc7_mbox_loc_perm_1
I0801 23:20:04.191151  5612 net.cpp:100] Creating Layer fc7_mbox_loc_perm_1
I0801 23:20:04.191151  5612 net.cpp:434] fc7_mbox_loc_perm_1 <- fc7_mbox_loc_1
I0801 23:20:04.192152  5612 net.cpp:408] fc7_mbox_loc_perm_1 -> fc7_mbox_loc_perm_1
I0801 23:20:04.192152  5612 net.cpp:150] Setting up fc7_mbox_loc_perm_1
I0801 23:20:04.192152  5612 net.cpp:157] Top shape: 32 16 24 24 (294912)
I0801 23:20:04.192152  5612 net.cpp:165] Memory required for data: 3006365760
I0801 23:20:04.193151  5612 layer_factory.hpp:77] Creating layer fc7_mbox_loc_flat_1
I0801 23:20:04.193151  5612 net.cpp:100] Creating Layer fc7_mbox_loc_flat_1
I0801 23:20:04.193151  5612 net.cpp:434] fc7_mbox_loc_flat_1 <- fc7_mbox_loc_perm_1
I0801 23:20:04.193151  5612 net.cpp:408] fc7_mbox_loc_flat_1 -> fc7_mbox_loc_flat_1
I0801 23:20:04.194151  5612 net.cpp:150] Setting up fc7_mbox_loc_flat_1
I0801 23:20:04.194151  5612 net.cpp:157] Top shape: 32 9216 (294912)
I0801 23:20:04.194151  5612 net.cpp:165] Memory required for data: 3007545408
I0801 23:20:04.194151  5612 layer_factory.hpp:77] Creating layer fc7_mbox_conf_1
I0801 23:20:04.194151  5612 net.cpp:100] Creating Layer fc7_mbox_conf_1
I0801 23:20:04.195152  5612 net.cpp:434] fc7_mbox_conf_1 <- fire9/concat_fire9/concat_bn_0_split_2
I0801 23:20:04.195152  5612 net.cpp:408] fc7_mbox_conf_1 -> fc7_mbox_conf_1
I0801 23:20:04.196152  5612 net.cpp:150] Setting up fc7_mbox_conf_1
I0801 23:20:04.197152  5612 net.cpp:157] Top shape: 32 12 16 24 (147456)
I0801 23:20:04.197152  5612 net.cpp:165] Memory required for data: 3008135232
I0801 23:20:04.197152  5612 layer_factory.hpp:77] Creating layer fc7_mbox_conf_perm_1
I0801 23:20:04.197152  5612 net.cpp:100] Creating Layer fc7_mbox_conf_perm_1
I0801 23:20:04.197152  5612 net.cpp:434] fc7_mbox_conf_perm_1 <- fc7_mbox_conf_1
I0801 23:20:04.198153  5612 net.cpp:408] fc7_mbox_conf_perm_1 -> fc7_mbox_conf_perm_1
I0801 23:20:04.198153  5612 net.cpp:150] Setting up fc7_mbox_conf_perm_1
I0801 23:20:04.198153  5612 net.cpp:157] Top shape: 32 16 24 12 (147456)
I0801 23:20:04.198153  5612 net.cpp:165] Memory required for data: 3008725056
I0801 23:20:04.199152  5612 layer_factory.hpp:77] Creating layer fc7_mbox_conf_flat_1
I0801 23:20:04.199152  5612 net.cpp:100] Creating Layer fc7_mbox_conf_flat_1
I0801 23:20:04.199152  5612 net.cpp:434] fc7_mbox_conf_flat_1 <- fc7_mbox_conf_perm_1
I0801 23:20:04.199152  5612 net.cpp:408] fc7_mbox_conf_flat_1 -> fc7_mbox_conf_flat_1
I0801 23:20:04.199152  5612 net.cpp:150] Setting up fc7_mbox_conf_flat_1
I0801 23:20:04.200152  5612 net.cpp:157] Top shape: 32 4608 (147456)
I0801 23:20:04.200152  5612 net.cpp:165] Memory required for data: 3009314880
I0801 23:20:04.200152  5612 layer_factory.hpp:77] Creating layer fc7_mbox_priorbox_1
I0801 23:20:04.200152  5612 net.cpp:100] Creating Layer fc7_mbox_priorbox_1
I0801 23:20:04.200152  5612 net.cpp:434] fc7_mbox_priorbox_1 <- fire9/concat_fire9/concat_bn_0_split
_3
I0801 23:20:04.201153  5612 net.cpp:434] fc7_mbox_priorbox_1 <- data_data_0_split_2
I0801 23:20:04.201153  5612 net.cpp:408] fc7_mbox_priorbox_1 -> fc7_mbox_priorbox_1
I0801 23:20:04.201153  5612 net.cpp:150] Setting up fc7_mbox_priorbox_1
I0801 23:20:04.201153  5612 net.cpp:157] Top shape: 1 2 9216 (18432)
I0801 23:20:04.201153  5612 net.cpp:165] Memory required for data: 3009388608
I0801 23:20:04.202152  5612 layer_factory.hpp:77] Creating layer conv6_2_mbox_loc_1
I0801 23:20:04.202152  5612 net.cpp:100] Creating Layer conv6_2_mbox_loc_1
I0801 23:20:04.202152  5612 net.cpp:434] conv6_2_mbox_loc_1 <- conv6_2_conv6_2_bn_0_split_1
I0801 23:20:04.202152  5612 net.cpp:408] conv6_2_mbox_loc_1 -> conv6_2_mbox_loc_1
I0801 23:20:04.204152  5612 net.cpp:150] Setting up conv6_2_mbox_loc_1
I0801 23:20:04.205152  5612 net.cpp:157] Top shape: 32 24 8 12 (73728)
I0801 23:20:04.205152  5612 net.cpp:165] Memory required for data: 3009683520
I0801 23:20:04.205152  5612 layer_factory.hpp:77] Creating layer conv6_2_mbox_loc_perm_1
I0801 23:20:04.205152  5612 net.cpp:100] Creating Layer conv6_2_mbox_loc_perm_1
I0801 23:20:04.205152  5612 net.cpp:434] conv6_2_mbox_loc_perm_1 <- conv6_2_mbox_loc_1
I0801 23:20:04.206152  5612 net.cpp:408] conv6_2_mbox_loc_perm_1 -> conv6_2_mbox_loc_perm_1
I0801 23:20:04.206152  5612 net.cpp:150] Setting up conv6_2_mbox_loc_perm_1
I0801 23:20:04.206152  5612 net.cpp:157] Top shape: 32 8 12 24 (73728)
I0801 23:20:04.206152  5612 net.cpp:165] Memory required for data: 3009978432
I0801 23:20:04.207152  5612 layer_factory.hpp:77] Creating layer conv6_2_mbox_loc_flat_1
I0801 23:20:04.207152  5612 net.cpp:100] Creating Layer conv6_2_mbox_loc_flat_1
I0801 23:20:04.207152  5612 net.cpp:434] conv6_2_mbox_loc_flat_1 <- conv6_2_mbox_loc_perm_1
I0801 23:20:04.207152  5612 net.cpp:408] conv6_2_mbox_loc_flat_1 -> conv6_2_mbox_loc_flat_1
I0801 23:20:04.207152  5612 net.cpp:150] Setting up conv6_2_mbox_loc_flat_1
I0801 23:20:04.208153  5612 net.cpp:157] Top shape: 32 2304 (73728)
I0801 23:20:04.208153  5612 net.cpp:165] Memory required for data: 3010273344
I0801 23:20:04.208153  5612 layer_factory.hpp:77] Creating layer conv6_2_mbox_conf_1
I0801 23:20:04.208153  5612 net.cpp:100] Creating Layer conv6_2_mbox_conf_1
I0801 23:20:04.208153  5612 net.cpp:434] conv6_2_mbox_conf_1 <- conv6_2_conv6_2_bn_0_split_2
I0801 23:20:04.209152  5612 net.cpp:408] conv6_2_mbox_conf_1 -> conv6_2_mbox_conf_1
I0801 23:20:04.210152  5612 net.cpp:150] Setting up conv6_2_mbox_conf_1
I0801 23:20:04.210152  5612 net.cpp:157] Top shape: 32 12 8 12 (36864)
I0801 23:20:04.211153  5612 net.cpp:165] Memory required for data: 3010420800
I0801 23:20:04.211153  5612 layer_factory.hpp:77] Creating layer conv6_2_mbox_conf_perm_1
I0801 23:20:04.211153  5612 net.cpp:100] Creating Layer conv6_2_mbox_conf_perm_1
I0801 23:20:04.212152  5612 net.cpp:434] conv6_2_mbox_conf_perm_1 <- conv6_2_mbox_conf_1
I0801 23:20:04.212152  5612 net.cpp:408] conv6_2_mbox_conf_perm_1 -> conv6_2_mbox_conf_perm_1
I0801 23:20:04.212152  5612 net.cpp:150] Setting up conv6_2_mbox_conf_perm_1
I0801 23:20:04.212152  5612 net.cpp:157] Top shape: 32 8 12 12 (36864)
I0801 23:20:04.212152  5612 net.cpp:165] Memory required for data: 3010568256
I0801 23:20:04.213153  5612 layer_factory.hpp:77] Creating layer conv6_2_mbox_conf_flat_1
I0801 23:20:04.213153  5612 net.cpp:100] Creating Layer conv6_2_mbox_conf_flat_1
I0801 23:20:04.213153  5612 net.cpp:434] conv6_2_mbox_conf_flat_1 <- conv6_2_mbox_conf_perm_1
I0801 23:20:04.213153  5612 net.cpp:408] conv6_2_mbox_conf_flat_1 -> conv6_2_mbox_conf_flat_1
I0801 23:20:04.214154  5612 net.cpp:150] Setting up conv6_2_mbox_conf_flat_1
I0801 23:20:04.214154  5612 net.cpp:157] Top shape: 32 1152 (36864)
I0801 23:20:04.214154  5612 net.cpp:165] Memory required for data: 3010715712
I0801 23:20:04.214154  5612 layer_factory.hpp:77] Creating layer conv6_2_mbox_priorbox_1
I0801 23:20:04.214154  5612 net.cpp:100] Creating Layer conv6_2_mbox_priorbox_1
I0801 23:20:04.215153  5612 net.cpp:434] conv6_2_mbox_priorbox_1 <- conv6_2_conv6_2_bn_0_split_3
I0801 23:20:04.215153  5612 net.cpp:434] conv6_2_mbox_priorbox_1 <- data_data_0_split_3
I0801 23:20:04.215153  5612 net.cpp:408] conv6_2_mbox_priorbox_1 -> conv6_2_mbox_priorbox_1
I0801 23:20:04.215153  5612 net.cpp:150] Setting up conv6_2_mbox_priorbox_1
I0801 23:20:04.215153  5612 net.cpp:157] Top shape: 1 2 2304 (4608)
I0801 23:20:04.216153  5612 net.cpp:165] Memory required for data: 3010734144
I0801 23:20:04.216153  5612 layer_factory.hpp:77] Creating layer conv7_2_mbox_loc_1
I0801 23:20:04.216153  5612 net.cpp:100] Creating Layer conv7_2_mbox_loc_1
I0801 23:20:04.216153  5612 net.cpp:434] conv7_2_mbox_loc_1 <- conv7_2_conv7_2_bn_0_split_1
I0801 23:20:04.216153  5612 net.cpp:408] conv7_2_mbox_loc_1 -> conv7_2_mbox_loc_1
I0801 23:20:04.219153  5612 net.cpp:150] Setting up conv7_2_mbox_loc_1
I0801 23:20:04.219153  5612 net.cpp:157] Top shape: 32 24 4 6 (18432)
I0801 23:20:04.219153  5612 net.cpp:165] Memory required for data: 3010807872
I0801 23:20:04.219153  5612 layer_factory.hpp:77] Creating layer conv7_2_mbox_loc_perm_1
I0801 23:20:04.219153  5612 net.cpp:100] Creating Layer conv7_2_mbox_loc_perm_1
I0801 23:20:04.220154  5612 net.cpp:434] conv7_2_mbox_loc_perm_1 <- conv7_2_mbox_loc_1
I0801 23:20:04.220154  5612 net.cpp:408] conv7_2_mbox_loc_perm_1 -> conv7_2_mbox_loc_perm_1
I0801 23:20:04.220154  5612 net.cpp:150] Setting up conv7_2_mbox_loc_perm_1
I0801 23:20:04.220154  5612 net.cpp:157] Top shape: 32 4 6 24 (18432)
I0801 23:20:04.220154  5612 net.cpp:165] Memory required for data: 3010881600
I0801 23:20:04.221153  5612 layer_factory.hpp:77] Creating layer conv7_2_mbox_loc_flat_1
I0801 23:20:04.221153  5612 net.cpp:100] Creating Layer conv7_2_mbox_loc_flat_1
I0801 23:20:04.221153  5612 net.cpp:434] conv7_2_mbox_loc_flat_1 <- conv7_2_mbox_loc_perm_1
I0801 23:20:04.221153  5612 net.cpp:408] conv7_2_mbox_loc_flat_1 -> conv7_2_mbox_loc_flat_1
I0801 23:20:04.222153  5612 net.cpp:150] Setting up conv7_2_mbox_loc_flat_1
I0801 23:20:04.222153  5612 net.cpp:157] Top shape: 32 576 (18432)
I0801 23:20:04.222153  5612 net.cpp:165] Memory required for data: 3010955328
I0801 23:20:04.222153  5612 layer_factory.hpp:77] Creating layer conv7_2_mbox_conf_1
I0801 23:20:04.222153  5612 net.cpp:100] Creating Layer conv7_2_mbox_conf_1
I0801 23:20:04.223153  5612 net.cpp:434] conv7_2_mbox_conf_1 <- conv7_2_conv7_2_bn_0_split_2
I0801 23:20:04.223153  5612 net.cpp:408] conv7_2_mbox_conf_1 -> conv7_2_mbox_conf_1
I0801 23:20:04.225153  5612 net.cpp:150] Setting up conv7_2_mbox_conf_1
I0801 23:20:04.225153  5612 net.cpp:157] Top shape: 32 12 4 6 (9216)
I0801 23:20:04.225153  5612 net.cpp:165] Memory required for data: 3010992192
I0801 23:20:04.225153  5612 layer_factory.hpp:77] Creating layer conv7_2_mbox_conf_perm_1
I0801 23:20:04.225153  5612 net.cpp:100] Creating Layer conv7_2_mbox_conf_perm_1
I0801 23:20:04.225153  5612 net.cpp:434] conv7_2_mbox_conf_perm_1 <- conv7_2_mbox_conf_1
I0801 23:20:04.226153  5612 net.cpp:408] conv7_2_mbox_conf_perm_1 -> conv7_2_mbox_conf_perm_1
I0801 23:20:04.226153  5612 net.cpp:150] Setting up conv7_2_mbox_conf_perm_1
I0801 23:20:04.226153  5612 net.cpp:157] Top shape: 32 4 6 12 (9216)
I0801 23:20:04.226153  5612 net.cpp:165] Memory required for data: 3011029056
I0801 23:20:04.227154  5612 layer_factory.hpp:77] Creating layer conv7_2_mbox_conf_flat_1
I0801 23:20:04.227154  5612 net.cpp:100] Creating Layer conv7_2_mbox_conf_flat_1
I0801 23:20:04.227154  5612 net.cpp:434] conv7_2_mbox_conf_flat_1 <- conv7_2_mbox_conf_perm_1
I0801 23:20:04.227154  5612 net.cpp:408] conv7_2_mbox_conf_flat_1 -> conv7_2_mbox_conf_flat_1
I0801 23:20:04.227154  5612 net.cpp:150] Setting up conv7_2_mbox_conf_flat_1
I0801 23:20:04.228153  5612 net.cpp:157] Top shape: 32 288 (9216)
I0801 23:20:04.228153  5612 net.cpp:165] Memory required for data: 3011065920
I0801 23:20:04.228153  5612 layer_factory.hpp:77] Creating layer conv7_2_mbox_priorbox_1
I0801 23:20:04.228153  5612 net.cpp:100] Creating Layer conv7_2_mbox_priorbox_1
I0801 23:20:04.228153  5612 net.cpp:434] conv7_2_mbox_priorbox_1 <- conv7_2_conv7_2_bn_0_split_3
I0801 23:20:04.229153  5612 net.cpp:434] conv7_2_mbox_priorbox_1 <- data_data_0_split_4
I0801 23:20:04.229153  5612 net.cpp:408] conv7_2_mbox_priorbox_1 -> conv7_2_mbox_priorbox_1
I0801 23:20:04.229153  5612 net.cpp:150] Setting up conv7_2_mbox_priorbox_1
I0801 23:20:04.229153  5612 net.cpp:157] Top shape: 1 2 576 (1152)
I0801 23:20:04.229153  5612 net.cpp:165] Memory required for data: 3011070528
I0801 23:20:04.230154  5612 layer_factory.hpp:77] Creating layer conv8_2_mbox_loc_1
I0801 23:20:04.230154  5612 net.cpp:100] Creating Layer conv8_2_mbox_loc_1
I0801 23:20:04.230154  5612 net.cpp:434] conv8_2_mbox_loc_1 <- conv8_2_conv8_2_bn_0_split_1
I0801 23:20:04.230154  5612 net.cpp:408] conv8_2_mbox_loc_1 -> conv8_2_mbox_loc_1
I0801 23:20:04.232154  5612 net.cpp:150] Setting up conv8_2_mbox_loc_1
I0801 23:20:04.232154  5612 net.cpp:157] Top shape: 32 24 2 3 (4608)
I0801 23:20:04.232154  5612 net.cpp:165] Memory required for data: 3011088960
I0801 23:20:04.233155  5612 layer_factory.hpp:77] Creating layer conv8_2_mbox_loc_perm_1
I0801 23:20:04.233155  5612 net.cpp:100] Creating Layer conv8_2_mbox_loc_perm_1
I0801 23:20:04.233155  5612 net.cpp:434] conv8_2_mbox_loc_perm_1 <- conv8_2_mbox_loc_1
I0801 23:20:04.233155  5612 net.cpp:408] conv8_2_mbox_loc_perm_1 -> conv8_2_mbox_loc_perm_1
I0801 23:20:04.234154  5612 net.cpp:150] Setting up conv8_2_mbox_loc_perm_1
I0801 23:20:04.234154  5612 net.cpp:157] Top shape: 32 2 3 24 (4608)
I0801 23:20:04.234154  5612 net.cpp:165] Memory required for data: 3011107392
I0801 23:20:04.234154  5612 layer_factory.hpp:77] Creating layer conv8_2_mbox_loc_flat_1
I0801 23:20:04.234154  5612 net.cpp:100] Creating Layer conv8_2_mbox_loc_flat_1
I0801 23:20:04.235154  5612 net.cpp:434] conv8_2_mbox_loc_flat_1 <- conv8_2_mbox_loc_perm_1
I0801 23:20:04.235154  5612 net.cpp:408] conv8_2_mbox_loc_flat_1 -> conv8_2_mbox_loc_flat_1
I0801 23:20:04.235154  5612 net.cpp:150] Setting up conv8_2_mbox_loc_flat_1
I0801 23:20:04.235154  5612 net.cpp:157] Top shape: 32 144 (4608)
I0801 23:20:04.235154  5612 net.cpp:165] Memory required for data: 3011125824
I0801 23:20:04.236155  5612 layer_factory.hpp:77] Creating layer conv8_2_mbox_conf_1
I0801 23:20:04.236155  5612 net.cpp:100] Creating Layer conv8_2_mbox_conf_1
I0801 23:20:04.236155  5612 net.cpp:434] conv8_2_mbox_conf_1 <- conv8_2_conv8_2_bn_0_split_2
I0801 23:20:04.236155  5612 net.cpp:408] conv8_2_mbox_conf_1 -> conv8_2_mbox_conf_1
I0801 23:20:04.238154  5612 net.cpp:150] Setting up conv8_2_mbox_conf_1
I0801 23:20:04.238154  5612 net.cpp:157] Top shape: 32 12 2 3 (2304)
I0801 23:20:04.238154  5612 net.cpp:165] Memory required for data: 3011135040
I0801 23:20:04.238154  5612 layer_factory.hpp:77] Creating layer conv8_2_mbox_conf_perm_1
I0801 23:20:04.239154  5612 net.cpp:100] Creating Layer conv8_2_mbox_conf_perm_1
I0801 23:20:04.239154  5612 net.cpp:434] conv8_2_mbox_conf_perm_1 <- conv8_2_mbox_conf_1
I0801 23:20:04.239154  5612 net.cpp:408] conv8_2_mbox_conf_perm_1 -> conv8_2_mbox_conf_perm_1
I0801 23:20:04.239154  5612 net.cpp:150] Setting up conv8_2_mbox_conf_perm_1
I0801 23:20:04.240154  5612 net.cpp:157] Top shape: 32 2 3 12 (2304)
I0801 23:20:04.240154  5612 net.cpp:165] Memory required for data: 3011144256
I0801 23:20:04.240154  5612 layer_factory.hpp:77] Creating layer conv8_2_mbox_conf_flat_1
I0801 23:20:04.240154  5612 net.cpp:100] Creating Layer conv8_2_mbox_conf_flat_1
I0801 23:20:04.240154  5612 net.cpp:434] conv8_2_mbox_conf_flat_1 <- conv8_2_mbox_conf_perm_1
I0801 23:20:04.241154  5612 net.cpp:408] conv8_2_mbox_conf_flat_1 -> conv8_2_mbox_conf_flat_1
I0801 23:20:04.241154  5612 net.cpp:150] Setting up conv8_2_mbox_conf_flat_1
I0801 23:20:04.241154  5612 net.cpp:157] Top shape: 32 72 (2304)
I0801 23:20:04.241154  5612 net.cpp:165] Memory required for data: 3011153472
I0801 23:20:04.241154  5612 layer_factory.hpp:77] Creating layer conv8_2_mbox_priorbox_1
I0801 23:20:04.242154  5612 net.cpp:100] Creating Layer conv8_2_mbox_priorbox_1
I0801 23:20:04.242154  5612 net.cpp:434] conv8_2_mbox_priorbox_1 <- conv8_2_conv8_2_bn_0_split_3
I0801 23:20:04.242154  5612 net.cpp:434] conv8_2_mbox_priorbox_1 <- data_data_0_split_5
I0801 23:20:04.242154  5612 net.cpp:408] conv8_2_mbox_priorbox_1 -> conv8_2_mbox_priorbox_1
I0801 23:20:04.242154  5612 net.cpp:150] Setting up conv8_2_mbox_priorbox_1
I0801 23:20:04.243155  5612 net.cpp:157] Top shape: 1 2 144 (288)
I0801 23:20:04.243155  5612 net.cpp:165] Memory required for data: 3011154624
I0801 23:20:04.243155  5612 layer_factory.hpp:77] Creating layer pool6_mbox_loc_1
I0801 23:20:04.243155  5612 net.cpp:100] Creating Layer pool6_mbox_loc_1
I0801 23:20:04.244154  5612 net.cpp:434] pool6_mbox_loc_1 <- pool6_pool6_0_split_0
I0801 23:20:04.244154  5612 net.cpp:408] pool6_mbox_loc_1 -> pool6_mbox_loc_1
I0801 23:20:04.246155  5612 net.cpp:150] Setting up pool6_mbox_loc_1
I0801 23:20:04.246155  5612 net.cpp:157] Top shape: 32 24 1 1 (768)
I0801 23:20:04.246155  5612 net.cpp:165] Memory required for data: 3011157696
I0801 23:20:04.246155  5612 layer_factory.hpp:77] Creating layer pool6_mbox_loc_perm_1
I0801 23:20:04.246155  5612 net.cpp:100] Creating Layer pool6_mbox_loc_perm_1
I0801 23:20:04.247154  5612 net.cpp:434] pool6_mbox_loc_perm_1 <- pool6_mbox_loc_1
I0801 23:20:04.247154  5612 net.cpp:408] pool6_mbox_loc_perm_1 -> pool6_mbox_loc_perm_1
I0801 23:20:04.247154  5612 net.cpp:150] Setting up pool6_mbox_loc_perm_1
I0801 23:20:04.247154  5612 net.cpp:157] Top shape: 32 1 1 24 (768)
I0801 23:20:04.247154  5612 net.cpp:165] Memory required for data: 3011160768
I0801 23:20:04.248155  5612 layer_factory.hpp:77] Creating layer pool6_mbox_loc_flat_1
I0801 23:20:04.248155  5612 net.cpp:100] Creating Layer pool6_mbox_loc_flat_1
I0801 23:20:04.248155  5612 net.cpp:434] pool6_mbox_loc_flat_1 <- pool6_mbox_loc_perm_1
I0801 23:20:04.248155  5612 net.cpp:408] pool6_mbox_loc_flat_1 -> pool6_mbox_loc_flat_1
I0801 23:20:04.249155  5612 net.cpp:150] Setting up pool6_mbox_loc_flat_1
I0801 23:20:04.249155  5612 net.cpp:157] Top shape: 32 24 (768)
I0801 23:20:04.249155  5612 net.cpp:165] Memory required for data: 3011163840
I0801 23:20:04.249155  5612 layer_factory.hpp:77] Creating layer pool6_mbox_conf_1
I0801 23:20:04.249155  5612 net.cpp:100] Creating Layer pool6_mbox_conf_1
I0801 23:20:04.249155  5612 net.cpp:434] pool6_mbox_conf_1 <- pool6_pool6_0_split_1
I0801 23:20:04.250155  5612 net.cpp:408] pool6_mbox_conf_1 -> pool6_mbox_conf_1
I0801 23:20:04.251155  5612 net.cpp:150] Setting up pool6_mbox_conf_1
I0801 23:20:04.252156  5612 net.cpp:157] Top shape: 32 12 1 1 (384)
I0801 23:20:04.252156  5612 net.cpp:165] Memory required for data: 3011165376
I0801 23:20:04.252156  5612 layer_factory.hpp:77] Creating layer pool6_mbox_conf_perm_1
I0801 23:20:04.252156  5612 net.cpp:100] Creating Layer pool6_mbox_conf_perm_1
I0801 23:20:04.252156  5612 net.cpp:434] pool6_mbox_conf_perm_1 <- pool6_mbox_conf_1
I0801 23:20:04.253155  5612 net.cpp:408] pool6_mbox_conf_perm_1 -> pool6_mbox_conf_perm_1
I0801 23:20:04.253155  5612 net.cpp:150] Setting up pool6_mbox_conf_perm_1
I0801 23:20:04.253155  5612 net.cpp:157] Top shape: 32 1 1 12 (384)
I0801 23:20:04.253155  5612 net.cpp:165] Memory required for data: 3011166912
I0801 23:20:04.253155  5612 layer_factory.hpp:77] Creating layer pool6_mbox_conf_flat_1
I0801 23:20:04.254155  5612 net.cpp:100] Creating Layer pool6_mbox_conf_flat_1
I0801 23:20:04.254155  5612 net.cpp:434] pool6_mbox_conf_flat_1 <- pool6_mbox_conf_perm_1
I0801 23:20:04.254155  5612 net.cpp:408] pool6_mbox_conf_flat_1 -> pool6_mbox_conf_flat_1
I0801 23:20:04.254155  5612 net.cpp:150] Setting up pool6_mbox_conf_flat_1
I0801 23:20:04.255156  5612 net.cpp:157] Top shape: 32 12 (384)
I0801 23:20:04.255156  5612 net.cpp:165] Memory required for data: 3011168448
I0801 23:20:04.255156  5612 layer_factory.hpp:77] Creating layer pool6_mbox_priorbox_1
I0801 23:20:04.255156  5612 net.cpp:100] Creating Layer pool6_mbox_priorbox_1
I0801 23:20:04.255156  5612 net.cpp:434] pool6_mbox_priorbox_1 <- pool6_pool6_0_split_2
I0801 23:20:04.256155  5612 net.cpp:434] pool6_mbox_priorbox_1 <- data_data_0_split_6
I0801 23:20:04.256155  5612 net.cpp:408] pool6_mbox_priorbox_1 -> pool6_mbox_priorbox_1
I0801 23:20:04.256155  5612 net.cpp:150] Setting up pool6_mbox_priorbox_1
I0801 23:20:04.256155  5612 net.cpp:157] Top shape: 1 2 24 (48)
I0801 23:20:04.256155  5612 net.cpp:165] Memory required for data: 3011168640
I0801 23:20:04.257155  5612 layer_factory.hpp:77] Creating layer mbox_loc_1
I0801 23:20:04.257155  5612 net.cpp:100] Creating Layer mbox_loc_1
I0801 23:20:04.257155  5612 net.cpp:434] mbox_loc_1 <- conv4_3_norm_mbox_loc_flat_1
I0801 23:20:04.257155  5612 net.cpp:434] mbox_loc_1 <- fc7_mbox_loc_flat_1
I0801 23:20:04.257155  5612 net.cpp:434] mbox_loc_1 <- conv6_2_mbox_loc_flat_1
I0801 23:20:04.258155  5612 net.cpp:434] mbox_loc_1 <- conv7_2_mbox_loc_flat_1
I0801 23:20:04.258155  5612 net.cpp:434] mbox_loc_1 <- conv8_2_mbox_loc_flat_1
I0801 23:20:04.258155  5612 net.cpp:434] mbox_loc_1 <- pool6_mbox_loc_flat_1
I0801 23:20:04.258155  5612 net.cpp:408] mbox_loc_1 -> mbox_loc_1
I0801 23:20:04.258155  5612 net.cpp:150] Setting up mbox_loc_1
I0801 23:20:04.259155  5612 net.cpp:157] Top shape: 32 49128 (1572096)
I0801 23:20:04.259155  5612 net.cpp:165] Memory required for data: 3017457024
I0801 23:20:04.259155  5612 layer_factory.hpp:77] Creating layer mbox_conf_1
I0801 23:20:04.259155  5612 net.cpp:100] Creating Layer mbox_conf_1
I0801 23:20:04.260155  5612 net.cpp:434] mbox_conf_1 <- conv4_3_norm_mbox_conf_flat_1
I0801 23:20:04.260155  5612 net.cpp:434] mbox_conf_1 <- fc7_mbox_conf_flat_1
I0801 23:20:04.260155  5612 net.cpp:434] mbox_conf_1 <- conv6_2_mbox_conf_flat_1
I0801 23:20:04.260155  5612 net.cpp:434] mbox_conf_1 <- conv7_2_mbox_conf_flat_1
I0801 23:20:04.260155  5612 net.cpp:434] mbox_conf_1 <- conv8_2_mbox_conf_flat_1
I0801 23:20:04.261155  5612 net.cpp:434] mbox_conf_1 <- pool6_mbox_conf_flat_1
I0801 23:20:04.261155  5612 net.cpp:408] mbox_conf_1 -> mbox_conf_1
I0801 23:20:04.261155  5612 net.cpp:150] Setting up mbox_conf_1
I0801 23:20:04.261155  5612 net.cpp:157] Top shape: 32 24564 (786048)
I0801 23:20:04.261155  5612 net.cpp:165] Memory required for data: 3020601216
I0801 23:20:04.262156  5612 layer_factory.hpp:77] Creating layer mbox_priorbox_1
I0801 23:20:04.262156  5612 net.cpp:100] Creating Layer mbox_priorbox_1
I0801 23:20:04.262156  5612 net.cpp:434] mbox_priorbox_1 <- conv4_3_norm_mbox_priorbox_1
I0801 23:20:04.262156  5612 net.cpp:434] mbox_priorbox_1 <- fc7_mbox_priorbox_1
I0801 23:20:04.262156  5612 net.cpp:434] mbox_priorbox_1 <- conv6_2_mbox_priorbox_1
I0801 23:20:04.263155  5612 net.cpp:434] mbox_priorbox_1 <- conv7_2_mbox_priorbox_1
I0801 23:20:04.263155  5612 net.cpp:434] mbox_priorbox_1 <- conv8_2_mbox_priorbox_1
I0801 23:20:04.263155  5612 net.cpp:434] mbox_priorbox_1 <- pool6_mbox_priorbox_1
I0801 23:20:04.263155  5612 net.cpp:408] mbox_priorbox_1 -> mbox_priorbox_1
I0801 23:20:04.264155  5612 net.cpp:150] Setting up mbox_priorbox_1
I0801 23:20:04.264155  5612 net.cpp:157] Top shape: 1 2 49128 (98256)
I0801 23:20:04.264155  5612 net.cpp:165] Memory required for data: 3020994240
I0801 23:20:04.264155  5612 layer_factory.hpp:77] Creating layer mbox_loss_1
I0801 23:20:04.264155  5612 net.cpp:100] Creating Layer mbox_loss_1
I0801 23:20:04.265156  5612 net.cpp:434] mbox_loss_1 <- mbox_loc_1
I0801 23:20:04.265156  5612 net.cpp:434] mbox_loss_1 <- mbox_conf_1
I0801 23:20:04.265156  5612 net.cpp:434] mbox_loss_1 <- mbox_priorbox_1
…
}
layer {
  name: "data"
  type: "AnnotatedData"
  top: "data"
  top: "label"
  include {
    phase: TEST
  }
  transform_param {
    mean_value: 104
    mean_value: 117
    mean_value: 123
    resize_param {
      prob: 1
      resize_mode: WARP
      height: 256
      width: 384
      interp_mode: LINEAR
    }
  }
  data_param {
    source: "E:/tyang/Pedestrian/Data_0728/val_lmdb"
    batch_size: 32
    backend: LMDB
  }
  annotated_data_param {
    batch_sampler {
    }
    label_map_file: "E:/tyang/Pedestrian/labelmap_VehicleFull.prototxt"
  }
}
layer {
  name: "conv1"
  type: "Convolution"
  bottom: "data"
  top: "conv1"
  convolution_param {
    num_output: 64
    pad: 1
    kernel_size: 3
    stride: 2
    weight_filler {
      type: "xavier"
    }
  }
}
layer {
  name: "relu_conv1"
  type: "ReLU"
  bottom: "conv1"
  top: "conv1"
}
layer {
  name: "pool1"
  type: "Pooling"
  bottom: "conv1"
  top: "pool1"
  pooling_param {
    pool: MAX
    kernel_size: 3
    stride: 2
  }
}
layer {
  name: "conv1_bn"
  type: "BatchNorm"
  bottom: "pool1"
  top: "pool1"
  include {
    phase: TEST
  }
  batch_norm_param {
    use_global_stats: true
    moving_average_fraction: 0.95
  }
}
layer {
  name: "fire2/squeeze1x1"
  type: "Convolution"
  bottom: "pool1"
  top: "fire2/squeeze1x1"
  convolution_param {
    num_output: 16
    kernel_size: 1
    weight_filler {
      type: "xavier"
    }
  }
}
layer {
  name: "fire2/relu_squeeze1x1"
  type: "ReLU"
  bottom: "fire2/squeeze1x1"
  top: "fire2/squeeze1x1"
}
layer {
  name: "fire2/expand1x1"
  type: "Convolution"
  bottom: "fire2/squeeze1x1"
  top: "fire2/expand1x1"
  convolution_param {
    num_output: 64
    kernel_size: 1
    weight_filler {
      type: "xavier"
    }
  }
}
layer {
  name: "fire2/relu_expand1x1"
  type: "ReLU"
  bottom: "fire2/expand1x1"
  top: "fire2/expand1x1"
}
layer {
  name: "fire2/expand3x3"
  type: "Convolution"
  bottom: "fire2/squeeze1x1"
  top: "fire2/expand3x3"
  convolution_param {
    num_output: 64
    pad: 1
    kernel_size: 3
    weight_filler {
      type: "xavier"
    }
  }
}
layer {
  name: "fire2/relu_expand3x3"
  type: "ReLU"
  bottom: "fire2/expand3x3"
  top: "fire2/expand3x3"
}
layer {
  name: "fire2/concat"
  type: "Concat"
  bottom: "fire2/expand1x1"
  bottom: "fire2/expand3x3"
  top: "fire2/concat"
}
layer {
  name: "fire2/concat_bn"
  type: "BatchNorm"
  bottom: "fire2/concat"
  top: "fire2/concat"
  include {
    phase: TEST
  }
  batch_norm_param {
    use_global_stats: true
    moving_average_fraction: 0.95
  }
}
layer {
  name: "fire3/squeeze1x1"
  type: "Convolution"
  bottom: "fire2/concat"
  top: "fire3/squeeze1x1"
  convolution_param {
    num_output: 16
    kernel_size: 1
    weight_filler {
      type: "xavier"
    }
  }
}
layer {
  name: "fire3/relu_squeeze1x1"
  type: "ReLU"
  bottom: "fire3/squeeze1x1"
  top: "fire3/squeeze1x1"
}
layer {
  name: "fire3/expand1x1"
  type: "Convolution"
  bottom: "fire3/squeeze1x1"
  top: "fire3/expand1x1"
  convolution_param {
    num_output: 64
    kernel_size: 1
    weight_filler {
      type: "xavier"
    }
  }
}
layer {
  name: "fire3/relu_expand1x1"
  type: "ReLU"
  bottom: "fire3/expand1x1"
  top: "fire3/expand1x1"
}
layer {
  name: "fire3/expand3x3"
  type: "Convolution"
  bottom: "fire3/squeeze1x1"
  top: "fire3/expand3x3"
  convolution_param {
    num_output: 64
    pad: 1
    kernel_size: 3
    weight_filler {
      type: "xavier"
    }
  }
}
layer {
  name: "fire3/relu_expand3x3"
  type: "ReLU"
  bottom: "fire3/expand3x3"
  top: "fire3/expand3x3"
}
layer {
  name: "fire3/concat"
  type: "Concat"
  bottom: "fire3/expand1x1"
  bottom: "fire3/expand3x3"
  top: "fire3/concat"
}
layer {
  name: "pool3"
  type: "Pooling"
  bottom: "fire3/concat"
  top: "pool3"
  pooling_param {
    pool: MAX
    kernel_size: 2
    stride: 2
  }
}
layer {
  name: "fire3/concat_bn"
  type: "BatchNorm"
  bottom: "pool3"
  top: "pool3"
  include {
    phase: TEST
  }
  batch_norm_param {
    use_global_stats: true
    moving_average_fraction: 0.95
  }
}
layer {
  name: "fire4/squeeze1x1"
  type: "Convolution"
  bottom: "pool3"
  top: "fire4/squeeze1x1"
  convolution_param {
    num_output: 32
    kernel_size: 1
    weight_filler {
      type: "xavier"
    }
  }
}
layer {
  name: "fire4/relu_squeeze1x1"
  type: "ReLU"
  bottom: "fire4/squeeze1x1"
  top: "fire4/squeeze1x1"
}
layer {
  name: "fire4/expand1x1"
  type: "Convolution"
  bottom: "fire4/squeeze1x1"
  top: "fire4/expand1x1"
  convolution_param {
    num_output: 128
    kernel_size: 1
    weight_filler {
      type: "xavier"
    }
  }
}
layer {
  name: "fire4/relu_expand1x1"
  type: "ReLU"
  bottom: "fire4/expand1x1"
  top: "fire4/expand1x1"
}
layer {
  name: "fire4/expand3x3"
  type: "Convolution"
  bottom: "fire4/squeeze1x1"
  top: "fire4/expand3x3"
  convolution_param {
    num_output: 128
    pad: 1
    kernel_size: 3
    weight_filler {
      type: "xavier"
    }
  }
}
layer {
  name: "fire4/relu_expand3x3"
  type: "ReLU"
  bottom: "fire4/expand3x3"
  top: "fire4/expand3x3"
}
layer {
  name: "fire4/concat"
  type: "Concat"
  bottom: "fire4/expand1x1"
  bottom: "fire4/expand3x3"
  top: "fire4/concat"
}
layer {
  name: "fire4/concat_bn"
  type: "BatchNorm"
  bottom: "fire4/concat"
  top: "fire4/concat"
  include {
    phase: TEST
  }
  batch_norm_param {
    use_global_stats: true
    moving_average_fraction: 0.95
  }
}
layer {
  name: "fire5/squeeze1x1"
  type: "Convolution"
  bottom: "fire4/concat"
  top: "fire5/squeeze1x1"
  convolution_param {
    num_output: 32
    kernel_size: 1
    weight_filler {
      type: "xavier"
    }
  }
}
layer {
  name: "fire5/relu_squeeze1x1"
  type: "ReLU"
  bottom: "fire5/squeeze1x1"
  top: "fire5/squeeze1x1"
}
layer {
  name: "fire5/expand1x1"
  type: "Convolution"
  bottom: "fire5/squeeze1x1"
  top: "fire5/expand1x1"
  convolution_param {
    num_output: 128
    kernel_size: 1
    weight_filler {
      type: "xavier"
    }
  }
}
layer {
  name: "fire5/relu_expand1x1"
  type: "ReLU"
  bottom: "fire5/expand1x1"
  top: "fire5/expand1x1"
}
layer {
  name: "fire5/expand3x3"
  type: "Convolution"
  bottom: "fire5/squeeze1x1"
  top: "fire5/expand3x3"
  convolution_param {
    num_output: 128
    pad: 1
    kernel_size: 3
    weight_filler {
      type: "xavier"
    }
  }
}
layer {
  name: "fire5/relu_expand3x3"
  type: "ReLU"
  bottom: "fire5/expand3x3"
  top: "fire5/expand3x3"
}
layer {
  name: "fire5/concat"
  type: "Concat"
  bottom: "fire5/expand1x1"
  bottom: "fire5/expand3x3"
  top: "fire5/concat"
}
layer {
  name: "pool5"
  type: "Pooling"
  bottom: "fire5/concat"
  top: "pool5"
  pooling_param {
    pool: MAX
    kernel_size: 2
    stride: 2
  }
}
layer {
  name: "fire5/concat_bn"
  type: "BatchNorm"
  bottom: "pool5"
  top: "pool5"
  include {
    phase: TEST
  }
  batch_norm_param {
    use_global_stats: true
    moving_average_fraction: 0.95
  }
}
layer {
  name: "fire6/squeeze1x1"
  type: "Convolution"
  bottom: "pool5"
  top: "fire6/squeeze1x1"
  convolution_param {
    num_output: 48
    kernel_size: 1
    weight_filler {
      type: "xavier"
    }
  }
}
layer {
  name: "fire6/relu_squeeze1x1"
  type: "ReLU"
  bottom: "fire6/squeeze1x1"
  top: "fire6/squeeze1x1"
}
layer {
  name: "fire6/expand1x1"
  type: "Convolution"
  bottom: "fire6/squeeze1x1"
  top: "fire6/expand1x1"
  convolution_param {
    num_output: 192
    kernel_size: 1
    weight_filler {
      type: "xavier"
    }
  }
}
layer {
  name: "fire6/relu_expand1x1"
  type: "ReLU"
  bottom: "fire6/expand1x1"
  top: "fire6/expand1x1"
}
layer {
  name: "fire6/expand3x3"
  type: "Convolution"
  bottom: "fire6/squeeze1x1"
  top: "fire6/expand3x3"
  convolution_param {
    num_output: 192
    pad: 1
    kernel_size: 3
    weight_filler {
      type: "xavier"
    }
  }
}
layer {
  name: "fire6/relu_expand3x3"
  type: "ReLU"
  bottom: "fire6/expand3x3"
  top: "fire6/expand3x3"
}
layer {
  name: "fire6/concat"
  type: "Concat"
  bottom: "fire6/expand1x1"
  bottom: "fire6/expand3x3"
  top: "fire6/concat"
}
layer {
  name: "fire6/concat_bn"
  type: "BatchNorm"
  bottom: "fire6/concat"
  top: "fire6/concat"
  include {
    phase: TEST
  }
  batch_norm_param {
    use_global_stats: true
    moving_average_fraction: 0.95
  }
}
layer {
  name: "fire7/squeeze1x1"
  type: "Convolution"
  bottom: "fire6/concat"
  top: "fire7/squeeze1x1"
  convolution_param {
    num_output: 48
    kernel_size: 1
    weight_filler {
      type: "xavier"
    }
  }
}
layer {
  name: "fire7/relu_squeeze1x1"
  type: "ReLU"
  bottom: "fire7/squeeze1x1"
  top: "fire7/squeeze1x1"
}
layer {
  name: "fire7/expand1x1"
  type: "Convolution"
  bottom: "fire7/squeeze1x1"
  top: "fire7/expand1x1"
  convolution_param {
    num_output: 192
    kernel_size: 1
    weight_filler {
      type: "xavier"
    }
  }
}
layer {
  name: "fire7/relu_expand1x1"
  type: "ReLU"
  bottom: "fire7/expand1x1"
  top: "fire7/expand1x1"
}
layer {
  name: "fire7/expand3x3"
  type: "Convolution"
  bottom: "fire7/squeeze1x1"
  top: "fire7/expand3x3"
  convolution_param {
    num_output: 192
    pad: 1
    kernel_size: 3
    weight_filler {
      type: "xavier"
    }
  }
}
layer {
  name: "fire7/relu_expand3x3"
  type: "ReLU"
  bottom: "fire7/expand3x3"
  top: "fire7/expand3x3"
}
layer {
  name: "fire7/concat"
  type: "Concat"
  bottom: "fire7/expand1x1"
  bottom: "fire7/expand3x3"
  top: "fire7/concat"
}
layer {
  name: "fire7/concat_bn"
  type: "BatchNorm"
  bottom: "fire7/concat"
  top: "fire7/concat"
  include {
    phase: TEST
  }
  batch_norm_param {
    use_global_stats: true
    moving_average_fraction: 0.95
  }
}
layer {
  name: "fire8/squeeze1x1"
  type: "Convolution"
  bottom: "fire7/concat"
  top: "fire8/squeeze1x1"
  convolution_param {
    num_output: 64
    kernel_size: 1
    weight_filler {
      type: "xavier"
    }
  }
}
layer {
  name: "fire8/relu_squeeze1x1"
  type: "ReLU"
  bottom: "fire8/squeeze1x1"
  top: "fire8/squeeze1x1"
}
layer {
  name: "fire8/expand1x1"
  type: "Convolution"
  bottom: "fire8/squeeze1x1"
  top: "fire8/expand1x1"
  convolution_param {
    num_output: 256
    kernel_size: 1
    weight_filler {
      type: "xavier"
    }
  }
}
layer {
  name: "fire8/relu_expand1x1"
  type: "ReLU"
  bottom: "fire8/expand1x1"
  top: "fire8/expand1x1"
}
layer {
  name: "fire8/expand3x3"
  type: "Convolution"
  bottom: "fire8/squeeze1x1"
  top: "fire8/expand3x3"
  convolution_param {
    num_output: 256
    pad: 1
    kernel_size: 3
    weight_filler {
      type: "xavier"
    }
  }
}
layer {
  name: "fire8/relu_expand3x3"
  type: "ReLU"
  bottom: "fire8/expand3x3"
  top: "fire8/expand3x3"
}
layer {
  name: "fire8/concat"
  type: "Concat"
  bottom: "fire8/expand1x1"
  bottom: "fire8/expand3x3"
  top: "fire8/concat"
}
layer {
  name: "fire8/concat_bn"
  type: "BatchNorm"
  bottom: "fire8/concat"
  top: "fire8/concat"
  include {
    phase: TEST
  }
  batch_norm_param {
    use_global_stats: true
    moving_average_fraction: 0.95
  }
}
layer {
  name: "fire9/squeeze1x1"
  type: "Convolution"
  bottom: "fire8/concat"
  top: "fire9/squeeze1x1"
  convolution_param {
    num_output: 64
    kernel_size: 1
    weight_filler {
      type: "xavier"
    }
  }
}
layer {
  name: "fire9/relu_squeeze1x1"
  type: "ReLU"
  bottom: "fire9/squeeze1x1"
  top: "fire9/squeeze1x1"
}
layer {
  name: "fire9/expand1x1"
  type: "Convolution"
  bottom: "fire9/squeeze1x1"
  top: "fire9/expand1x1"
  convolution_param {
    num_output: 256
    kernel_size: 1
    weight_filler {
      type: "xavier"
    }
  }
}
layer {
  name: "fire9/relu_expand1x1"
  type: "ReLU"
  bottom: "fire9/expand1x1"
  top: "fire9/expand1x1"
}
layer {
  name: "fire9/expand3x3"
  type: "Convolution"
  bottom: "fire9/squeeze1x1"
  top: "fire9/expand3x3"
  convolution_param {
    num_output: 256
    pad: 1
    kernel_size: 3
    weight_filler {
      type: "xavier"
    }
  }
}
layer {
  name: "fire9/relu_expand3x3"
  type: "ReLU"
  bottom: "fire9/expand3x3"
  top: "fire9/expand3x3"
}
layer {
  name: "fire9/concat"
  type: "Concat"
  bottom: "fire9/expand1x1"
  bottom: "fire9/expand3x3"
  top: "fire9/concat"
}
layer {
  name: "fire9/concat_bn"
  type: "BatchNorm"
  bottom: "fire9/concat"
  top: "fire9/concat"
  include {
    phase: TEST
  }
  batch_norm_param {
    use_global_stats: true
    moving_average_fraction: 0.95
  }
}
layer {
  name: "conv6_1"
  type: "Convolution"
  bottom: "fire9/concat"
  top: "conv6_1"
  param {
    lr_mult: 1
    decay_mult: 1
  }
  param {
    lr_mult: 2
    decay_mult: 0
  }
  convolution_param {
    num_output: 256
    pad: 0
    kernel_size: 1
    stride: 1
    weight_filler {
      type: "xavier"
    }
    bias_filler {
      type: "constant"
      value: 0
    }
  }
}
layer {
  name: "conv6_1_relu"
  type: "ReLU"
  bottom: "conv6_1"
  top: "conv6_1"
}
layer {
  name: "conv6_1_bn"
  type: "BatchNorm"
  bottom: "conv6_1"
  top: "conv6_1"
  include {
    phase: TEST
  }
  batch_norm_param {
    use_global_stats: true
    moving_average_fraction: 0.95
  }
}
layer {
  name: "conv6_2"
  type: "Convolution"
  bottom: "conv6_1"
  top: "conv6_2"
  param {
    lr_mult: 1
    decay_mult: 1
  }
  param {
    lr_mult: 2
    decay_mult: 0
  }
  convolution_param {
    num_output: 512
    pad: 1
    kernel_size: 3
    stride: 2
    weight_filler {
      type: "xavier"
    }
    bias_filler {
      type: "constant"
      value: 0
    }
  }
}
layer {
  name: "conv6_2_relu"
  type: "ReLU"
  bottom: "conv6_2"
  top: "conv6_2"
}
layer {
  name: "conv6_2_bn"
  type: "BatchNorm"
  bottom: "conv6_2"
  top: "conv6_2"
  include {
    phase: TEST
  }
  batch_norm_param {
    use_global_stats: true
    moving_average_fraction: 0.95
  }
}
layer {
  name: "conv7_1"
  type: "Convolution"
  bottom: "conv6_2"
  top: "conv7_1"
  param {
    lr_mult: 1
    decay_mult: 1
  }
  param {
    lr_mult: 2
    decay_mult: 0
  }
  convolution_param {
    num_output: 128
    pad: 0
    kernel_size: 1
    stride: 1
    weight_filler {
      type: "xavier"
    }
    bias_filler {
      type: "constant"
      value: 0
    }
  }
}
layer {
  name: "conv7_1_relu"
  type: "ReLU"
  bottom: "conv7_1"
  top: "conv7_1"
}
layer {
  name: "conv7_1_bn"
  type: "BatchNorm"
  bottom: "conv7_1"
  top: "conv7_1"
  include {
    phase: TEST
  }
  batch_norm_param {
    use_global_stats: true
    moving_average_fraction: 0.95
  }
}
layer {
  name: "conv7_2"
  type: "Convolution"
  bottom: "conv7_1"
  top: "conv7_2"
  param {
    lr_mult: 1
    decay_mult: 1
  }
  param {
    lr_mult: 2
    decay_mult: 0
  }
  convolution_param {
    num_output: 256
    pad: 1
    kernel_size: 3
    stride: 2
    weight_filler {
      type: "xavier"
    }
    bias_filler {
      type: "constant"
      value: 0
    }
  }
}
layer {
  name: "conv7_2_relu"
  type: "ReLU"
  bottom: "conv7_2"
  top: "conv7_2"
}
layer {
  name: "conv7_2_bn"
  type: "BatchNorm"
  bottom: "conv7_2"
  top: "conv7_2"
  include {
    phase: TEST
  }
  batch_norm_param {
    use_global_stats: true
    moving_average_fraction: 0.95
  }
}
layer {
  name: "conv8_1"
  type: "Convolution"
  bottom: "conv7_2"
  top: "conv8_1"
  param {
    lr_mult: 1
    decay_mult: 1
  }
  param {
    lr_mult: 2
    decay_mult: 0
  }
  convolution_param {
    num_output: 128
    pad: 0
    kernel_size: 1
    stride: 1
    weight_filler {
      type: "xavier"
    }
    bias_filler {
      type: "constant"
      value: 0
    }
  }
}
layer {
  name: "conv8_1_relu"
  type: "ReLU"
  bottom: "conv8_1"
  top: "conv8_1"
}
layer {
  name: "conv8_1_bn"
  type: "BatchNorm"
  bottom: "conv8_1"
  top: "conv8_1"
  include {
    phase: TEST
  }
  batch_norm_param {
    use_global_stats: true
    moving_average_fraction: 0.95
  }
}
layer {
  name: "conv8_2"
  type: "Convolution"
  bottom: "conv8_1"
  top: "conv8_2"
  param {
    lr_mult: 1
    decay_mult: 1
  }
  param {
    lr_mult: 2
    decay_mult: 0
  }
  convolution_param {
    num_output: 256
    pad: 1
    kernel_size: 3
    stride: 2
    weight_filler {
      type: "xavier"
    }
    bias_filler {
      type: "constant"
      value: 0
    }
  }
}
layer {
  name: "conv8_2_relu"
  type: "ReLU"
  bottom: "conv8_2"
  top: "conv8_2"
}
layer {
  name: "conv8_2_bn"
  type: "BatchNorm"
  bottom: "conv8_2"
  top: "conv8_2"
  include {
    phase: TEST
  }
  batch_norm_param {
    use_global_stats: true
    moving_average_fraction: 0.95
  }
}
layer {
  name: "pool6"
  type: "Pooling"
  bottom: "conv8_2"
  top: "pool6"
  pooling_param {
    pool: AVE
    global_pooling: true
  }
}
layer {
  name: "conv4_3_norm_1"
  type: "Normalize"
  bottom: "fire5/concat"
  top: "conv4_3_norm_1"
  norm_param {
    across_spatial: false
    scale_filler {
      type: "constant"
      value: 20
    }
    channel_shared: false
  }
}
layer {
  name: "conv4_3_norm_mbox_loc_1"
  type: "Convolution"
  bottom: "conv4_3_norm_1"
  top: "conv4_3_norm_mbox_loc_1"
  param {
    lr_mult: 1
    decay_mult: 1
  }
  param {
    lr_mult: 2
    decay_mult: 0
  }
  convolution_param {
    num_output: 24
    pad: 1
    kernel_size: 3
    stride: 1
    weight_filler {
      type: "xavier"
    }
    bias_filler {
      type: "constant"
      value: 0
    }
  }
}
layer {
  name: "conv4_3_norm_mbox_loc_perm_1"
  type: "Permute"
  bottom: "conv4_3_norm_mbox_loc_1"
  top: "conv4_3_norm_mbox_loc_perm_1"
  permute_param {
    order: 0
    order: 2
    order: 3
    order: 1
  }
}
layer {
  name: "conv4_3_norm_mbox_loc_flat_1"
  type: "Flatten"
  bottom: "conv4_3_norm_mbox_loc_perm_1"
  top: "conv4_3_norm_mbox_loc_flat_1"
  flatten_param {
    axis: 1
  }
}
layer {
  name: "conv4_3_norm_mbox_conf_1"
  type: "Convolution"
  bottom: "conv4_3_norm_1"
  top: "conv4_3_norm_mbox_conf_1"
  param {
    lr_mult: 1
    decay_mult: 1
  }
  param {
    lr_mult: 2
    decay_mult: 0
  }
  convolution_param {
    num_output: 12
    pad: 1
    kernel_size: 3
    stride: 1
    weight_filler {
      type: "xavier"
    }
    bias_filler {
      type: "constant"
      value: 0
    }
  }
}
layer {
  name: "conv4_3_norm_mbox_conf_perm_1"
  type: "Permute"
  bottom: "conv4_3_norm_mbox_conf_1"
  top: "conv4_3_norm_mbox_conf_perm_1"
  permute_param {
    order: 0
    order: 2
    order: 3
    order: 1
  }
}
layer {
  name: "conv4_3_norm_mbox_conf_flat_1"
  type: "Flatten"
  bottom: "conv4_3_norm_mbox_conf_perm_1"
  top: "conv4_3_norm_mbox_conf_flat_1"
  flatten_param {
    axis: 1
  }
}
layer {
  name: "conv4_3_norm_mbox_priorbox_1"
  type: "PriorBox"
  bottom: "conv4_3_norm_1"
  bottom: "data"
  top: "conv4_3_norm_mbox_priorbox_1"
  prior_box_param {
    min_size: 25
    max_size: 51
    aspect_ratio: 0.25
    aspect_ratio: 0.5
    aspect_ratio: 0.75
    aspect_ratio: 1.25
    flip: false
    clip: true
    variance: 0.1
    variance: 0.1
    variance: 0.2
    variance: 0.2
  }
}
layer {
  name: "fc7_mbox_loc_1"
  type: "Convolution"
  bottom: "fire9/concat"
  top: "fc7_mbox_loc_1"
  param {
    lr_mult: 1
    decay_mult: 1
  }
  param {
    lr_mult: 2
    decay_mult: 0
  }
  convolution_param {
    num_output: 24
    pad: 1
    kernel_size: 3
    stride: 1
    weight_filler {
      type: "xavier"
    }
    bias_filler {
      type: "constant"
      value: 0
    }
  }
}
layer {
  name: "fc7_mbox_loc_perm_1"
  type: "Permute"
  bottom: "fc7_mbox_loc_1"
  top: "fc7_mbox_loc_perm_1"
  permute_param {
    order: 0
    order: 2
    order: 3
    order: 1
  }
}
layer {
  name: "fc7_mbox_loc_flat_1"
  type: "Flatten"
  bottom: "fc7_mbox_loc_perm_1"
  top: "fc7_mbox_loc_flat_1"
  flatten_param {
    axis: 1
  }
}
layer {
  name: "fc7_mbox_conf_1"
  type: "Convolution"
  bottom: "fire9/concat"
  top: "fc7_mbox_conf_1"
  param {
    lr_mult: 1
    decay_mult: 1
  }
  param {
    lr_mult: 2
    decay_mult: 0
  }
  convolution_param {
    num_output: 12
    pad: 1
    kernel_size: 3
    stride: 1
    weight_filler {
      type: "xavier"
    }
    bias_filler {
      type: "constant"
      value: 0
    }
  }
}
layer {
  name: "fc7_mbox_conf_perm_1"
  type: "Permute"
  bottom: "fc7_mbox_conf_1"
  top: "fc7_mbox_conf_perm_1"
  permute_param {
    order: 0
    order: 2
    order: 3
    order: 1
  }
}
layer {
  name: "fc7_mbox_conf_flat_1"
  type: "Flatten"
  bottom: "fc7_mbox_conf_perm_1"
  top: "fc7_mbox_conf_flat_1"
  flatten_param {
    axis: 1
  }
}
layer {
  name: "fc7_mbox_priorbox_1"
  type: "PriorBox"
  bottom: "fire9/concat"
  bottom: "data"
  top: "fc7_mbox_priorbox_1"
  prior_box_param {
    min_size: 51
    max_size: 97
    aspect_ratio: 0.25
    aspect_ratio: 0.5
    aspect_ratio: 0.75
    aspect_ratio: 1.25
    flip: false
    clip: true
    variance: 0.1
    variance: 0.1
    variance: 0.2
    variance: 0.2
  }
}
layer {
  name: "conv6_2_mbox_loc_1"
  type: "Convolution"
  bottom: "conv6_2"
  top: "conv6_2_mbox_loc_1"
  param {
    lr_mult: 1
    decay_mult: 1
  }
  param {
    lr_mult: 2
    decay_mult: 0
  }
  convolution_param {
    num_output: 24
    pad: 1
    kernel_size: 3
    stride: 1
    weight_filler {
      type: "xavier"
    }
    bias_filler {
      type: "constant"
      value: 0
    }
  }
}
layer {
  name: "conv6_2_mbox_loc_perm_1"
  type: "Permute"
  bottom: "conv6_2_mbox_loc_1"
  top: "conv6_2_mbox_loc_perm_1"
  permute_param {
    order: 0
    order: 2
    order: 3
    order: 1
  }
}
layer {
  name: "conv6_2_mbox_loc_flat_1"
  type: "Flatten"
  bottom: "conv6_2_mbox_loc_perm_1"
  top: "conv6_2_mbox_loc_flat_1"
  flatten_param {
    axis: 1
  }
}
layer {
  name: "conv6_2_mbox_conf_1"
  type: "Convolution"
  bottom: "conv6_2"
  top: "conv6_2_mbox_conf_1"
  param {
    lr_mult: 1
    decay_mult: 1
  }
  param {
    lr_mult: 2
    decay_mult: 0
  }
  convolution_param {
    num_output: 12
    pad: 1
    kernel_size: 3
    stride: 1
    weight_filler {
      type: "xavier"
    }
    bias_filler {
      type: "constant"
      value: 0
    }
  }
}
layer {
  name: "conv6_2_mbox_conf_perm_1"
  type: "Permute"
  bottom: "conv6_2_mbox_conf_1"
  top: "conv6_2_mbox_conf_perm_1"
  permute_param {
    order: 0
    order: 2
    order: 3
    order: 1
  }
}
layer {
  name: "conv6_2_mbox_conf_flat_1"
  type: "Flatten"
  bottom: "conv6_2_mbox_conf_perm_1"
  top: "conv6_2_mbox_conf_flat_1"
  flatten_param {
    axis: 1
  }
}
layer {
  name: "conv6_2_mbox_priorbox_1"
  type: "PriorBox"
  bottom: "conv6_2"
  bottom: "data"
  top: "conv6_2_mbox_priorbox_1"
  prior_box_param {
    min_size: 97
    max_size: 138
    aspect_ratio: 0.25
    aspect_ratio: 0.5
    aspect_ratio: 0.75
    aspect_ratio: 1.25
    flip: false
    clip: true
    variance: 0.1
    variance: 0.1
    variance: 0.2
    variance: 0.2
  }
}
layer {
  name: "conv7_2_mbox_loc_1"
  type: "Convolution"
  bottom: "conv7_2"
  top: "conv7_2_mbox_loc_1"
  param {
    lr_mult: 1
    decay_mult: 1
  }
  param {
    lr_mult: 2
    decay_mult: 0
  }
  convolution_param {
    num_output: 24
    pad: 1
    kernel_size: 3
    stride: 1
    weight_filler {
      type: "xavier"
    }
    bias_filler {
      type: "constant"
      value: 0
    }
  }
}
layer {
  name: "conv7_2_mbox_loc_perm_1"
  type: "Permute"
  bottom: "conv7_2_mbox_loc_1"
  top: "conv7_2_mbox_loc_perm_1"
  permute_param {
    order: 0
    order: 2
    order: 3
    order: 1
  }
}
layer {
  name: "conv7_2_mbox_loc_flat_1"
  type: "Flatten"
  bottom: "conv7_2_mbox_loc_perm_1"
  top: "conv7_2_mbox_loc_flat_1"
  flatten_param {
    axis: 1
  }
}
layer {
  name: "conv7_2_mbox_conf_1"
  type: "Convolution"
  bottom: "conv7_2"
  top: "conv7_2_mbox_conf_1"
  param {
    lr_mult: 1
    decay_mult: 1
  }
  param {
    lr_mult: 2
    decay_mult: 0
  }
  convolution_param {
    num_output: 12
    pad: 1
    kernel_size: 3
    stride: 1
    weight_filler {
      type: "xavier"
    }
    bias_filler {
      type: "constant"
      value: 0
    }
  }
}
layer {
  name: "conv7_2_mbox_conf_perm_1"
  type: "Permute"
  bottom: "conv7_2_mbox_conf_1"
  top: "conv7_2_mbox_conf_perm_1"
  permute_param {
    order: 0
    order: 2
    order: 3
    order: 1
  }
}
layer {
  name: "conv7_2_mbox_conf_flat_1"
  type: "Flatten"
  bottom: "conv7_2_mbox_conf_perm_1"
  top: "conv7_2_mbox_conf_flat_1"
  flatten_param {
    axis: 1
  }
}
layer {
  name: "conv7_2_mbox_priorbox_1"
  type: "PriorBox"
  bottom: "conv7_2"
  bottom: "data"
  top: "conv7_2_mbox_priorbox_1"
  prior_box_param {
    min_size: 138
    max_size: 184
    aspect_ratio: 0.25
    aspect_ratio: 0.5
    aspect_ratio: 0.75
    aspect_ratio: 1.25
    flip: false
    clip: true
    variance: 0.1
    variance: 0.1
    variance: 0.2
    variance: 0.2
  }
}
layer {
  name: "conv8_2_mbox_loc_1"
  type: "Convolution"
  bottom: "conv8_2"
  top: "conv8_2_mbox_loc_1"
  param {
    lr_mult: 1
    decay_mult: 1
  }
  param {
    lr_mult: 2
    decay_mult: 0
  }
  convolution_param {
    num_output: 24
    pad: 1
    kernel_size: 3
    stride: 1
    weight_filler {
      type: "xavier"
    }
    bias_filler {
      type: "constant"
      value: 0
    }
  }
}
layer {
  name: "conv8_2_mbox_loc_perm_1"
  type: "Permute"
  bottom: "conv8_2_mbox_loc_1"
  top: "conv8_2_mbox_loc_perm_1"
  permute_param {
    order: 0
    order: 2
    order: 3
    order: 1
  }
}
layer {
  name: "conv8_2_mbox_loc_flat_1"
  type: "Flatten"
  bottom: "conv8_2_mbox_loc_perm_1"
  top: "conv8_2_mbox_loc_flat_1"
  flatten_param {
    axis: 1
  }
}
layer {
  name: "conv8_2_mbox_conf_1"
  type: "Convolution"
  bottom: "conv8_2"
  top: "conv8_2_mbox_conf_1"
  param {
    lr_mult: 1
    decay_mult: 1
  }
  param {
    lr_mult: 2
    decay_mult: 0
  }
  convolution_param {
    num_output: 12
    pad: 1
    kernel_size: 3
    stride: 1
    weight_filler {
      type: "xavier"
    }
    bias_filler {
      type: "constant"
      value: 0
    }
  }
}
layer {
  name: "conv8_2_mbox_conf_perm_1"
  type: "Permute"
  bottom: "conv8_2_mbox_conf_1"
  top: "conv8_2_mbox_conf_perm_1"
  permute_param {
    order: 0
    order: 2
    order: 3
    order: 1
  }
}
layer {
  name: "conv8_2_mbox_conf_flat_1"
  type: "Flatten"
  bottom: "conv8_2_mbox_conf_perm_1"
  top: "conv8_2_mbox_conf_flat_1"
  flatten_param {
    axis: 1
  }
}
layer {
  name: "conv8_2_mbox_priorbox_1"
  type: "PriorBox"
  bottom: "conv8_2"
  bottom: "data"
  top: "conv8_2_mbox_priorbox_1"
  prior_box_param {
    min_size: 184
    max_size: 230
    aspect_ratio: 0.25
    aspect_ratio: 0.5
    aspect_ratio: 0.75
    aspect_ratio: 1.25
    flip: false
    clip: true
    variance: 0.1
    variance: 0.1
    variance: 0.2
    variance: 0.2
  }
}
layer {
  name: "pool6_mbox_loc_1"
  type: "Convolution"
  bottom: "pool6"
  top: "pool6_mbox_loc_1"
  param {
    lr_mult: 1
    decay_mult: 1
  }
  param {
    lr_mult: 2
    decay_mult: 0
  }
  convolution_param {
    num_output: 24
    pad: 1
    kernel_size: 3
    stride: 1
    weight_filler {
      type: "xavier"
    }
    bias_filler {
      type: "constant"
      value: 0
    }
  }
}
layer {
  name: "pool6_mbox_loc_perm_1"
  type: "Permute"
  bottom: "pool6_mbox_loc_1"
  top: "pool6_mbox_loc_perm_1"
  permute_param {
    order: 0
    order: 2
    order: 3
    order: 1
  }
}
layer {
  name: "pool6_mbox_loc_flat_1"
  type: "Flatten"
  bottom: "pool6_mbox_loc_perm_1"
  top: "pool6_mbox_loc_flat_1"
  flatten_param {
    axis: 1
  }
}
layer {
  name: "pool6_mbox_conf_1"
  type: "Convolution"
  bottom: "pool6"
  top: "pool6_mbox_conf_1"
  param {
    lr_mult: 1
    decay_mult: 1
  }
  param {
    lr_mult: 2
    decay_mult: 0
  }
  convolution_param {
    num_output: 12
    pad: 1
    kernel_size: 3
    stride: 1
    weight_filler {
      type: "xavier"
    }
    bias_filler {
      type: "constant"
      value: 0
    }
  }
}
layer {
  name: "pool6_mbox_conf_perm_1"
  type: "Permute"
  bottom: "pool6_mbox_conf_1"
  top: "pool6_mbox_conf_perm_1"
  permute_param {
    order: 0
    order: 2
    order: 3
    order: 1
  }
}
layer {
  name: "pool6_mbox_conf_flat_1"
  type: "Flatten"
  bottom: "pool6_mbox_conf_perm_1"
  top: "pool6_mbox_conf_flat_1"
  flatten_param {
    axis: 1
  }
}
layer {
  name: "pool6_mbox_priorbox_1"
  type: "PriorBox"
  bottom: "pool6"
  bottom: "data"
  top: "pool6_mbox_priorbox_1"
  prior_box_param {
    min_size: 230
    max_size: 276
    aspect_ratio: 0.25
    aspect_ratio: 0.5
    aspect_ratio: 0.75
    aspect_ratio: 1.25
    flip: false
    clip: true
    variance: 0.1
    variance: 0.1
    variance: 0.2
    variance: 0.2
  }
}
layer {
  name: "mbox_loc_1"
  type: "Concat"
  bottom: "conv4_3_norm_mbox_loc_flat_1"
  bottom: "fc7_mbox_loc_flat_1"
  bottom: "conv6_2_mbox_loc_flat_1"
  bottom: "conv7_2_mbox_loc_flat_1"
  bottom: "conv8_2_mbox_loc_flat_1"
  bottom: "pool6_mbox_loc_flat_1"
  top: "mbox_loc_1"
  concat_param {
    axis: 1
  }
}
layer {
  name: "mbox_conf_1"
  type: "Concat"
  bottom: "conv4_3_norm_mbox_conf_flat_1"
…
I0801 23:20:04.827188  5612 net.cpp:434] fire9/expand1x1 <- fire9/squeeze1x1_fire9/relu_squeeze1x1_0
_split_0
I0801 23:20:04.828188  5612 net.cpp:408] fire9/expand1x1 -> fire9/expand1x1
I0801 23:20:04.829188  5612 net.cpp:150] Setting up fire9/expand1x1
I0801 23:20:04.830188  5612 net.cpp:157] Top shape: 32 256 16 24 (3145728)
I0801 23:20:04.830188  5612 net.cpp:165] Memory required for data: 2497708224
I0801 23:20:04.830188  5612 layer_factory.hpp:77] Creating layer fire9/relu_expand1x1
I0801 23:20:04.830188  5612 net.cpp:100] Creating Layer fire9/relu_expand1x1
I0801 23:20:04.830188  5612 net.cpp:434] fire9/relu_expand1x1 <- fire9/expand1x1
I0801 23:20:04.831188  5612 net.cpp:395] fire9/relu_expand1x1 -> fire9/expand1x1 (in-place)
I0801 23:20:04.831188  5612 net.cpp:150] Setting up fire9/relu_expand1x1
I0801 23:20:04.831188  5612 net.cpp:157] Top shape: 32 256 16 24 (3145728)
I0801 23:20:04.831188  5612 net.cpp:165] Memory required for data: 2510291136
I0801 23:20:04.832188  5612 layer_factory.hpp:77] Creating layer fire9/expand3x3
I0801 23:20:04.832188  5612 net.cpp:100] Creating Layer fire9/expand3x3
I0801 23:20:04.832188  5612 net.cpp:434] fire9/expand3x3 <- fire9/squeeze1x1_fire9/relu_squeeze1x1_0
_split_1
I0801 23:20:04.832188  5612 net.cpp:408] fire9/expand3x3 -> fire9/expand3x3
I0801 23:20:04.835188  5612 net.cpp:150] Setting up fire9/expand3x3
I0801 23:20:04.835188  5612 net.cpp:157] Top shape: 32 256 16 24 (3145728)
I0801 23:20:04.836189  5612 net.cpp:165] Memory required for data: 2522874048
I0801 23:20:04.836189  5612 layer_factory.hpp:77] Creating layer fire9/relu_expand3x3
I0801 23:20:04.836189  5612 net.cpp:100] Creating Layer fire9/relu_expand3x3
I0801 23:20:04.836189  5612 net.cpp:434] fire9/relu_expand3x3 <- fire9/expand3x3
I0801 23:20:04.836189  5612 net.cpp:395] fire9/relu_expand3x3 -> fire9/expand3x3 (in-place)
I0801 23:20:04.837188  5612 net.cpp:150] Setting up fire9/relu_expand3x3
I0801 23:20:04.837188  5612 net.cpp:157] Top shape: 32 256 16 24 (3145728)
I0801 23:20:04.837188  5612 net.cpp:165] Memory required for data: 2535456960
I0801 23:20:04.838188  5612 layer_factory.hpp:77] Creating layer fire9/concat
I0801 23:20:04.838188  5612 net.cpp:100] Creating Layer fire9/concat
I0801 23:20:04.838188  5612 net.cpp:434] fire9/concat <- fire9/expand1x1
I0801 23:20:04.838188  5612 net.cpp:434] fire9/concat <- fire9/expand3x3
I0801 23:20:04.838188  5612 net.cpp:408] fire9/concat -> fire9/concat
I0801 23:20:04.839188  5612 net.cpp:150] Setting up fire9/concat
I0801 23:20:04.839188  5612 net.cpp:157] Top shape: 32 512 16 24 (6291456)
I0801 23:20:04.839188  5612 net.cpp:165] Memory required for data: 2560622784
I0801 23:20:04.839188  5612 layer_factory.hpp:77] Creating layer fire9/concat_bn
I0801 23:20:04.839188  5612 net.cpp:100] Creating Layer fire9/concat_bn
I0801 23:20:04.840188  5612 net.cpp:434] fire9/concat_bn <- fire9/concat
I0801 23:20:04.840188  5612 net.cpp:395] fire9/concat_bn -> fire9/concat (in-place)
I0801 23:20:04.840188  5612 net.cpp:150] Setting up fire9/concat_bn
I0801 23:20:04.840188  5612 net.cpp:157] Top shape: 32 512 16 24 (6291456)
I0801 23:20:04.841188  5612 net.cpp:165] Memory required for data: 2585788608
I0801 23:20:04.841188  5612 layer_factory.hpp:77] Creating layer fire9/concat_fire9/concat_bn_0_spli
t
I0801 23:20:04.841188  5612 net.cpp:100] Creating Layer fire9/concat_fire9/concat_bn_0_split
I0801 23:20:04.841188  5612 net.cpp:434] fire9/concat_fire9/concat_bn_0_split <- fire9/concat
I0801 23:20:04.842190  5612 net.cpp:408] fire9/concat_fire9/concat_bn_0_split -> fire9/concat_fire9/
concat_bn_0_split_0
I0801 23:20:04.842190  5612 net.cpp:408] fire9/concat_fire9/concat_bn_0_split -> fire9/concat_fire9/
concat_bn_0_split_1
I0801 23:20:04.842190  5612 net.cpp:408] fire9/concat_fire9/concat_bn_0_split -> fire9/concat_fire9/
concat_bn_0_split_2
I0801 23:20:04.843189  5612 net.cpp:408] fire9/concat_fire9/concat_bn_0_split -> fire9/concat_fire9/
concat_bn_0_split_3
I0801 23:20:04.843189  5612 net.cpp:150] Setting up fire9/concat_fire9/concat_bn_0_split
I0801 23:20:04.843189  5612 net.cpp:157] Top shape: 32 512 16 24 (6291456)
I0801 23:20:04.843189  5612 net.cpp:157] Top shape: 32 512 16 24 (6291456)
I0801 23:20:04.844189  5612 net.cpp:157] Top shape: 32 512 16 24 (6291456)
I0801 23:20:04.844189  5612 net.cpp:157] Top shape: 32 512 16 24 (6291456)
I0801 23:20:04.844189  5612 net.cpp:165] Memory required for data: 2686451904
I0801 23:20:04.844189  5612 layer_factory.hpp:77] Creating layer conv6_1
I0801 23:20:04.844189  5612 net.cpp:100] Creating Layer conv6_1
I0801 23:20:04.845190  5612 net.cpp:434] conv6_1 <- fire9/concat_fire9/concat_bn_0_split_0
I0801 23:20:04.845190  5612 net.cpp:408] conv6_1 -> conv6_1
I0801 23:20:04.848189  5612 net.cpp:150] Setting up conv6_1
I0801 23:20:04.848189  5612 net.cpp:157] Top shape: 32 256 16 24 (3145728)
I0801 23:20:04.848189  5612 net.cpp:165] Memory required for data: 2699034816
I0801 23:20:04.848189  5612 layer_factory.hpp:77] Creating layer conv6_1_relu
I0801 23:20:04.848189  5612 net.cpp:100] Creating Layer conv6_1_relu
I0801 23:20:04.849189  5612 net.cpp:434] conv6_1_relu <- conv6_1
I0801 23:20:04.849189  5612 net.cpp:395] conv6_1_relu -> conv6_1 (in-place)
I0801 23:20:04.849189  5612 net.cpp:150] Setting up conv6_1_relu
I0801 23:20:04.849189  5612 net.cpp:157] Top shape: 32 256 16 24 (3145728)
I0801 23:20:04.850189  5612 net.cpp:165] Memory required for data: 2711617728
I0801 23:20:04.850189  5612 layer_factory.hpp:77] Creating layer conv6_1_bn
I0801 23:20:04.850189  5612 net.cpp:100] Creating Layer conv6_1_bn
I0801 23:20:04.850189  5612 net.cpp:434] conv6_1_bn <- conv6_1
I0801 23:20:04.850189  5612 net.cpp:395] conv6_1_bn -> conv6_1 (in-place)
I0801 23:20:04.851189  5612 net.cpp:150] Setting up conv6_1_bn
I0801 23:20:04.851189  5612 net.cpp:157] Top shape: 32 256 16 24 (3145728)
I0801 23:20:04.851189  5612 net.cpp:165] Memory required for data: 2724200640
I0801 23:20:04.851189  5612 layer_factory.hpp:77] Creating layer conv6_2
I0801 23:20:04.852190  5612 net.cpp:100] Creating Layer conv6_2
I0801 23:20:04.852190  5612 net.cpp:434] conv6_2 <- conv6_1
I0801 23:20:04.852190  5612 net.cpp:408] conv6_2 -> conv6_2
I0801 23:20:04.864190  5612 net.cpp:150] Setting up conv6_2
I0801 23:20:04.865190  5612 net.cpp:157] Top shape: 32 512 8 12 (1572864)
I0801 23:20:04.865190  5612 net.cpp:165] Memory required for data: 2730492096
I0801 23:20:04.865190  5612 layer_factory.hpp:77] Creating layer conv6_2_relu
I0801 23:20:04.865190  5612 net.cpp:100] Creating Layer conv6_2_relu
I0801 23:20:04.865190  5612 net.cpp:434] conv6_2_relu <- conv6_2
I0801 23:20:04.866190  5612 net.cpp:395] conv6_2_relu -> conv6_2 (in-place)
I0801 23:20:04.866190  5612 net.cpp:150] Setting up conv6_2_relu
I0801 23:20:04.866190  5612 net.cpp:157] Top shape: 32 512 8 12 (1572864)
I0801 23:20:04.866190  5612 net.cpp:165] Memory required for data: 2736783552
I0801 23:20:04.867190  5612 layer_factory.hpp:77] Creating layer conv6_2_bn
I0801 23:20:04.867190  5612 net.cpp:100] Creating Layer conv6_2_bn
I0801 23:20:04.867190  5612 net.cpp:434] conv6_2_bn <- conv6_2
I0801 23:20:04.867190  5612 net.cpp:395] conv6_2_bn -> conv6_2 (in-place)
I0801 23:20:04.868191  5612 net.cpp:150] Setting up conv6_2_bn
I0801 23:20:04.868191  5612 net.cpp:157] Top shape: 32 512 8 12 (1572864)
I0801 23:20:04.868191  5612 net.cpp:165] Memory required for data: 2743075008
I0801 23:20:04.868191  5612 layer_factory.hpp:77] Creating layer conv6_2_conv6_2_bn_0_split
I0801 23:20:04.868191  5612 net.cpp:100] Creating Layer conv6_2_conv6_2_bn_0_split
I0801 23:20:04.869190  5612 net.cpp:434] conv6_2_conv6_2_bn_0_split <- conv6_2
I0801 23:20:04.869190  5612 net.cpp:408] conv6_2_conv6_2_bn_0_split -> conv6_2_conv6_2_bn_0_split_0
I0801 23:20:04.869190  5612 net.cpp:408] conv6_2_conv6_2_bn_0_split -> conv6_2_conv6_2_bn_0_split_1
I0801 23:20:04.869190  5612 net.cpp:408] conv6_2_conv6_2_bn_0_split -> conv6_2_conv6_2_bn_0_split_2
I0801 23:20:04.869190  5612 net.cpp:408] conv6_2_conv6_2_bn_0_split -> conv6_2_conv6_2_bn_0_split_3
I0801 23:20:04.870190  5612 net.cpp:150] Setting up conv6_2_conv6_2_bn_0_split
I0801 23:20:04.870190  5612 net.cpp:157] Top shape: 32 512 8 12 (1572864)
I0801 23:20:04.870190  5612 net.cpp:157] Top shape: 32 512 8 12 (1572864)
I0801 23:20:04.871191  5612 net.cpp:157] Top shape: 32 512 8 12 (1572864)
I0801 23:20:04.871191  5612 net.cpp:157] Top shape: 32 512 8 12 (1572864)
I0801 23:20:04.871191  5612 net.cpp:165] Memory required for data: 2768240832
I0801 23:20:04.871191  5612 layer_factory.hpp:77] Creating layer conv7_1
I0801 23:20:04.871191  5612 net.cpp:100] Creating Layer conv7_1
I0801 23:20:04.872190  5612 net.cpp:434] conv7_1 <- conv6_2_conv6_2_bn_0_split_0
I0801 23:20:04.872190  5612 net.cpp:408] conv7_1 -> conv7_1
I0801 23:20:04.874191  5612 net.cpp:150] Setting up conv7_1
I0801 23:20:04.874191  5612 net.cpp:157] Top shape: 32 128 8 12 (393216)
I0801 23:20:04.874191  5612 net.cpp:165] Memory required for data: 2769813696
I0801 23:20:04.874191  5612 layer_factory.hpp:77] Creating layer conv7_1_relu
I0801 23:20:04.874191  5612 net.cpp:100] Creating Layer conv7_1_relu
I0801 23:20:04.875190  5612 net.cpp:434] conv7_1_relu <- conv7_1
I0801 23:20:04.875190  5612 net.cpp:395] conv7_1_relu -> conv7_1 (in-place)
I0801 23:20:04.875190  5612 net.cpp:150] Setting up conv7_1_relu
I0801 23:20:04.876190  5612 net.cpp:157] Top shape: 32 128 8 12 (393216)
I0801 23:20:04.876190  5612 net.cpp:165] Memory required for data: 2771386560
I0801 23:20:04.876190  5612 layer_factory.hpp:77] Creating layer conv7_1_bn
I0801 23:20:04.876190  5612 net.cpp:100] Creating Layer conv7_1_bn
I0801 23:20:04.877192  5612 net.cpp:434] conv7_1_bn <- conv7_1
I0801 23:20:04.877192  5612 net.cpp:395] conv7_1_bn -> conv7_1 (in-place)
I0801 23:20:04.877192  5612 net.cpp:150] Setting up conv7_1_bn
I0801 23:20:04.878191  5612 net.cpp:157] Top shape: 32 128 8 12 (393216)
I0801 23:20:04.878191  5612 net.cpp:165] Memory required for data: 2772959424
I0801 23:20:04.878191  5612 layer_factory.hpp:77] Creating layer conv7_2
I0801 23:20:04.878191  5612 net.cpp:100] Creating Layer conv7_2
I0801 23:20:04.878191  5612 net.cpp:434] conv7_2 <- conv7_1
I0801 23:20:04.879191  5612 net.cpp:408] conv7_2 -> conv7_2
I0801 23:20:04.883191  5612 net.cpp:150] Setting up conv7_2
I0801 23:20:04.883191  5612 net.cpp:157] Top shape: 32 256 4 6 (196608)
I0801 23:20:04.883191  5612 net.cpp:165] Memory required for data: 2773745856
I0801 23:20:04.884191  5612 layer_factory.hpp:77] Creating layer conv7_2_relu
I0801 23:20:04.884191  5612 net.cpp:100] Creating Layer conv7_2_relu
I0801 23:20:04.884191  5612 net.cpp:434] conv7_2_relu <- conv7_2
I0801 23:20:04.884191  5612 net.cpp:395] conv7_2_relu -> conv7_2 (in-place)
I0801 23:20:04.885191  5612 net.cpp:150] Setting up conv7_2_relu
I0801 23:20:04.885191  5612 net.cpp:157] Top shape: 32 256 4 6 (196608)
I0801 23:20:04.885191  5612 net.cpp:165] Memory required for data: 2774532288
I0801 23:20:04.886191  5612 layer_factory.hpp:77] Creating layer conv7_2_bn
I0801 23:20:04.886191  5612 net.cpp:100] Creating Layer conv7_2_bn
I0801 23:20:04.886191  5612 net.cpp:434] conv7_2_bn <- conv7_2
I0801 23:20:04.886191  5612 net.cpp:395] conv7_2_bn -> conv7_2 (in-place)
I0801 23:20:04.887192  5612 net.cpp:150] Setting up conv7_2_bn
I0801 23:20:04.887192  5612 net.cpp:157] Top shape: 32 256 4 6 (196608)
I0801 23:20:04.887192  5612 net.cpp:165] Memory required for data: 2775318720
I0801 23:20:04.888191  5612 layer_factory.hpp:77] Creating layer conv7_2_conv7_2_bn_0_split
I0801 23:20:04.888191  5612 net.cpp:100] Creating Layer conv7_2_conv7_2_bn_0_split
I0801 23:20:04.888191  5612 net.cpp:434] conv7_2_conv7_2_bn_0_split <- conv7_2
I0801 23:20:04.889191  5612 net.cpp:408] conv7_2_conv7_2_bn_0_split -> conv7_2_conv7_2_bn_0_split_0
I0801 23:20:04.889191  5612 net.cpp:408] conv7_2_conv7_2_bn_0_split -> conv7_2_conv7_2_bn_0_split_1
I0801 23:20:04.889191  5612 net.cpp:408] conv7_2_conv7_2_bn_0_split -> conv7_2_conv7_2_bn_0_split_2
I0801 23:20:04.890192  5612 net.cpp:408] conv7_2_conv7_2_bn_0_split -> conv7_2_conv7_2_bn_0_split_3
I0801 23:20:04.890192  5612 net.cpp:150] Setting up conv7_2_conv7_2_bn_0_split
I0801 23:20:04.890192  5612 net.cpp:157] Top shape: 32 256 4 6 (196608)
I0801 23:20:04.891191  5612 net.cpp:157] Top shape: 32 256 4 6 (196608)
I0801 23:20:04.891191  5612 net.cpp:157] Top shape: 32 256 4 6 (196608)
I0801 23:20:04.891191  5612 net.cpp:157] Top shape: 32 256 4 6 (196608)
I0801 23:20:04.891191  5612 net.cpp:165] Memory required for data: 2778464448
I0801 23:20:04.892191  5612 layer_factory.hpp:77] Creating layer conv8_1
I0801 23:20:04.892191  5612 net.cpp:100] Creating Layer conv8_1
I0801 23:20:04.892191  5612 net.cpp:434] conv8_1 <- conv7_2_conv7_2_bn_0_split_0
I0801 23:20:04.893191  5612 net.cpp:408] conv8_1 -> conv8_1
I0801 23:20:04.895192  5612 net.cpp:150] Setting up conv8_1
I0801 23:20:04.895192  5612 net.cpp:157] Top shape: 32 128 4 6 (98304)
I0801 23:20:04.895192  5612 net.cpp:165] Memory required for data: 2778857664
I0801 23:20:04.896193  5612 layer_factory.hpp:77] Creating layer conv8_1_relu
I0801 23:20:04.896193  5612 net.cpp:100] Creating Layer conv8_1_relu
I0801 23:20:04.896193  5612 net.cpp:434] conv8_1_relu <- conv8_1
I0801 23:20:04.897192  5612 net.cpp:395] conv8_1_relu -> conv8_1 (in-place)
I0801 23:20:04.897192  5612 net.cpp:150] Setting up conv8_1_relu
I0801 23:20:04.898192  5612 net.cpp:157] Top shape: 32 128 4 6 (98304)
I0801 23:20:04.898192  5612 net.cpp:165] Memory required for data: 2779250880
I0801 23:20:04.898192  5612 layer_factory.hpp:77] Creating layer conv8_1_bn
I0801 23:20:04.898192  5612 net.cpp:100] Creating Layer conv8_1_bn
I0801 23:20:04.898192  5612 net.cpp:434] conv8_1_bn <- conv8_1
I0801 23:20:04.899193  5612 net.cpp:395] conv8_1_bn -> conv8_1 (in-place)
I0801 23:20:04.899193  5612 net.cpp:150] Setting up conv8_1_bn
I0801 23:20:04.900192  5612 net.cpp:157] Top shape: 32 128 4 6 (98304)
I0801 23:20:04.900192  5612 net.cpp:165] Memory required for data: 2779644096
I0801 23:20:04.900192  5612 layer_factory.hpp:77] Creating layer conv8_2
I0801 23:20:04.900192  5612 net.cpp:100] Creating Layer conv8_2
I0801 23:20:04.901192  5612 net.cpp:434] conv8_2 <- conv8_1
I0801 23:20:04.901192  5612 net.cpp:408] conv8_2 -> conv8_2
I0801 23:20:04.905192  5612 net.cpp:150] Setting up conv8_2
I0801 23:20:04.905192  5612 net.cpp:157] Top shape: 32 256 2 3 (49152)
I0801 23:20:04.906193  5612 net.cpp:165] Memory required for data: 2779840704
I0801 23:20:04.906193  5612 layer_factory.hpp:77] Creating layer conv8_2_relu
I0801 23:20:04.906193  5612 net.cpp:100] Creating Layer conv8_2_relu
I0801 23:20:04.906193  5612 net.cpp:434] conv8_2_relu <- conv8_2
I0801 23:20:04.906193  5612 net.cpp:395] conv8_2_relu -> conv8_2 (in-place)
I0801 23:20:04.907192  5612 net.cpp:150] Setting up conv8_2_relu
I0801 23:20:04.907192  5612 net.cpp:157] Top shape: 32 256 2 3 (49152)
I0801 23:20:04.907192  5612 net.cpp:165] Memory required for data: 2780037312
I0801 23:20:04.908192  5612 layer_factory.hpp:77] Creating layer conv8_2_bn
I0801 23:20:04.908192  5612 net.cpp:100] Creating Layer conv8_2_bn
I0801 23:20:04.908192  5612 net.cpp:434] conv8_2_bn <- conv8_2
I0801 23:20:04.908192  5612 net.cpp:395] conv8_2_bn -> conv8_2 (in-place)
I0801 23:20:04.909193  5612 net.cpp:150] Setting up conv8_2_bn
I0801 23:20:04.909193  5612 net.cpp:157] Top shape: 32 256 2 3 (49152)
I0801 23:20:04.909193  5612 net.cpp:165] Memory required for data: 2780233920
I0801 23:20:04.909193  5612 layer_factory.hpp:77] Creating layer conv8_2_conv8_2_bn_0_split
I0801 23:20:04.909193  5612 net.cpp:100] Creating Layer conv8_2_conv8_2_bn_0_split
I0801 23:20:04.910192  5612 net.cpp:434] conv8_2_conv8_2_bn_0_split <- conv8_2
I0801 23:20:04.910192  5612 net.cpp:408] conv8_2_conv8_2_bn_0_split -> conv8_2_conv8_2_bn_0_split_0
I0801 23:20:04.910192  5612 net.cpp:408] conv8_2_conv8_2_bn_0_split -> conv8_2_conv8_2_bn_0_split_1
I0801 23:20:04.910192  5612 net.cpp:408] conv8_2_conv8_2_bn_0_split -> conv8_2_conv8_2_bn_0_split_2
I0801 23:20:04.910192  5612 net.cpp:408] conv8_2_conv8_2_bn_0_split -> conv8_2_conv8_2_bn_0_split_3
I0801 23:20:04.911192  5612 net.cpp:150] Setting up conv8_2_conv8_2_bn_0_split
I0801 23:20:04.911192  5612 net.cpp:157] Top shape: 32 256 2 3 (49152)
I0801 23:20:04.911192  5612 net.cpp:157] Top shape: 32 256 2 3 (49152)
I0801 23:20:04.911192  5612 net.cpp:157] Top shape: 32 256 2 3 (49152)
I0801 23:20:04.912194  5612 net.cpp:157] Top shape: 32 256 2 3 (49152)
I0801 23:20:04.912194  5612 net.cpp:165] Memory required for data: 2781020352
I0801 23:20:04.912194  5612 layer_factory.hpp:77] Creating layer pool6
I0801 23:20:04.913193  5612 net.cpp:100] Creating Layer pool6
I0801 23:20:04.913193  5612 net.cpp:434] pool6 <- conv8_2_conv8_2_bn_0_split_0
I0801 23:20:04.913193  5612 net.cpp:408] pool6 -> pool6
I0801 23:20:04.913193  5612 net.cpp:150] Setting up pool6
I0801 23:20:04.914193  5612 net.cpp:157] Top shape: 32 256 1 1 (8192)
I0801 23:20:04.914193  5612 net.cpp:165] Memory required for data: 2781053120
I0801 23:20:04.914193  5612 layer_factory.hpp:77] Creating layer pool6_pool6_0_split
I0801 23:20:04.914193  5612 net.cpp:100] Creating Layer pool6_pool6_0_split
I0801 23:20:04.914193  5612 net.cpp:434] pool6_pool6_0_split <- pool6
I0801 23:20:04.915194  5612 net.cpp:408] pool6_pool6_0_split -> pool6_pool6_0_split_0
I0801 23:20:04.915194  5612 net.cpp:408] pool6_pool6_0_split -> pool6_pool6_0_split_1
I0801 23:20:04.915194  5612 net.cpp:408] pool6_pool6_0_split -> pool6_pool6_0_split_2
I0801 23:20:04.915194  5612 net.cpp:150] Setting up pool6_pool6_0_split
I0801 23:20:04.915194  5612 net.cpp:157] Top shape: 32 256 1 1 (8192)
I0801 23:20:04.916193  5612 net.cpp:157] Top shape: 32 256 1 1 (8192)
I0801 23:20:04.916193  5612 net.cpp:157] Top shape: 32 256 1 1 (8192)
I0801 23:20:04.916193  5612 net.cpp:165] Memory required for data: 2781151424
I0801 23:20:04.916193  5612 layer_factory.hpp:77] Creating layer conv4_3_norm_1
I0801 23:20:04.916193  5612 net.cpp:100] Creating Layer conv4_3_norm_1
I0801 23:20:04.917193  5612 net.cpp:434] conv4_3_norm_1 <- fire5/concat_fire5/concat_0_split_1
I0801 23:20:04.917193  5612 net.cpp:408] conv4_3_norm_1 -> conv4_3_norm_1
I0801 23:20:04.917193  5612 net.cpp:150] Setting up conv4_3_norm_1
I0801 23:20:04.918193  5612 net.cpp:157] Top shape: 32 256 32 48 (12582912)
I0801 23:20:04.918193  5612 net.cpp:165] Memory required for data: 2831483072
I0801 23:20:04.918193  5612 layer_factory.hpp:77] Creating layer conv4_3_norm_1_conv4_3_norm_1_0_spl
it
I0801 23:20:04.918193  5612 net.cpp:100] Creating Layer conv4_3_norm_1_conv4_3_norm_1_0_split
I0801 23:20:04.918193  5612 net.cpp:434] conv4_3_norm_1_conv4_3_norm_1_0_split <- conv4_3_norm_1
I0801 23:20:04.919193  5612 net.cpp:408] conv4_3_norm_1_conv4_3_norm_1_0_split -> conv4_3_norm_1_con
v4_3_norm_1_0_split_0
I0801 23:20:04.919193  5612 net.cpp:408] conv4_3_norm_1_conv4_3_norm_1_0_split -> conv4_3_norm_1_con
v4_3_norm_1_0_split_1
I0801 23:20:04.919193  5612 net.cpp:408] conv4_3_norm_1_conv4_3_norm_1_0_split -> conv4_3_norm_1_con
v4_3_norm_1_0_split_2
I0801 23:20:04.920193  5612 net.cpp:150] Setting up conv4_3_norm_1_conv4_3_norm_1_0_split
I0801 23:20:04.920193  5612 net.cpp:157] Top shape: 32 256 32 48 (12582912)
I0801 23:20:04.920193  5612 net.cpp:157] Top shape: 32 256 32 48 (12582912)
I0801 23:20:04.920193  5612 net.cpp:157] Top shape: 32 256 32 48 (12582912)
I0801 23:20:04.920193  5612 net.cpp:165] Memory required for data: 2982478016
I0801 23:20:04.921193  5612 layer_factory.hpp:77] Creating layer conv4_3_norm_mbox_loc_1
I0801 23:20:04.921193  5612 net.cpp:100] Creating Layer conv4_3_norm_mbox_loc_1
I0801 23:20:04.921193  5612 net.cpp:434] conv4_3_norm_mbox_loc_1 <- conv4_3_norm_1_conv4_3_norm_1_0_
split_0
I0801 23:20:04.921193  5612 net.cpp:408] conv4_3_norm_mbox_loc_1 -> conv4_3_norm_mbox_loc_1
I0801 23:20:04.923193  5612 net.cpp:150] Setting up conv4_3_norm_mbox_loc_1
I0801 23:20:04.924193  5612 net.cpp:157] Top shape: 32 24 32 48 (1179648)
I0801 23:20:04.924193  5612 net.cpp:165] Memory required for data: 2987196608
I0801 23:20:04.924193  5612 layer_factory.hpp:77] Creating layer conv4_3_norm_mbox_loc_perm_1
I0801 23:20:04.924193  5612 net.cpp:100] Creating Layer conv4_3_norm_mbox_loc_perm_1
I0801 23:20:04.924193  5612 net.cpp:434] conv4_3_norm_mbox_loc_perm_1 <- conv4_3_norm_mbox_loc_1
I0801 23:20:04.925194  5612 net.cpp:408] conv4_3_norm_mbox_loc_perm_1 -> conv4_3_norm_mbox_loc_perm_
1
I0801 23:20:04.925194  5612 net.cpp:150] Setting up conv4_3_norm_mbox_loc_perm_1
I0801 23:20:04.925194  5612 net.cpp:157] Top shape: 32 32 48 24 (1179648)
I0801 23:20:04.925194  5612 net.cpp:165] Memory required for data: 2991915200
I0801 23:20:04.926193  5612 layer_factory.hpp:77] Creating layer conv4_3_norm_mbox_loc_flat_1
I0801 23:20:04.926193  5612 net.cpp:100] Creating Layer conv4_3_norm_mbox_loc_flat_1
I0801 23:20:04.926193  5612 net.cpp:434] conv4_3_norm_mbox_loc_flat_1 <- conv4_3_norm_mbox_loc_perm_
1
I0801 23:20:04.926193  5612 net.cpp:408] conv4_3_norm_mbox_loc_flat_1 -> conv4_3_norm_mbox_loc_flat_
1
I0801 23:20:04.927193  5612 net.cpp:150] Setting up conv4_3_norm_mbox_loc_flat_1
I0801 23:20:04.927193  5612 net.cpp:157] Top shape: 32 36864 (1179648)
I0801 23:20:04.927193  5612 net.cpp:165] Memory required for data: 2996633792
I0801 23:20:04.927193  5612 layer_factory.hpp:77] Creating layer conv4_3_norm_mbox_conf_1
I0801 23:20:04.928194  5612 net.cpp:100] Creating Layer conv4_3_norm_mbox_conf_1
I0801 23:20:04.928194  5612 net.cpp:434] conv4_3_norm_mbox_conf_1 <- conv4_3_norm_1_conv4_3_norm_1_0
_split_1
I0801 23:20:04.928194  5612 net.cpp:408] conv4_3_norm_mbox_conf_1 -> conv4_3_norm_mbox_conf_1
I0801 23:20:04.930194  5612 net.cpp:150] Setting up conv4_3_norm_mbox_conf_1
I0801 23:20:04.930194  5612 net.cpp:157] Top shape: 32 12 32 48 (589824)
I0801 23:20:04.930194  5612 net.cpp:165] Memory required for data: 2998993088
I0801 23:20:04.930194  5612 layer_factory.hpp:77] Creating layer conv4_3_norm_mbox_conf_perm_1
I0801 23:20:04.930194  5612 net.cpp:100] Creating Layer conv4_3_norm_mbox_conf_perm_1
I0801 23:20:04.931195  5612 net.cpp:434] conv4_3_norm_mbox_conf_perm_1 <- conv4_3_norm_mbox_conf_1
I0801 23:20:04.931195  5612 net.cpp:408] conv4_3_norm_mbox_conf_perm_1 -> conv4_3_norm_mbox_conf_per
m_1
I0801 23:20:04.931195  5612 net.cpp:150] Setting up conv4_3_norm_mbox_conf_perm_1
I0801 23:20:04.932194  5612 net.cpp:157] Top shape: 32 32 48 12 (589824)
I0801 23:20:04.932194  5612 net.cpp:165] Memory required for data: 3001352384
I0801 23:20:04.932194  5612 layer_factory.hpp:77] Creating layer conv4_3_norm_mbox_conf_flat_1
I0801 23:20:04.932194  5612 net.cpp:100] Creating Layer conv4_3_norm_mbox_conf_flat_1
I0801 23:20:04.932194  5612 net.cpp:434] conv4_3_norm_mbox_conf_flat_1 <- conv4_3_norm_mbox_conf_per
m_1
I0801 23:20:04.933194  5612 net.cpp:408] conv4_3_norm_mbox_conf_flat_1 -> conv4_3_norm_mbox_conf_fla
t_1
I0801 23:20:04.933194  5612 net.cpp:150] Setting up conv4_3_norm_mbox_conf_flat_1
I0801 23:20:04.933194  5612 net.cpp:157] Top shape: 32 18432 (589824)
I0801 23:20:04.934195  5612 net.cpp:165] Memory required for data: 3003711680
I0801 23:20:04.934195  5612 layer_factory.hpp:77] Creating layer conv4_3_norm_mbox_priorbox_1
I0801 23:20:04.934195  5612 net.cpp:100] Creating Layer conv4_3_norm_mbox_priorbox_1
I0801 23:20:04.934195  5612 net.cpp:434] conv4_3_norm_mbox_priorbox_1 <- conv4_3_norm_1_conv4_3_norm
_1_0_split_2
I0801 23:20:04.934195  5612 net.cpp:434] conv4_3_norm_mbox_priorbox_1 <- data_data_0_split_1
I0801 23:20:04.935194  5612 net.cpp:408] conv4_3_norm_mbox_priorbox_1 -> conv4_3_norm_mbox_priorbox_
1
I0801 23:20:04.935194  5612 net.cpp:150] Setting up conv4_3_norm_mbox_priorbox_1
I0801 23:20:04.935194  5612 net.cpp:157] Top shape: 1 2 36864 (73728)
I0801 23:20:04.936194  5612 net.cpp:165] Memory required for data: 3004006592
I0801 23:20:04.936194  5612 layer_factory.hpp:77] Creating layer fc7_mbox_loc_1
I0801 23:20:04.936194  5612 net.cpp:100] Creating Layer fc7_mbox_loc_1
I0801 23:20:04.936194  5612 net.cpp:434] fc7_mbox_loc_1 <- fire9/concat_fire9/concat_bn_0_split_1
I0801 23:20:04.936194  5612 net.cpp:408] fc7_mbox_loc_1 -> fc7_mbox_loc_1
I0801 23:20:04.939194  5612 net.cpp:150] Setting up fc7_mbox_loc_1
I0801 23:20:04.939194  5612 net.cpp:157] Top shape: 32 24 16 24 (294912)
I0801 23:20:04.939194  5612 net.cpp:165] Memory required for data: 3005186240
I0801 23:20:04.940194  5612 layer_factory.hpp:77] Creating layer fc7_mbox_loc_perm_1
I0801 23:20:04.940194  5612 net.cpp:100] Creating Layer fc7_mbox_loc_perm_1
I0801 23:20:04.940194  5612 net.cpp:434] fc7_mbox_loc_perm_1 <- fc7_mbox_loc_1
I0801 23:20:04.940194  5612 net.cpp:408] fc7_mbox_loc_perm_1 -> fc7_mbox_loc_perm_1
I0801 23:20:04.940194  5612 net.cpp:150] Setting up fc7_mbox_loc_perm_1
I0801 23:20:04.941195  5612 net.cpp:157] Top shape: 32 16 24 24 (294912)
I0801 23:20:04.941195  5612 net.cpp:165] Memory required for data: 3006365888
I0801 23:20:04.941195  5612 layer_factory.hpp:77] Creating layer fc7_mbox_loc_flat_1
I0801 23:20:04.941195  5612 net.cpp:100] Creating Layer fc7_mbox_loc_flat_1
I0801 23:20:04.941195  5612 net.cpp:434] fc7_mbox_loc_flat_1 <- fc7_mbox_loc_perm_1
I0801 23:20:04.942194  5612 net.cpp:408] fc7_mbox_loc_flat_1 -> fc7_mbox_loc_flat_1
I0801 23:20:04.942194  5612 net.cpp:150] Setting up fc7_mbox_loc_flat_1
I0801 23:20:04.942194  5612 net.cpp:157] Top shape: 32 9216 (294912)
I0801 23:20:04.942194  5612 net.cpp:165] Memory required for data: 3007545536
I0801 23:20:04.943194  5612 layer_factory.hpp:77] Creating layer fc7_mbox_conf_1
I0801 23:20:04.943194  5612 net.cpp:100] Creating Layer fc7_mbox_conf_1
I0801 23:20:04.943194  5612 net.cpp:434] fc7_mbox_conf_1 <- fire9/concat_fire9/concat_bn_0_split_2
I0801 23:20:04.943194  5612 net.cpp:408] fc7_mbox_conf_1 -> fc7_mbox_conf_1
I0801 23:20:04.945194  5612 net.cpp:150] Setting up fc7_mbox_conf_1
I0801 23:20:04.945194  5612 net.cpp:157] Top shape: 32 12 16 24 (147456)
I0801 23:20:04.945194  5612 net.cpp:165] Memory required for data: 3008135360
I0801 23:20:04.946194  5612 layer_factory.hpp:77] Creating layer fc7_mbox_conf_perm_1
I0801 23:20:04.946194  5612 net.cpp:100] Creating Layer fc7_mbox_conf_perm_1
I0801 23:20:04.946194  5612 net.cpp:434] fc7_mbox_conf_perm_1 <- fc7_mbox_conf_1
I0801 23:20:04.946194  5612 net.cpp:408] fc7_mbox_conf_perm_1 -> fc7_mbox_conf_perm_1
I0801 23:20:04.947196  5612 net.cpp:150] Setting up fc7_mbox_conf_perm_1
I0801 23:20:04.947196  5612 net.cpp:157] Top shape: 32 16 24 12 (147456)
I0801 23:20:04.947196  5612 net.cpp:165] Memory required for data: 3008725184
I0801 23:20:04.947196  5612 layer_factory.hpp:77] Creating layer fc7_mbox_conf_flat_1
I0801 23:20:04.947196  5612 net.cpp:100] Creating Layer fc7_mbox_conf_flat_1
I0801 23:20:04.948195  5612 net.cpp:434] fc7_mbox_conf_flat_1 <- fc7_mbox_conf_perm_1
I0801 23:20:04.948195  5612 net.cpp:408] fc7_mbox_conf_flat_1 -> fc7_mbox_conf_flat_1
I0801 23:20:04.948195  5612 net.cpp:150] Setting up fc7_mbox_conf_flat_1
I0801 23:20:04.948195  5612 net.cpp:157] Top shape: 32 4608 (147456)
I0801 23:20:04.948195  5612 net.cpp:165] Memory required for data: 3009315008
I0801 23:20:04.949195  5612 layer_factory.hpp:77] Creating layer fc7_mbox_priorbox_1
I0801 23:20:04.949195  5612 net.cpp:100] Creating Layer fc7_mbox_priorbox_1
I0801 23:20:04.949195  5612 net.cpp:434] fc7_mbox_priorbox_1 <- fire9/concat_fire9/concat_bn_0_split
_3
I0801 23:20:04.949195  5612 net.cpp:434] fc7_mbox_priorbox_1 <- data_data_0_split_2
I0801 23:20:04.950196  5612 net.cpp:408] fc7_mbox_priorbox_1 -> fc7_mbox_priorbox_1
I0801 23:20:04.950196  5612 net.cpp:150] Setting up fc7_mbox_priorbox_1
I0801 23:20:04.950196  5612 net.cpp:157] Top shape: 1 2 9216 (18432)
I0801 23:20:04.950196  5612 net.cpp:165] Memory required for data: 3009388736
I0801 23:20:04.950196  5612 layer_factory.hpp:77] Creating layer conv6_2_mbox_loc_1
I0801 23:20:04.951195  5612 net.cpp:100] Creating Layer conv6_2_mbox_loc_1
I0801 23:20:04.951195  5612 net.cpp:434] conv6_2_mbox_loc_1 <- conv6_2_conv6_2_bn_0_split_1
I0801 23:20:04.951195  5612 net.cpp:408] conv6_2_mbox_loc_1 -> conv6_2_mbox_loc_1
I0801 23:20:04.953196  5612 net.cpp:150] Setting up conv6_2_mbox_loc_1
I0801 23:20:04.953196  5612 net.cpp:157] Top shape: 32 24 8 12 (73728)
I0801 23:20:04.953196  5612 net.cpp:165] Memory required for data: 3009683648
I0801 23:20:04.954195  5612 layer_factory.hpp:77] Creating layer conv6_2_mbox_loc_perm_1
I0801 23:20:04.954195  5612 net.cpp:100] Creating Layer conv6_2_mbox_loc_perm_1
I0801 23:20:04.954195  5612 net.cpp:434] conv6_2_mbox_loc_perm_1 <- conv6_2_mbox_loc_1
I0801 23:20:04.954195  5612 net.cpp:408] conv6_2_mbox_loc_perm_1 -> conv6_2_mbox_loc_perm_1
I0801 23:20:04.955195  5612 net.cpp:150] Setting up conv6_2_mbox_loc_perm_1
I0801 23:20:04.955195  5612 net.cpp:157] Top shape: 32 8 12 24 (73728)
I0801 23:20:04.955195  5612 net.cpp:165] Memory required for data: 3009978560
I0801 23:20:04.955195  5612 layer_factory.hpp:77] Creating layer conv6_2_mbox_loc_flat_1
I0801 23:20:04.955195  5612 net.cpp:100] Creating Layer conv6_2_mbox_loc_flat_1
I0801 23:20:04.956195  5612 net.cpp:434] conv6_2_mbox_loc_flat_1 <- conv6_2_mbox_loc_perm_1
I0801 23:20:04.956195  5612 net.cpp:408] conv6_2_mbox_loc_flat_1 -> conv6_2_mbox_loc_flat_1
I0801 23:20:04.956195  5612 net.cpp:150] Setting up conv6_2_mbox_loc_flat_1
I0801 23:20:04.956195  5612 net.cpp:157] Top shape: 32 2304 (73728)
I0801 23:20:04.956195  5612 net.cpp:165] Memory required for data: 3010273472
I0801 23:20:04.957195  5612 layer_factory.hpp:77] Creating layer conv6_2_mbox_conf_1
I0801 23:20:04.957195  5612 net.cpp:100] Creating Layer conv6_2_mbox_conf_1
I0801 23:20:04.957195  5612 net.cpp:434] conv6_2_mbox_conf_1 <- conv6_2_conv6_2_bn_0_split_2
I0801 23:20:04.957195  5612 net.cpp:408] conv6_2_mbox_conf_1 -> conv6_2_mbox_conf_1
I0801 23:20:04.964196  5612 net.cpp:150] Setting up conv6_2_mbox_conf_1
I0801 23:20:04.965196  5612 net.cpp:157] Top shape: 32 12 8 12 (36864)
I0801 23:20:04.965196  5612 net.cpp:165] Memory required for data: 3010420928
I0801 23:20:04.965196  5612 layer_factory.hpp:77] Creating layer conv6_2_mbox_conf_perm_1
I0801 23:20:04.965196  5612 net.cpp:100] Creating Layer conv6_2_mbox_conf_perm_1
I0801 23:20:04.965196  5612 net.cpp:434] conv6_2_mbox_conf_perm_1 <- conv6_2_mbox_conf_1
I0801 23:20:04.966197  5612 net.cpp:408] conv6_2_mbox_conf_perm_1 -> conv6_2_mbox_conf_perm_1
I0801 23:20:04.966197  5612 net.cpp:150] Setting up conv6_2_mbox_conf_perm_1
I0801 23:20:04.966197  5612 net.cpp:157] Top shape: 32 8 12 12 (36864)
I0801 23:20:04.966197  5612 net.cpp:165] Memory required for data: 3010568384
I0801 23:20:04.966197  5612 layer_factory.hpp:77] Creating layer conv6_2_mbox_conf_flat_1
I0801 23:20:04.967196  5612 net.cpp:100] Creating Layer conv6_2_mbox_conf_flat_1
I0801 23:20:04.967196  5612 net.cpp:434] conv6_2_mbox_conf_flat_1 <- conv6_2_mbox_conf_perm_1
I0801 23:20:04.967196  5612 net.cpp:408] conv6_2_mbox_conf_flat_1 -> conv6_2_mbox_conf_flat_1
I0801 23:20:04.967196  5612 net.cpp:150] Setting up conv6_2_mbox_conf_flat_1
I0801 23:20:04.968196  5612 net.cpp:157] Top shape: 32 1152 (36864)
I0801 23:20:04.968196  5612 net.cpp:165] Memory required for data: 3010715840
I0801 23:20:04.968196  5612 layer_factory.hpp:77] Creating layer conv6_2_mbox_priorbox_1
I0801 23:20:04.968196  5612 net.cpp:100] Creating Layer conv6_2_mbox_priorbox_1
I0801 23:20:04.968196  5612 net.cpp:434] conv6_2_mbox_priorbox_1 <- conv6_2_conv6_2_bn_0_split_3
I0801 23:20:04.969197  5612 net.cpp:434] conv6_2_mbox_priorbox_1 <- data_data_0_split_3
I0801 23:20:04.969197  5612 net.cpp:408] conv6_2_mbox_priorbox_1 -> conv6_2_mbox_priorbox_1
I0801 23:20:04.969197  5612 net.cpp:150] Setting up conv6_2_mbox_priorbox_1
I0801 23:20:04.969197  5612 net.cpp:157] Top shape: 1 2 2304 (4608)
I0801 23:20:04.969197  5612 net.cpp:165] Memory required for data: 3010734272
I0801 23:20:04.970196  5612 layer_factory.hpp:77] Creating layer conv7_2_mbox_loc_1
I0801 23:20:04.970196  5612 net.cpp:100] Creating Layer conv7_2_mbox_loc_1
I0801 23:20:04.970196  5612 net.cpp:434] conv7_2_mbox_loc_1 <- conv7_2_conv7_2_bn_0_split_1
I0801 23:20:04.970196  5612 net.cpp:408] conv7_2_mbox_loc_1 -> conv7_2_mbox_loc_1
I0801 23:20:04.972196  5612 net.cpp:150] Setting up conv7_2_mbox_loc_1
I0801 23:20:04.972196  5612 net.cpp:157] Top shape: 32 24 4 6 (18432)
I0801 23:20:04.973196  5612 net.cpp:165] Memory required for data: 3010808000
I0801 23:20:04.973196  5612 layer_factory.hpp:77] Creating layer conv7_2_mbox_loc_perm_1
I0801 23:20:04.973196  5612 net.cpp:100] Creating Layer conv7_2_mbox_loc_perm_1
I0801 23:20:04.973196  5612 net.cpp:434] conv7_2_mbox_loc_perm_1 <- conv7_2_mbox_loc_1
I0801 23:20:04.973196  5612 net.cpp:408] conv7_2_mbox_loc_perm_1 -> conv7_2_mbox_loc_perm_1
I0801 23:20:04.974196  5612 net.cpp:150] Setting up conv7_2_mbox_loc_perm_1
I0801 23:20:04.974196  5612 net.cpp:157] Top shape: 32 4 6 24 (18432)
I0801 23:20:04.974196  5612 net.cpp:165] Memory required for data: 3010881728
I0801 23:20:04.974196  5612 layer_factory.hpp:77] Creating layer conv7_2_mbox_loc_flat_1
I0801 23:20:04.974196  5612 net.cpp:100] Creating Layer conv7_2_mbox_loc_flat_1
I0801 23:20:04.975196  5612 net.cpp:434] conv7_2_mbox_loc_flat_1 <- conv7_2_mbox_loc_perm_1
I0801 23:20:04.975196  5612 net.cpp:408] conv7_2_mbox_loc_flat_1 -> conv7_2_mbox_loc_flat_1
I0801 23:20:04.975196  5612 net.cpp:150] Setting up conv7_2_mbox_loc_flat_1
I0801 23:20:04.975196  5612 net.cpp:157] Top shape: 32 576 (18432)
I0801 23:20:04.975196  5612 net.cpp:165] Memory required for data: 3010955456
I0801 23:20:04.976197  5612 layer_factory.hpp:77] Creating layer conv7_2_mbox_conf_1
I0801 23:20:04.976197  5612 net.cpp:100] Creating Layer conv7_2_mbox_conf_1
I0801 23:20:04.976197  5612 net.cpp:434] conv7_2_mbox_conf_1 <- conv7_2_conv7_2_bn_0_split_2
I0801 23:20:04.976197  5612 net.cpp:408] conv7_2_mbox_conf_1 -> conv7_2_mbox_conf_1
I0801 23:20:04.978196  5612 net.cpp:150] Setting up conv7_2_mbox_conf_1
I0801 23:20:04.978196  5612 net.cpp:157] Top shape: 32 12 4 6 (9216)
I0801 23:20:04.978196  5612 net.cpp:165] Memory required for data: 3010992320
I0801 23:20:04.979197  5612 layer_factory.hpp:77] Creating layer conv7_2_mbox_conf_perm_1
I0801 23:20:04.979197  5612 net.cpp:100] Creating Layer conv7_2_mbox_conf_perm_1
I0801 23:20:04.979197  5612 net.cpp:434] conv7_2_mbox_conf_perm_1 <- conv7_2_mbox_conf_1
I0801 23:20:04.979197  5612 net.cpp:408] conv7_2_mbox_conf_perm_1 -> conv7_2_mbox_conf_perm_1
I0801 23:20:04.980196  5612 net.cpp:150] Setting up conv7_2_mbox_conf_perm_1
I0801 23:20:04.980196  5612 net.cpp:157] Top shape: 32 4 6 12 (9216)
I0801 23:20:04.980196  5612 net.cpp:165] Memory required for data: 3011029184
I0801 23:20:04.980196  5612 layer_factory.hpp:77] Creating layer conv7_2_mbox_conf_flat_1
I0801 23:20:04.980196  5612 net.cpp:100] Creating Layer conv7_2_mbox_conf_flat_1
I0801 23:20:04.981196  5612 net.cpp:434] conv7_2_mbox_conf_flat_1 <- conv7_2_mbox_conf_perm_1
I0801 23:20:04.981196  5612 net.cpp:408] conv7_2_mbox_conf_flat_1 -> conv7_2_mbox_conf_flat_1
I0801 23:20:04.981196  5612 net.cpp:150] Setting up conv7_2_mbox_conf_flat_1
I0801 23:20:04.981196  5612 net.cpp:157] Top shape: 32 288 (9216)
I0801 23:20:04.981196  5612 net.cpp:165] Memory required for data: 3011066048
I0801 23:20:04.982197  5612 layer_factory.hpp:77] Creating layer conv7_2_mbox_priorbox_1
I0801 23:20:04.982197  5612 net.cpp:100] Creating Layer conv7_2_mbox_priorbox_1
I0801 23:20:04.982197  5612 net.cpp:434] conv7_2_mbox_priorbox_1 <- conv7_2_conv7_2_bn_0_split_3
I0801 23:20:04.982197  5612 net.cpp:434] conv7_2_mbox_priorbox_1 <- data_data_0_split_4
I0801 23:20:04.982197  5612 net.cpp:408] conv7_2_mbox_priorbox_1 -> conv7_2_mbox_priorbox_1
I0801 23:20:04.983197  5612 net.cpp:150] Setting up conv7_2_mbox_priorbox_1
I0801 23:20:04.983197  5612 net.cpp:157] Top shape: 1 2 576 (1152)
I0801 23:20:04.983197  5612 net.cpp:165] Memory required for data: 3011070656
I0801 23:20:04.983197  5612 layer_factory.hpp:77] Creating layer conv8_2_mbox_loc_1
I0801 23:20:04.984197  5612 net.cpp:100] Creating Layer conv8_2_mbox_loc_1
I0801 23:20:04.984197  5612 net.cpp:434] conv8_2_mbox_loc_1 <- conv8_2_conv8_2_bn_0_split_1
I0801 23:20:04.984197  5612 net.cpp:408] conv8_2_mbox_loc_1 -> conv8_2_mbox_loc_1
I0801 23:20:04.986197  5612 net.cpp:150] Setting up conv8_2_mbox_loc_1
I0801 23:20:04.986197  5612 net.cpp:157] Top shape: 32 24 2 3 (4608)
I0801 23:20:04.986197  5612 net.cpp:165] Memory required for data: 3011089088
I0801 23:20:04.986197  5612 layer_factory.hpp:77] Creating layer conv8_2_mbox_loc_perm_1
I0801 23:20:04.987197  5612 net.cpp:100] Creating Layer conv8_2_mbox_loc_perm_1
I0801 23:20:04.987197  5612 net.cpp:434] conv8_2_mbox_loc_perm_1 <- conv8_2_mbox_loc_1
I0801 23:20:04.987197  5612 net.cpp:408] conv8_2_mbox_loc_perm_1 -> conv8_2_mbox_loc_perm_1
I0801 23:20:04.987197  5612 net.cpp:150] Setting up conv8_2_mbox_loc_perm_1
I0801 23:20:04.988198  5612 net.cpp:157] Top shape: 32 2 3 24 (4608)
I0801 23:20:04.988198  5612 net.cpp:165] Memory required for data: 3011107520
I0801 23:20:04.988198  5612 layer_factory.hpp:77] Creating layer conv8_2_mbox_loc_flat_1
I0801 23:20:04.988198  5612 net.cpp:100] Creating Layer conv8_2_mbox_loc_flat_1
I0801 23:20:04.988198  5612 net.cpp:434] conv8_2_mbox_loc_flat_1 <- conv8_2_mbox_loc_perm_1
I0801 23:20:04.989197  5612 net.cpp:408] conv8_2_mbox_loc_flat_1 -> conv8_2_mbox_loc_flat_1
I0801 23:20:04.989197  5612 net.cpp:150] Setting up conv8_2_mbox_loc_flat_1
I0801 23:20:04.989197  5612 net.cpp:157] Top shape: 32 144 (4608)
I0801 23:20:04.989197  5612 net.cpp:165] Memory required for data: 3011125952
I0801 23:20:04.989197  5612 layer_factory.hpp:77] Creating layer conv8_2_mbox_conf_1
I0801 23:20:04.990197  5612 net.cpp:100] Creating Layer conv8_2_mbox_conf_1
I0801 23:20:04.990197  5612 net.cpp:434] conv8_2_mbox_conf_1 <- conv8_2_conv8_2_bn_0_split_2
I0801 23:20:04.990197  5612 net.cpp:408] conv8_2_mbox_conf_1 -> conv8_2_mbox_conf_1
I0801 23:20:04.992197  5612 net.cpp:150] Setting up conv8_2_mbox_conf_1
I0801 23:20:04.992197  5612 net.cpp:157] Top shape: 32 12 2 3 (2304)
I0801 23:20:04.992197  5612 net.cpp:165] Memory required for data: 3011135168
I0801 23:20:04.992197  5612 layer_factory.hpp:77] Creating layer conv8_2_mbox_conf_perm_1
I0801 23:20:04.993197  5612 net.cpp:100] Creating Layer conv8_2_mbox_conf_perm_1
I0801 23:20:04.993197  5612 net.cpp:434] conv8_2_mbox_conf_perm_1 <- conv8_2_mbox_conf_1
I0801 23:20:04.993197  5612 net.cpp:408] conv8_2_mbox_conf_perm_1 -> conv8_2_mbox_conf_perm_1
I0801 23:20:04.993197  5612 net.cpp:150] Setting up conv8_2_mbox_conf_perm_1
I0801 23:20:04.994197  5612 net.cpp:157] Top shape: 32 2 3 12 (2304)
I0801 23:20:04.994197  5612 net.cpp:165] Memory required for data: 3011144384
I0801 23:20:04.994197  5612 layer_factory.hpp:77] Creating layer conv8_2_mbox_conf_flat_1
I0801 23:20:04.994197  5612 net.cpp:100] Creating Layer conv8_2_mbox_conf_flat_1
I0801 23:20:04.995198  5612 net.cpp:434] conv8_2_mbox_conf_flat_1 <- conv8_2_mbox_conf_perm_1
I0801 23:20:04.995198  5612 net.cpp:408] conv8_2_mbox_conf_flat_1 -> conv8_2_mbox_conf_flat_1
I0801 23:20:04.995198  5612 net.cpp:150] Setting up conv8_2_mbox_conf_flat_1
I0801 23:20:04.995198  5612 net.cpp:157] Top shape: 32 72 (2304)
I0801 23:20:04.996197  5612 net.cpp:165] Memory required for data: 3011153600
I0801 23:20:04.996197  5612 layer_factory.hpp:77] Creating layer conv8_2_mbox_priorbox_1
I0801 23:20:04.996197  5612 net.cpp:100] Creating Layer conv8_2_mbox_priorbox_1
I0801 23:20:04.996197  5612 net.cpp:434] conv8_2_mbox_priorbox_1 <- conv8_2_conv8_2_bn_0_split_3
I0801 23:20:04.996197  5612 net.cpp:434] conv8_2_mbox_priorbox_1 <- data_data_0_split_5
I0801 23:20:04.997197  5612 net.cpp:408] conv8_2_mbox_priorbox_1 -> conv8_2_mbox_priorbox_1
I0801 23:20:04.997197  5612 net.cpp:150] Setting up conv8_2_mbox_priorbox_1
I0801 23:20:04.997197  5612 net.cpp:157] Top shape: 1 2 144 (288)
I0801 23:20:04.997197  5612 net.cpp:165] Memory required for data: 3011154752
I0801 23:20:04.997197  5612 layer_factory.hpp:77] Creating layer pool6_mbox_loc_1
I0801 23:20:04.998198  5612 net.cpp:100] Creating Layer pool6_mbox_loc_1
I0801 23:20:04.998198  5612 net.cpp:434] pool6_mbox_loc_1 <- pool6_pool6_0_split_0
I0801 23:20:04.998198  5612 net.cpp:408] pool6_mbox_loc_1 -> pool6_mbox_loc_1
I0801 23:20:05.000198  5612 net.cpp:150] Setting up pool6_mbox_loc_1
I0801 23:20:05.000198  5612 net.cpp:157] Top shape: 32 24 1 1 (768)
I0801 23:20:05.000198  5612 net.cpp:165] Memory required for data: 3011157824
I0801 23:20:05.000198  5612 layer_factory.hpp:77] Creating layer pool6_mbox_loc_perm_1
I0801 23:20:05.001199  5612 net.cpp:100] Creating Layer pool6_mbox_loc_perm_1
I0801 23:20:05.001199  5612 net.cpp:434] pool6_mbox_loc_perm_1 <- pool6_mbox_loc_1
I0801 23:20:05.001199  5612 net.cpp:408] pool6_mbox_loc_perm_1 -> pool6_mbox_loc_perm_1
I0801 23:20:05.001199  5612 net.cpp:150] Setting up pool6_mbox_loc_perm_1
I0801 23:20:05.002198  5612 net.cpp:157] Top shape: 32 1 1 24 (768)
I0801 23:20:05.002198  5612 net.cpp:165] Memory required for data: 3011160896
I0801 23:20:05.002198  5612 layer_factory.hpp:77] Creating layer pool6_mbox_loc_flat_1
I0801 23:20:05.002198  5612 net.cpp:100] Creating Layer pool6_mbox_loc_flat_1
I0801 23:20:05.002198  5612 net.cpp:434] pool6_mbox_loc_flat_1 <- pool6_mbox_loc_perm_1
I0801 23:20:05.003198  5612 net.cpp:408] pool6_mbox_loc_flat_1 -> pool6_mbox_loc_flat_1
I0801 23:20:05.003198  5612 net.cpp:150] Setting up pool6_mbox_loc_flat_1
I0801 23:20:05.003198  5612 net.cpp:157] Top shape: 32 24 (768)
I0801 23:20:05.003198  5612 net.cpp:165] Memory required for data: 3011163968
I0801 23:20:05.004199  5612 layer_factory.hpp:77] Creating layer pool6_mbox_conf_1
I0801 23:20:05.004199  5612 net.cpp:100] Creating Layer pool6_mbox_conf_1
I0801 23:20:05.004199  5612 net.cpp:434] pool6_mbox_conf_1 <- pool6_pool6_0_split_1
I0801 23:20:05.004199  5612 net.cpp:408] pool6_mbox_conf_1 -> pool6_mbox_conf_1
I0801 23:20:05.006198  5612 net.cpp:150] Setting up pool6_mbox_conf_1
I0801 23:20:05.006198  5612 net.cpp:157] Top shape: 32 12 1 1 (384)
I0801 23:20:05.006198  5612 net.cpp:165] Memory required for data: 3011165504
I0801 23:20:05.006198  5612 layer_factory.hpp:77] Creating layer pool6_mbox_conf_perm_1
I0801 23:20:05.007199  5612 net.cpp:100] Creating Layer pool6_mbox_conf_perm_1
I0801 23:20:05.007199  5612 net.cpp:434] pool6_mbox_conf_perm_1 <- pool6_mbox_conf_1
I0801 23:20:05.007199  5612 net.cpp:408] pool6_mbox_conf_perm_1 -> pool6_mbox_conf_perm_1
I0801 23:20:05.007199  5612 net.cpp:150] Setting up pool6_mbox_conf_perm_1
I0801 23:20:05.008198  5612 net.cpp:157] Top shape: 32 1 1 12 (384)
I0801 23:20:05.008198  5612 net.cpp:165] Memory required for data: 3011167040
I0801 23:20:05.008198  5612 layer_factory.hpp:77] Creating layer pool6_mbox_conf_flat_1
I0801 23:20:05.008198  5612 net.cpp:100] Creating Layer pool6_mbox_conf_flat_1
I0801 23:20:05.008198  5612 net.cpp:434] pool6_mbox_conf_flat_1 <- pool6_mbox_conf_perm_1
I0801 23:20:05.009198  5612 net.cpp:408] pool6_mbox_conf_flat_1 -> pool6_mbox_conf_flat_1
I0801 23:20:05.009198  5612 net.cpp:150] Setting up pool6_mbox_conf_flat_1
I0801 23:20:05.009198  5612 net.cpp:157] Top shape: 32 12 (384)
I0801 23:20:05.009198  5612 net.cpp:165] Memory required for data: 3011168576
I0801 23:20:05.009198  5612 layer_factory.hpp:77] Creating layer pool6_mbox_priorbox_1
I0801 23:20:05.010198  5612 net.cpp:100] Creating Layer pool6_mbox_priorbox_1
I0801 23:20:05.010198  5612 net.cpp:434] pool6_mbox_priorbox_1 <- pool6_pool6_0_split_2
I0801 23:20:05.010198  5612 net.cpp:434] pool6_mbox_priorbox_1 <- data_data_0_split_6
I0801 23:20:05.010198  5612 net.cpp:408] pool6_mbox_priorbox_1 -> pool6_mbox_priorbox_1
I0801 23:20:05.010198  5612 net.cpp:150] Setting up pool6_mbox_priorbox_1
I0801 23:20:05.011198  5612 net.cpp:157] Top shape: 1 2 24 (48)
I0801 23:20:05.011198  5612 net.cpp:165] Memory required for data: 3011168768
I0801 23:20:05.011198  5612 layer_factory.hpp:77] Creating layer mbox_loc_1
I0801 23:20:05.011198  5612 net.cpp:100] Creating Layer mbox_loc_1
I0801 23:20:05.011198  5612 net.cpp:434] mbox_loc_1 <- conv4_3_norm_mbox_loc_flat_1
I0801 23:20:05.012198  5612 net.cpp:434] mbox_loc_1 <- fc7_mbox_loc_flat_1
I0801 23:20:05.012198  5612 net.cpp:434] mbox_loc_1 <- conv6_2_mbox_loc_flat_1
I0801 23:20:05.012198  5612 net.cpp:434] mbox_loc_1 <- conv7_2_mbox_loc_flat_1
I0801 23:20:05.012198  5612 net.cpp:434] mbox_loc_1 <- conv8_2_mbox_loc_flat_1
I0801 23:20:05.012198  5612 net.cpp:434] mbox_loc_1 <- pool6_mbox_loc_flat_1
I0801 23:20:05.013198  5612 net.cpp:408] mbox_loc_1 -> mbox_loc_1
I0801 23:20:05.013198  5612 net.cpp:150] Setting up mbox_loc_1
I0801 23:20:05.013198  5612 net.cpp:157] Top shape: 32 49128 (1572096)
I0801 23:20:05.013198  5612 net.cpp:165] Memory required for data: 3017457152
I0801 23:20:05.013198  5612 layer_factory.hpp:77] Creating layer mbox_conf_1
I0801 23:20:05.014199  5612 net.cpp:100] Creating Layer mbox_conf_1
I0801 23:20:05.014199  5612 net.cpp:434] mbox_conf_1 <- conv4_3_norm_mbox_conf_flat_1
I0801 23:20:05.014199  5612 net.cpp:434] mbox_conf_1 <- fc7_mbox_conf_flat_1
I0801 23:20:05.014199  5612 net.cpp:434] mbox_conf_1 <- conv6_2_mbox_conf_flat_1
I0801 23:20:05.014199  5612 net.cpp:434] mbox_conf_1 <- conv7_2_mbox_conf_flat_1
I0801 23:20:05.015198  5612 net.cpp:434] mbox_conf_1 <- conv8_2_mbox_conf_flat_1
I0801 23:20:05.015198  5612 net.cpp:434] mbox_conf_1 <- pool6_mbox_conf_flat_1
I0801 23:20:05.015198  5612 net.cpp:408] mbox_conf_1 -> mbox_conf_1
I0801 23:20:05.015198  5612 net.cpp:150] Setting up mbox_conf_1
I0801 23:20:05.015198  5612 net.cpp:157] Top shape: 32 24564 (786048)
I0801 23:20:05.016198  5612 net.cpp:165] Memory required for data: 3020601344
I0801 23:20:05.016198  5612 layer_factory.hpp:77] Creating layer mbox_priorbox_1
I0801 23:20:05.016198  5612 net.cpp:100] Creating Layer mbox_priorbox_1
I0801 23:20:05.016198  5612 net.cpp:434] mbox_priorbox_1 <- conv4_3_norm_mbox_priorbox_1
I0801 23:20:05.017199  5612 net.cpp:434] mbox_priorbox_1 <- fc7_mbox_priorbox_1
I0801 23:20:05.017199  5612 net.cpp:434] mbox_priorbox_1 <- conv6_2_mbox_priorbox_1
I0801 23:20:05.017199  5612 net.cpp:434] mbox_priorbox_1 <- conv7_2_mbox_priorbox_1
I0801 23:20:05.017199  5612 net.cpp:434] mbox_priorbox_1 <- conv8_2_mbox_priorbox_1
I0801 23:20:05.017199  5612 net.cpp:434] mbox_priorbox_1 <- pool6_mbox_priorbox_1
I0801 23:20:05.018199  5612 net.cpp:408] mbox_priorbox_1 -> mbox_priorbox_1
I0801 23:20:05.018199  5612 net.cpp:150] Setting up mbox_priorbox_1
I0801 23:20:05.018199  5612 net.cpp:157] Top shape: 1 2 49128 (98256)
I0801 23:20:05.018199  5612 net.cpp:165] Memory required for data: 3020994368
I0801 23:20:05.018199  5612 layer_factory.hpp:77] Creating layer mbox_conf_reshape_1
I0801 23:20:05.019199  5612 net.cpp:100] Creating Layer mbox_conf_reshape_1
I0801 23:20:05.019199  5612 net.cpp:434] mbox_conf_reshape_1 <- mbox_conf_1
I0801 23:20:05.019199  5612 net.cpp:408] mbox_conf_reshape_1 -> mbox_conf_reshape_1
I0801 23:20:05.019199  5612 net.cpp:150] Setting up mbox_conf_reshape_1
I0801 23:20:05.019199  5612 net.cpp:157] Top shape: 32 12282 2 (786048)
I0801 23:20:05.020200  5612 net.cpp:165] Memory required for data: 3024138560
I0801 23:20:05.020200  5612 layer_factory.hpp:77] Creating layer mbox_conf_softmax_1
I0801 23:20:05.020200  5612 net.cpp:100] Creating Layer mbox_conf_softmax_1
I0801 23:20:05.020200  5612 net.cpp:434] mbox_conf_softmax_1 <- mbox_conf_reshape_1
I0801 23:20:05.020200  5612 net.cpp:408] mbox_conf_softmax_1 -> mbox_conf_softmax_1
I0801 23:20:05.021199  5612 net.cpp:150] Setting up mbox_conf_softmax_1
I0801 23:20:05.021199  5612 net.cpp:157] Top shape: 32 12282 2 (786048)
I0801 23:20:05.021199  5612 net.cpp:165] Memory required for data: 3027282752
I0801 23:20:05.021199  5612 layer_factory.hpp:77] Creating layer mbox_conf_flatten_1
I0801 23:20:05.022199  5612 net.cpp:100] Creating Layer mbox_conf_flatten_1
I0801 23:20:05.022199  5612 net.cpp:434] mbox_conf_flatten_1 <- mbox_conf_softmax_1
I0801 23:20:05.022199  5612 net.cpp:408] mbox_conf_flatten_1 -> mbox_conf_flatten_1
I0801 23:20:05.022199  5612 net.cpp:150] Setting up mbox_conf_flatten_1
I0801 23:20:05.023200  5612 net.cpp:157] Top shape: 32 24564 (786048)
I0801 23:20:05.023200  5612 net.cpp:165] Memory required for data: 3030426944
I0801 23:20:05.023200  5612 layer_factory.hpp:77] Creating layer detection_out
I0801 23:20:05.023200  5612 net.cpp:100] Creating Layer detection_out
I0801 23:20:05.023200  5612 net.cpp:434] detection_out <- mbox_loc_1
I0801 23:20:05.023200  5612 net.cpp:434] detection_out <- mbox_conf_flatten_1
I0801 23:20:05.024199  5612 net.cpp:434] detection_out <- mbox_priorbox_1
I0801 23:20:05.024199  5612 net.cpp:408] detection_out -> detection_out
I0801 23:20:05.024199  5612 net.cpp:150] Setting up detection_out
I0801 23:20:05.024199  5612 net.cpp:157] Top shape: 1 1 1 7 (7)
I0801 23:20:05.025199  5612 net.cpp:165] Memory required for data: 3030426972
I0801 23:20:05.025199  5612 layer_factory.hpp:77] Creating layer detection_eval
I0801 23:20:05.025199  5612 net.cpp:100] Creating Layer detection_eval
I0801 23:20:05.025199  5612 net.cpp:434] detection_eval <- detection_out
I0801 23:20:05.025199  5612 net.cpp:434] detection_eval <- label
I0801 23:20:05.026199  5612 net.cpp:408] detection_eval -> detection_eval
I0801 23:20:05.030200  5612 net.cpp:150] Setting up detection_eval
I0801 23:20:05.031199  5612 net.cpp:157] Top shape: 1 1 2 5 (10)
I0801 23:20:05.031199  5612 net.cpp:165] Memory required for data: 3030427012
I0801 23:20:05.031199  5612 net.cpp:228] detection_eval does not need backward computation.
I0801 23:20:05.031199  5612 net.cpp:228] detection_out does not need backward computation.
I0801 23:20:05.031199  5612 net.cpp:228] mbox_conf_flatten_1 does not need backward computation.
I0801 23:20:05.032199  5612 net.cpp:228] mbox_conf_softmax_1 does not need backward computation.
…
