…
I0811 15:32:58.885982 11616 net.cpp:322] The NetState phase (0) differed from the phase (1) specified by a rule in layer mnist
I0811 15:32:58.885982 11616 net.cpp:322] The NetState phase (0) differed from the phase (1) specified by a rule in layer accuracy
I0811 15:32:58.885982 11616 net.cpp:58] Initializing net from parameters: 
name: "LeNet"
state {
  phase: TRAIN
  level: 0
  stage: ""
}
layer {
  name: "mnist"
  type: "Data"
  top: "data"
  top: "label"
  include {
    phase: TRAIN
  }
  transform_param {
    scale: 0.00390625
  }
  data_param {
    source: "mnist_train_lmdb"
    batch_size: 64
    backend: LMDB
  }
}
layer {
  name: "conv1"
  type: "Convolution"
  bottom: "data"
  top: "conv1"
  param {
    lr_mult: 1
  }
  param {
    lr_mult: 2
  }
  convolution_param {
    num_output: 20
    kernel_size: 5
    stride: 1
    weight_filler {
      type: "xavier"
    }
    bias_filler {
      type: "constant"
    }
  }
}
layer {
  name: "pool1"
  type: "Pooling"
  bottom: "conv1"
  top: "pool1"
  pooling_param {
    pool: MAX
    kernel_size: 2
    stride: 2
  }
}
layer {
  name: "conv2"
  type: "Convolution"
  bottom: "pool1"
  top: "conv2"
  param {
    lr_mult: 1
  }
  param {
    lr_mult: 2
  }
  convolution_param {
    num_output: 50
    kernel_size: 5
    stride: 1
    weight_filler {
      type: "xavier"
    }
    bias_filler {
      type: "constant"
    }
  }
}
layer {
  name: "pool2"
  type: "Pooling"
  bottom: "conv2"
  top: "pool2"
  pooling_param {
    pool: MAX
    kernel_size: 2
    stride: 2
  }
}
layer {
  name: "ip1"
  type: "InnerProduct"
  bottom: "pool2"
  top: "ip1"
  param {
    lr_mult: 1
  }
  param {
    lr_mult: 2
  }
  inner_product_param {
    num_output: 500
    weight_filler {
      type: "xavier"
    }
    bias_filler {
      type: "constant"
    }
  }
}
layer {
  name: "relu1"
  type: "ReLU"
  bottom: "ip1"
  top: "ip1"
}
layer {
  name: "ip2"
  type: "InnerProduct"
  bottom: "ip1"
  top: "ip2"
  param {
    lr_mult: 1
  }
  param {
    lr_mult: 2
  }
  inner_product_param {
    num_output: 10
    weight_filler {
      type: "xavier"
    }
    bias_filler {
      type: "constant"
    }
  }
}
layer {
  name: "loss"
  type: "SoftmaxWithLoss"
  bottom: "ip2"
  bottom: "label"
  top: "loss"
}
I0811 15:32:58.885982 11616 layer_factory.hpp:77] Creating layer mnist
I0811 15:32:58.886483 11616 common.cpp:42] System entropy source not available, using fallback algorithm to generate seed instead.
I0811 15:32:58.886483 11616 net.cpp:100] Creating Layer mnist
I0811 15:32:58.886483 11616 net.cpp:408] mnist -> data
I0811 15:32:58.886483 11616 net.cpp:408] mnist -> label
I0811 15:32:58.894003 11344 common.cpp:42] System entropy source not available, using fallback algorithm to generate seed instead.
I0811 15:32:58.894505 11344 db_lmdb.cpp:51] Opened lmdb mnist_train_lmdb
I0811 15:32:59.823974 11616 data_layer.cpp:41] output data size: 64,1,28,28
I0811 15:32:59.919729 11616 net.cpp:150] Setting up mnist
I0811 15:32:59.919729 11616 net.cpp:157] Top shape: 64 1 28 28 (50176)
I0811 15:32:59.919729 11616 net.cpp:157] Top shape: 64 (64)
I0811 15:32:59.919729 11616 net.cpp:165] Memory required for data: 200960
I0811 15:32:59.919729 11616 layer_factory.hpp:77] Creating layer conv1
I0811 15:32:59.919729 11616 net.cpp:100] Creating Layer conv1
I0811 15:32:59.919729 11616 net.cpp:434] conv1 <- data
I0811 15:32:59.920230 11616 net.cpp:408] conv1 -> conv1
I0811 15:33:00.054086 12552 common.cpp:42] System entropy source not available, using fallback algorithm to generate seed instead.
I0811 15:33:01.282852 11616 net.cpp:150] Setting up conv1
I0811 15:33:01.282852 11616 net.cpp:157] Top shape: 64 20 24 24 (737280)
I0811 15:33:01.282852 11616 net.cpp:165] Memory required for data: 3150080
I0811 15:33:01.282852 11616 layer_factory.hpp:77] Creating layer pool1
I0811 15:33:01.282852 11616 net.cpp:100] Creating Layer pool1
I0811 15:33:01.282852 11616 net.cpp:434] pool1 <- conv1
I0811 15:33:01.282852 11616 net.cpp:408] pool1 -> pool1
I0811 15:33:01.283354 11616 net.cpp:150] Setting up pool1
I0811 15:33:01.283354 11616 net.cpp:157] Top shape: 64 20 12 12 (184320)
I0811 15:33:01.283354 11616 net.cpp:165] Memory required for data: 3887360
I0811 15:33:01.283354 11616 layer_factory.hpp:77] Creating layer conv2
I0811 15:33:01.283354 11616 net.cpp:100] Creating Layer conv2
I0811 15:33:01.283354 11616 net.cpp:434] conv2 <- pool1
I0811 15:33:01.283354 11616 net.cpp:408] conv2 -> conv2
I0811 15:33:01.290874 11616 net.cpp:150] Setting up conv2
I0811 15:33:01.290874 11616 net.cpp:157] Top shape: 64 50 8 8 (204800)
I0811 15:33:01.290874 11616 net.cpp:165] Memory required for data: 4706560
I0811 15:33:01.291375 11616 layer_factory.hpp:77] Creating layer pool2
I0811 15:33:01.291375 11616 net.cpp:100] Creating Layer pool2
I0811 15:33:01.291375 11616 net.cpp:434] pool2 <- conv2
I0811 15:33:01.291375 11616 net.cpp:408] pool2 -> pool2
I0811 15:33:01.302906 11616 net.cpp:150] Setting up pool2
I0811 15:33:01.303407 11616 net.cpp:157] Top shape: 64 50 4 4 (51200)
I0811 15:33:01.303407 11616 net.cpp:165] Memory required for data: 4911360
I0811 15:33:01.303407 11616 layer_factory.hpp:77] Creating layer ip1
I0811 15:33:01.303407 11616 net.cpp:100] Creating Layer ip1
I0811 15:33:01.303407 11616 net.cpp:434] ip1 <- pool2
I0811 15:33:01.303407 11616 net.cpp:408] ip1 -> ip1
I0811 15:33:01.332485 11616 net.cpp:150] Setting up ip1
I0811 15:33:01.332485 11616 net.cpp:157] Top shape: 64 500 (32000)
I0811 15:33:01.332485 11616 net.cpp:165] Memory required for data: 5039360
I0811 15:33:01.332485 11616 layer_factory.hpp:77] Creating layer relu1
I0811 15:33:01.332485 11616 net.cpp:100] Creating Layer relu1
I0811 15:33:01.332485 11616 net.cpp:434] relu1 <- ip1
I0811 15:33:01.332485 11616 net.cpp:395] relu1 -> ip1 (in-place)
I0811 15:33:01.346521 11616 net.cpp:150] Setting up relu1
I0811 15:33:01.346521 11616 net.cpp:157] Top shape: 64 500 (32000)
I0811 15:33:01.346521 11616 net.cpp:165] Memory required for data: 5167360
I0811 15:33:01.347023 11616 layer_factory.hpp:77] Creating layer ip2
I0811 15:33:01.347023 11616 net.cpp:100] Creating Layer ip2
I0811 15:33:01.347023 11616 net.cpp:434] ip2 <- ip1
I0811 15:33:01.347023 11616 net.cpp:408] ip2 -> ip2
I0811 15:33:01.358554 11616 net.cpp:150] Setting up ip2
I0811 15:33:01.358554 11616 net.cpp:157] Top shape: 64 10 (640)
I0811 15:33:01.358554 11616 net.cpp:165] Memory required for data: 5169920
I0811 15:33:01.358554 11616 layer_factory.hpp:77] Creating layer loss
I0811 15:33:01.358554 11616 net.cpp:100] Creating Layer loss
I0811 15:33:01.358554 11616 net.cpp:434] loss <- ip2
I0811 15:33:01.358554 11616 net.cpp:434] loss <- label
I0811 15:33:01.358554 11616 net.cpp:408] loss -> loss
I0811 15:33:01.358554 11616 layer_factory.hpp:77] Creating layer loss
…
I0811 15:33:01.363066 11616 solver.cpp:196] Creating test net (#0) specified by net file: lenet_train_test.prototxt
I0811 15:33:01.363066 11616 net.cpp:322] The NetState phase (1) differed from the phase (0) specified by a rule in layer mnist
I0811 15:33:01.363066 11616 net.cpp:58] Initializing net from parameters: 
name: "LeNet"
state {
  phase: TEST
}
layer {
  name: "mnist"
  type: "Data"
  top: "data"
  top: "label"
  include {
    phase: TEST
  }
  transform_param {
    scale: 0.00390625
  }
  data_param {
    source: "mnist_test_lmdb"
    batch_size: 100
    backend: LMDB
  }
}
layer {
  name: "conv1"
  type: "Convolution"
  bottom: "data"
  top: "conv1"
  param {
    lr_mult: 1
  }
  param {
    lr_mult: 2
  }
  convolution_param {
    num_output: 20
    kernel_size: 5
    stride: 1
    weight_filler {
      type: "xavier"
    }
    bias_filler {
      type: "constant"
    }
  }
}
layer {
  name: "pool1"
  type: "Pooling"
  bottom: "conv1"
  top: "pool1"
  pooling_param {
    pool: MAX
    kernel_size: 2
    stride: 2
  }
}
layer {
  name: "conv2"
  type: "Convolution"
  bottom: "pool1"
  top: "conv2"
  param {
    lr_mult: 1
  }
  param {
    lr_mult: 2
  }
  convolution_param {
    num_output: 50
    kernel_size: 5
    stride: 1
    weight_filler {
      type: "xavier"
    }
    bias_filler {
      type: "constant"
    }
  }
}
layer {
  name: "pool2"
  type: "Pooling"
  bottom: "conv2"
  top: "pool2"
  pooling_param {
    pool: MAX
    kernel_size: 2
    stride: 2
  }
}
layer {
  name: "ip1"
  type: "InnerProduct"
  bottom: "pool2"
  top: "ip1"
  param {
    lr_mult: 1
  }
  param {
    lr_mult: 2
  }
  inner_product_param {
    num_output: 500
    weight_filler {
      type: "xavier"
    }
    bias_filler {
      type: "constant"
    }
  }
}
layer {
  name: "relu1"
  type: "ReLU"
  bottom: "ip1"
  top: "ip1"
}
layer {
  name: "ip2"
  type: "InnerProduct"
  bottom: "ip1"
  top: "ip2"
  param {
    lr_mult: 1
  }
  param {
    lr_mult: 2
  }
  inner_product_param {
    num_output: 10
    weight_filler {
      type: "xavier"
    }
    bias_filler {
      type: "constant"
    }
  }
}
layer {
  name: "accuracy"
  type: "Accuracy"
  bottom: "ip2"
  bottom: "label"
  top: "accuracy"
  include {
    phase: TEST
  }
}
layer {
  name: "loss"
  type: "SoftmaxWithLoss"
  bottom: "ip2"
  bottom: "label"
  top: "loss"
}
I0811 15:33:01.363066 11616 layer_factory.hpp:77] Creating layer mnist
I0811 15:33:01.363567 11616 net.cpp:100] Creating Layer mnist
I0811 15:33:01.363567 11616 net.cpp:408] mnist -> data
I0811 15:33:01.363567 11616 net.cpp:408] mnist -> label
I0811 15:33:01.413700 13004 common.cpp:42] System entropy source not available, using fallback algorithm to generate seed instead.
I0811 15:33:01.433253 13004 db_lmdb.cpp:51] Opened lmdb mnist_test_lmdb
I0811 15:33:01.433753 11616 data_layer.cpp:41] output data size: 100,1,28,28
I0811 15:33:01.441774 11616 net.cpp:150] Setting up mnist
I0811 15:33:01.441774 11616 net.cpp:157] Top shape: 100 1 28 28 (78400)
I0811 15:33:01.441774 11616 net.cpp:157] Top shape: 100 (100)
I0811 15:33:01.441774 11616 net.cpp:165] Memory required for data: 314000
I0811 15:33:01.441774 11616 layer_factory.hpp:77] Creating layer label_mnist_1_split
I0811 15:33:01.441774 11616 net.cpp:100] Creating Layer label_mnist_1_split
I0811 15:33:01.441774 11616 net.cpp:434] label_mnist_1_split <- label
I0811 15:33:01.441774 11616 net.cpp:408] label_mnist_1_split -> label_mnist_1_split_0
I0811 15:33:01.441774 11616 net.cpp:408] label_mnist_1_split -> label_mnist_1_split_1
I0811 15:33:01.441774 11616 net.cpp:150] Setting up label_mnist_1_split
I0811 15:33:01.441774 11616 net.cpp:157] Top shape: 100 (100)
I0811 15:33:01.441774 11616 net.cpp:157] Top shape: 100 (100)
I0811 15:33:01.441774 11616 net.cpp:165] Memory required for data: 314800
I0811 15:33:01.441774 11616 layer_factory.hpp:77] Creating layer conv1
I0811 15:33:01.441774 11616 net.cpp:100] Creating Layer conv1
I0811 15:33:01.441774 11616 net.cpp:434] conv1 <- data
I0811 15:33:01.441774 11616 net.cpp:408] conv1 -> conv1
I0811 15:33:01.448292 11616 net.cpp:150] Setting up conv1
I0811 15:33:01.448292 11616 net.cpp:157] Top shape: 100 20 24 24 (1152000)
I0811 15:33:01.448292 11616 net.cpp:165] Memory required for data: 4922800
I0811 15:33:01.448292 11616 layer_factory.hpp:77] Creating layer pool1
I0811 15:33:01.448292 11616 net.cpp:100] Creating Layer pool1
I0811 15:33:01.448292 11616 net.cpp:434] pool1 <- conv1
I0811 15:33:01.448292 11616 net.cpp:408] pool1 -> pool1
I0811 15:33:01.448292 11616 net.cpp:150] Setting up pool1
I0811 15:33:01.448292 11616 net.cpp:157] Top shape: 100 20 12 12 (288000)
I0811 15:33:01.448793 11616 net.cpp:165] Memory required for data: 6074800
I0811 15:33:01.448793 11616 layer_factory.hpp:77] Creating layer conv2
I0811 15:33:01.448793 11616 net.cpp:100] Creating Layer conv2
I0811 15:33:01.448793 11616 net.cpp:434] conv2 <- pool1
I0811 15:33:01.448793 11616 net.cpp:408] conv2 -> conv2
I0811 15:33:01.450297 11616 net.cpp:150] Setting up conv2
I0811 15:33:01.450297 11616 net.cpp:157] Top shape: 100 50 8 8 (320000)
I0811 15:33:01.450297 11616 net.cpp:165] Memory required for data: 7354800
I0811 15:33:01.450297 11616 layer_factory.hpp:77] Creating layer pool2
I0811 15:33:01.450297 11616 net.cpp:100] Creating Layer pool2
I0811 15:33:01.450297 11616 net.cpp:434] pool2 <- conv2
I0811 15:33:01.450297 11616 net.cpp:408] pool2 -> pool2
I0811 15:33:01.450799 11616 net.cpp:150] Setting up pool2
I0811 15:33:01.450799 11616 net.cpp:157] Top shape: 100 50 4 4 (80000)
I0811 15:33:01.450799 11616 net.cpp:165] Memory required for data: 7674800
I0811 15:33:01.450799 11616 layer_factory.hpp:77] Creating layer ip1
I0811 15:33:01.450799 11616 net.cpp:100] Creating Layer ip1
I0811 15:33:01.450799 11616 net.cpp:434] ip1 <- pool2
I0811 15:33:01.450799 11616 net.cpp:408] ip1 -> ip1
I0811 15:33:01.453806 11616 net.cpp:150] Setting up ip1
I0811 15:33:01.453806 11616 net.cpp:157] Top shape: 100 500 (50000)
I0811 15:33:01.453806 11616 net.cpp:165] Memory required for data: 7874800
I0811 15:33:01.453806 11616 layer_factory.hpp:77] Creating layer relu1
I0811 15:33:01.453806 11616 net.cpp:100] Creating Layer relu1
I0811 15:33:01.453806 11616 net.cpp:434] relu1 <- ip1
I0811 15:33:01.453806 11616 net.cpp:395] relu1 -> ip1 (in-place)
I0811 15:33:01.454308 11616 net.cpp:150] Setting up relu1
I0811 15:33:01.454809 11616 net.cpp:157] Top shape: 100 500 (50000)
I0811 15:33:01.454809 11616 net.cpp:165] Memory required for data: 8074800
I0811 15:33:01.454809 11616 layer_factory.hpp:77] Creating layer ip2
I0811 15:33:01.454809 11616 net.cpp:100] Creating Layer ip2
I0811 15:33:01.454809 11616 net.cpp:434] ip2 <- ip1
I0811 15:33:01.454809 11616 net.cpp:408] ip2 -> ip2
I0811 15:33:01.454809 11616 net.cpp:150] Setting up ip2
I0811 15:33:01.454809 11616 net.cpp:157] Top shape: 100 10 (1000)
I0811 15:33:01.454809 11616 net.cpp:165] Memory required for data: 8078800
I0811 15:33:01.454809 11616 layer_factory.hpp:77] Creating layer ip2_ip2_0_split
I0811 15:33:01.454809 11616 net.cpp:100] Creating Layer ip2_ip2_0_split
I0811 15:33:01.454809 11616 net.cpp:434] ip2_ip2_0_split <- ip2
I0811 15:33:01.454809 11616 net.cpp:408] ip2_ip2_0_split -> ip2_ip2_0_split_0
I0811 15:33:01.454809 11616 net.cpp:408] ip2_ip2_0_split -> ip2_ip2_0_split_1
I0811 15:33:01.454809 11616 net.cpp:150] Setting up ip2_ip2_0_split
I0811 15:33:01.454809 11616 net.cpp:157] Top shape: 100 10 (1000)
I0811 15:33:01.454809 11616 net.cpp:157] Top shape: 100 10 (1000)
I0811 15:33:01.454809 11616 net.cpp:165] Memory required for data: 8086800
I0811 15:33:01.454809 11616 layer_factory.hpp:77] Creating layer accuracy
I0811 15:33:01.454809 11616 net.cpp:100] Creating Layer accuracy
I0811 15:33:01.454809 11616 net.cpp:434] accuracy <- ip2_ip2_0_split_0
I0811 15:33:01.454809 11616 net.cpp:434] accuracy <- label_mnist_1_split_0
I0811 15:33:01.454809 11616 net.cpp:408] accuracy -> accuracy
…
